hbbops_improved_3/results/10x25/gp_model_final.pt (torch, 631613 bytes, 29 tensors)

deep_kernel.base_kernel.raw_lengthscale f4 [1, 10]
0.0943206 0.034522403 0.055548318 0.08413589 -0.012419572 0.021394834 0.05993857 0.03169423
0.009907584 0.049393084
00000000: 292b c13d 5d67 0d3d a286 633d 704f ac3d
00000010: 767b 4bbc 3844 af3c 2582 753d cfd1 013d
00000020: 6b53 223c 6750 4a3d

fidelity_kernel.covar_factor f4 [20, 3]
1.3260964 1.2256147 -0.9818509 0.9175345 0.8636598 0.8810048 1.162405 0.44166023
0.9291868 1.0466584 1.165616 0.52091724 0.50241286 1.3257753 0.7004241 1.1601282
1.2409737 0.51555896 0.6553413 0.16755514 0.8803324 0.8798515 0.9507554 0.945333
0.78282255 -0.21445647 1.1612793 0.20258194 0.28395864 1.4213228 1.0189109 -0.42455372
2.2595217 0.7710749 0.34922552 1.0192121 0.65198606 0.11036548 0.650825 1.2817937
1.8842789 -0.77237666 -1.4796857 1.576554 -0.23538946 0.68700886 0.5941084 0.81028503
0.51251286 1.3360634 0.45738328 0.15309355 1.2731909 -0.08634995 -0.07756011 -0.075426936
1.2698832 0.2757547 1.0686022 1.0647587
00000000: 87bd a93f f1e0 9c3f 955a 7bbf 8ae3 6a3f
00000010: cf18 5d3f 8889 613f b0c9 943f 4a21 e23e
00000020: 30df 6d3f e7f8 853f e832 953f d55a 053f
00000030: 219e 003f 01b3 a93f fe4e 333f 157f 943f
00000040: 3ad8 9e3f acfb 033f 73c4 273f 9393 2b3e
00000050: 775d 613f f33d 613f b564 733f 5801 723f
00000060: 0f67 483f 7a9a 5bbe cda4 943f a471 4f3e
00000070: 0763 913e e8ed b53f ac6b 823f 1b5f d9be
00000080: 019c 1040 2a65 453f b0cd b23e 8b75 823f
00000090: 8fe8 263f 4c07 e23d 789c 263f d111 a43f
000000a0: 0d30 f13f 7aba 45bf 5766 bdbf 85cc c93f
000000b0: ef09 71be d0df 2f3f 7d17 183f d76e 4f3f
000000c0: 0b34 033f 2004 ab3f 242e ea3e 8ec4 1c3e
000000d0: ebf7 a23f 3ed8 b0bd d6d7 9ebd 7079 9abd
000000e0: 888b a23f b82f 8d3e f5c7 883f 034a 883f

fidelity_kernel.raw_var f4 [20]
0.5052462 -1.3191186 -0.69214886 -0.08617792 0.17749724 -0.440259 -0.6904477 -0.5742629
-1.8736384 0.21134917 -0.75248665 -2.7111816 0.23684381 -0.58657885 0.86297345 0.40693223
-0.86964995 0.5262708 -0.20256557 0.4821721
00000000: d157 013f e1d8 a8bf ab30 31bf 0d7e b0bd
00000010: d6c1 353e a169 e1be 2ec1 30bf e502 13bf
00000020: 62d3 efbf eb6b 583e f7a2 40bf 0084 2dc0
00000030: 2f87 723e 082a 16bf d4eb 5c3f 6c59 d03e
00000040: 61a1 5ebf afb9 063f 596d 4fbe 43df f63e

feature_extractor.instruction_encoder.0.weight f4 [64, 768]
0.10826771 0.050620448 -0.019880187 0.08203476 0.022042967 0.052076902 0.022819113 0.05237925
0.048905663 -0.008560505 0.038107924 0.004275619 0.049338676 0.08351993 0.09055703 0.07743109
0.08962293 0.08182946 0.060136326 0.051568713 0.058249313 0.05899576 0.083900236 0.07386575
-0.021161148 0.07825474 0.049877938 0.07539437 0.03029837 0.03775788 0.066250585 0.07701132
0.070329025 0.00483795 0.08876768 0.053566054 0.07544131 0.07520096 0.086080976 0.1328846
0.075941816 0.059488688 -0.04561174 -0.029078925 0.10914397 0.1110861 0.07403487 -0.0248613
0.053069606 0.012696884 0.11758395 0.029167183 0.02669284 0.06346417 -0.006659304 0.05736695
-0.01293929 0.033649914 0.03694289 0.061941363 -0.006625589 0.07905459 0.039497975 0.060938958
0.0016145705 0.09221401 -0.011199216 0.09484875 0.04026959 0.08285783 0.06273506 0.08619127
0.06891065 0.024367293 0.10647404 -0.034895808 0.08267273 0.11338677 0.066617 0.080566965
0.10918985 0.1169369 -0.019460395 0.05777133 0.05523341 0.024915583 0.061854683 0.099277176
0.10198572 0.021562578 -0.0067659067 0.039354432 0.040260084 0.06331218 0.067047834 0.028491618
0.07906494 0.1359909 0.05832976 0.08741171 0.05860534 0.059367556 0.028852018 0.07455055
0.10764874 0.079462536 0.1066869 -0.05142346 0.07969541 -0.024513995 0.057691485 0.08217516
0.0693414 0.078054994 0.07087066 0.012946489 0.07038459 -0.0012044789 0.0719607 0.043258388
0.0745246 0.07733397 0.06958259 -0.0014129865 0.0035071664 0.096041314 0.06784142 0.09494537
-0.0324361 0.028129386 0.077577576 0.065208025 0.075988814 0.020285275 0.04540165 0.0827016
0.06109725 0.03133096 0.09959358 0.036410224 0.09734264 0.07391189 0.033832915 0.07289296
0.004414196 0.09199467 0.08568045 0.02714399 -0.0071165096 -0.02051627 0.059677303 0.048040546
0.048274502 0.06207543 0.149632 0.10637651 0.08264077 0.071235314 0.041864477 0.07408913
-0.0313126 0.02822575 0.09158675 0.0077198236 0.0067076427 0.07933767 0.046719432 -0.0069951005
-0.035107657 0.07942219 -0.035995364 0.099595234 -0.014574572 0.06704844 0.075449914 0.079324655
0.09074292 0.06836795 -0.049394626 -0.05639482 0.09993314 -0.02689691 0.046017148 0.052728422
0.048655115 0.077069394 0.04230829 0.10795019 -0.050187606 0.09290648 0.06261556 0.089393236
0.08330145 0.080226436 0.048252214 -0.025502227 0.043605443 0.116926126 0.0871774 0.057391085
0.07432517 0.07325857 0.05614541 0.08520787 -0.019851297 0.08891958 0.08940181 0.060069133
0.09176525 -0.03161066 0.028308254 0.044763535 0.048036013 -0.042775832 0.06430689 0.087195046
0.030881613 0.079665825 0.070748396 -0.065779194 0.008076116 0.14870536 0.06876093 -0.0052013537
0.041377287 0.0041330657 0.043255486 0.07020832 0.015225227 0.058807727 0.10104069 -0.015883842
0.027576763 0.02567523 0.088194296 -0.0030934538 0.0024429415 0.016622633 -0.005339403 0.05668377
0.103373446 0.06183437 0.056527168 0.07647728 -0.037430238 0.07667674 0.06708184 0.1210723
-0.035077877 0.11785103 0.059531752 0.054796048 0.10096503 0.074242115 0.0641328 0.037484348
00000000: 76bb dd3d 6357 4f3d c6db a2bc d701 a83d
00000010: 7493 b43c 974e 553d 26ef ba3c a08b 563d
00000020: 4e51 483d 5c41 0cbc 0e17 1c3d 7e1a 8c3b
00000030: 5a17 4a3d 7f0c ab3d f775 b93d 3194 9e3d
00000040: 3a8c b73d 3496 a73d 8251 763d b739 533d
00000050: d596 6e3d 8aa5 713d e3d3 ab3d ed46 973d
00000060: 255a adbc 0544 a03d cf4c 4c3d 5d68 9a3d
00000070: 4a34 f83c 02a8 1a3d 63ae 873d 1cb8 9d3d
00000080: aa08 903d ab87 9e3b d4cb b53d 1468 5b3d
00000090: f980 9a3d f602 9a3d 394b b03d e712 083e
000000a0: 6287 9b3d 69aa 733d 60d3 3abd ed36 eebc
000000b0: e086 df3d 1c81 e33d 989f 973d eda9 cbbc
000000c0: 845f 593d 9706 503c dbcf f03d 04f0 ee3c
000000d0: f1aa da3c 81f9 813d 4a36 dabb 9bf9 6a3d
000000e0: 51ff 53bc 7ed4 093d 6e51 173d 3ab6 7d3d
000000f0: 781b d9bb 5fe7 a13d a1c8 213d 219b 793d
00000100: ff9f d33a b3da bc3d eb7c 37bc 1040 c23d
00000110: baf1 243d 5eb1 a93d 3d7b 803d 0c85 b03d
00000120: 0721 8d3d eb9d c73c 100f da3d e8ee 0ebd
00000130: 5250 a93d 5337 e83d 7e6e 883d 4b00 a53d
00000140: ee9e df3d 9d7c ef3d 686b 9fbc a1a1 6c3d
00000150: 6e3c 623d c41b cc3c 565b 7d3d d551 cb3d
00000160: e4dd d03d 01a4 b03c 8ab4 ddbb 1d32 213d
00000170: c2e7 243d d1a9 813d 6050 893d 4167 e93c
00000180: cdec a13d 3341 0b3e 30eb 6e3d e904 b33d
00000190: 270c 703d 652b 733d 115b ec3c f5ad 983d
000001a0: f176 dc3d 41bd a23d a97e da3d 68a1 52bd
000001b0: 5937 a33d 93d1 c8bc e84d 6c3d 734b a83d
000001c0: dd02 8e3d 4cdb 9f3d a324 913d 831d 543c
000001d0: cc25 903d 9bdf 9dba 2260 933d b52f 313d
000001e0: 5aa0 983d 4661 9e3d 5181 8e3d f633 b9ba
000001f0: 7dd8 653b 4fb1 c43d 71f0 8a3d b872 c23d
00000200: b7db 04bd 996f e63c fee0 9e3d c98b 853d
00000210: 06a0 9b3d 4e2d a63c 15f7 393d 755f a93d
00000220: 1c41 7a3d e554 003d b8f7 cb3d e322 153d
00000230: 945b c73d 1e5f 973d 6294 0a3d e748 953d
00000240: f6a4 903b b467 bc3d 3b79 af3d 135d de3c
00000250: 9c31 e9bb bd11 a8bc 3070 743d 2ac6 443d
00000260: 7cbb 453d ce42 7e3d 2239 193e eddb d93d
00000270: 903f a93d d2e3 913d 167a 2b3d 0bbc 973d
00000280: a441 00bd b039 e73c d591 bb3d 93f6 fc3b
00000290: c9cb db3b ca7b a23d e05c 3f3d 2837 e5bb
000002a0: 0ccd 0fbd 1aa8 a23d e06f 13bd 96f8 cb3d
000002b0: 30ca 6ebc b150 893d 7c85 9a3d f774 a23d
000002c0: 6dd7 b93d 7f04 8c3d 0552 4abd 41fe 66bd
000002d0: bfa9 cc3d e956 dcbc 7a7c 3c3d c2f9 573d
000002e0: 964a 473d 8fd6 9d3d 754b 2d3d fd14 dd3d
000002f0: 8591 4dbd c145 be3d 963c 803d cd13 b73d
00000300: f399 aa3d c24d a43d 1da4 453d 0cea d0bc
00000310: 9f9b 323d f776 ef3d 118a b23d ea12 6b3d
00000320: cb37 983d 9708 963d bbf8 653d 7781 ae3d
00000330: 309f a2bc 781b b63d 4c18 b73d 0d0b 763d
00000340: 6bef bb3d 2e7a 01bd b6e6 e73c f859 373d
00000350: 69c1 443d b635 2fbd 55b3 833d 5193 b23d
00000360: 70fb fc3c d627 a33d 89e4 903d 3eb7 86bd
00000370: b051 043c 3846 183e 88d2 8c3d 1e70 aabb
00000380: 3b7b 293d ab6e 873b aa2c 313d 61c9 8f3d
00000390: 3b73 793c 5fe0 703d 6cee ce3d d51e 82bc
000003a0: aae8 e13c dc54 d23c 369f b43d 8bbb 4abb
000003b0: c219 203b 302c 883c 29f6 aebb 3e2d 683d
000003c0: 75b5 d33d 0946 7d3d 0889 673d 1fa0 9c3d
000003d0: 7350 19bd b208 9d3d 3462 893d c1f4 f73d
000003e0: d2ad 0fbd e15b f13d 91d7 733d d271 603d
000003f0: c1c6 ce3d 400c 983d 0f58 833d 3089 193d

feature_extractor.instruction_encoder.0.bias f4 [64]
0.06543196 0.08988319 0.087640695 -0.04493448 -0.08909725 -0.055341836 0.06006329 -0.107729524
0.084083214 0.026002185 -0.028978622 -0.08355858 0.008815031 0.02179502 -0.06435683 -0.03498028
0.039566737 -0.0037958191 0.0144215105 -0.08341752 0.08794777 0.07859049 0.06592515 0.08168935
-0.02145535 0.043360304 0.018568147 0.0126077 0.07420244 -0.05167704 0.06086618 -0.07844676
0.027292157 0.0733536 -0.017635114 -0.08150926 0.08455178 0.023809876 -0.091823824 -0.026962535
0.039274946 -0.17444378 0.07019378 -0.034183364 -0.07266279 -0.076459974 0.054457325 -0.008968746
0.05868656 -0.010440306 0.07679085 0.07224645 -0.06476587 -0.033244777 -0.07692913 0.031627167
0.074489646 -0.054889668 -0.072756134 0.10382657 0.047792137 -0.04426971 -0.06462308 0.06205466
00000000: 3101 863d ae14 b83d f77c b33d 380d 38bd
00000010: 9e78 b6bd 1fae 62bd ed04 763d 4ca1 dcbd
00000020: d233 ac3d 8902 d53c 9364 edbc c320 abbd
00000030: eb6c 103c 788b b23c 84cd 83bd 7b47 0fbd
00000040: bb10 223d 47c3 78bb 3348 6c3c ced6 aabd
00000050: f61d b43d 0df4 a03d c403 873d bf4c a73d
00000060: 21c3 afbc 939a 313d 3a1c 983c 8790 4e3c
00000070: 73f7 973d 4eab 53bd d14e 793d b2a8 a0bd
00000080: cd93 df3c 6a3a 963d 8477 90bc 54ee a6bd
00000090: 7c29 ad3d ee0c c33c 210e bcbd 89e0 dcbc
000000a0: c4de 203d 64a1 32be c2c1 8f3d db03 0cbd
000000b0: 3bd0 94bd 0c97 9cbd a50e 5f3d a6f1 12bc
000000c0: 5161 703d d10d 2bbc 8544 9d3d f2f5 933d
000000d0: f8a3 84bd ad2b 08bd 058d 9dbd 7d8b 013d
000000e0: 078e 983d fdd3 60bd 2b01 95bd 06a3 d43d
000000f0: b0c1 433d 2854 35bd 1b59 84bd 072d 7e3d

feature_extractor.instruction_encoder.2.weight f4 [32, 64]
-0.10664379 0.0040256362 0.028770078 0.09810728 0.08769233 0.16291519 0.06872491 -0.073963806
-0.16980979 -0.017878551 -0.11459973 -0.17352508 -0.00519158 0.10047372 0.012428172 -0.0906008
-0.076812774 0.06288398 -0.11183565 0.060583 -0.05034797 0.006738748 0.03598162 0.06766739
-0.066350795 0.010460458 -0.041649505 0.11931882 0.13300216 0.09111952 0.001610972 0.12471173
-0.0654702 -0.01397133 -0.040361494 -0.14225681 0.033923257 -0.08757387 0.023966037 -0.016278546
-0.104689814 -0.05587143 0.17249772 -0.036420047 0.040025935 -0.04339062 -0.014344069 -0.020744191
-0.14975128 -0.03689552 0.07453829 -0.024943782 0.17680241 0.071037 0.025798475 0.06739836
-0.16691704 0.044483475 0.04049878 -0.08062769 -0.20641232 0.002665538 -0.027025688 0.05209524
0.12949827 -0.0050705518 0.057768855 0.086042605 0.012797366 -0.08498936 0.0923178 -0.026464114
0.1559423 0.12667726 0.058393385 0.09852004 -0.12743507 0.1103288 -0.10605024 -0.08018313
0.18309148 -0.08157044 -0.048871867 -0.01698579 0.034228716 0.116719484 -0.075315416 0.09610155
0.018045349 -0.0811096 0.022254288 0.15066919 0.11309195 0.11832302 0.044529293 0.12399434
0.113742575 0.07495656 0.1197217 0.07170036 0.015748529 0.015262516 0.11518001 -0.07065304
-0.044865105 0.005090542 0.013087832 0.057750493 0.029677585 -0.027943224 -0.04946818 0.028727684
0.09349123 -0.035253517 0.041115735 -0.018075686 0.14028178 -0.045076266 -0.024499204 -0.04526919
0.112199076 0.010230278 0.10439043 0.10619786 0.13440305 0.05865682 0.16938177 0.05427645
-0.05602863 0.16017105 -0.011635689 -0.1503713 -0.039909475 -0.065055594 -0.15761974 0.037673995
0.018072743 0.037745196 -0.10607433 -0.028244007 -0.07704135 -0.097995326 0.1612137 0.08962076
0.0021390899 0.05471355 -0.044755477 0.02673277 -0.088153735 0.040330086 -0.026140323 0.0785992
0.052692715 -0.11183032 -0.04386753 0.0036460075 0.0068584345 -0.13259636 -0.0113730645 -0.01610783
-0.0663501 -0.015941398 -0.11523913 -0.0579407 -0.075324796 0.11441101 -0.010417983 0.045798074
-0.16866295 0.013946603 -0.12862435 0.04679939 -0.04282942 0.09412454 -0.115869634 -0.050166767
0.12343331 0.07095898 -0.12067732 -0.055396695 -0.0016809659 -0.077149905 0.04160381 0.10411743
-0.033256225 0.0044895946 0.03801121 0.057611335 0.16293992 -0.047424674 -0.079742424 -0.10470544
-0.13861398 -0.18740606 0.052626323 0.09508925 0.1531093 -0.0024081978 0.049796276 0.12882623
-0.07292096 -0.071545206 0.14932886 0.15689056 0.17271602 0.047285505 -0.03852819 0.07746587
-0.0046512806 -0.080093846 0.033768676 0.08602003 -0.15785542 -0.14877285 0.093192935 0.06324789
0.056768965 -0.030487265 0.10558861 0.03662371 0.06039261 -0.022912472 0.001037894 -0.11274331
0.13658579 0.05963228 0.081945576 0.003917605 -0.0419422 0.029639425 0.1250785 -0.07722689
0.051298287 -0.057385262 -0.03212109 0.15091468 -0.0011220484 0.09860731 -0.03845268 -0.05600651
0.040328022 -0.025723843 0.15149698 -0.036679957 -0.048899002 -0.11467267 0.06538922 0.11639009
0.12565945 0.11740467 -0.018024884 -0.16190822 -0.097643934 0.08707123 -0.022144428 -0.036661096
00000000: 0f68 dabd 7ce9 833b 3aaf eb3c 78ec c83d
00000010: 0998 b33d 3dd3 263e a5bf 8c3d 567a 97bd
00000020: 9ee2 2dbe 0a76 92bc 43b3 eabd 8fb0 31be
00000030: 211e aabb 2ac5 cd3d 889f 4b3c ea8c b9bd
00000040: 0450 9dbd 51c9 803d 170a e5bd e125 783d
00000050: ac39 4ebd b7d0 dc3b 7761 133d 3395 8a3d
00000060: ede2 87bd 5762 2b3c ac98 2abd 6d5d f43d
00000070: b831 083e df9c ba3d 4027 d33a dd68 ff3d
00000080: 3d15 86bd 01e8 64bc 1852 25bd c5ab 11be
00000090: 1df3 0a3d ee59 b3bd 6c54 c43c 965a 85bc
000000a0: 9d67 d6bd 71d9 64bd 3ea3 303e 302d 15bd
000000b0: 3cf2 233d 5dba 31bd 6303 6bbc b9ef a9bc
000000c0: 6658 19be c21f 17bd 88a7 983d e756 ccbc
000000d0: b10b 353e d97b 913d 5357 d33c 2708 8a3d
000000e0: 4dec 2abe 4e34 363d 0ce2 253d 2120 a5bd
000000f0: c05d 53be 4fb0 2e3b fa64 ddbc d261 553d
00000100: 329b 043e df26 a6bb 099f 6c3d 1b37 b03d
00000110: 0bac 513c e70e aebd 1d11 bd3d 45cb d8bc
00000120: 57af 1f3e afb7 013e e72d 6f3d e0c4 c93d
00000130: 577e 02be 11f4 e13d de30 d9bd 0e37 a4bd
00000140: 557c 3b3e 670e a7bd de2d 48bd c925 8bbc
00000150: 6933 0c3d a00a ef3d f83e 9abd e4d0 c43d
00000160: d7d3 933c ca1c a6bd a04e b63c 0649 1a3e
00000170: c19c e73d 5753 f23d 5964 363d bff0 fd3d
00000180: def1 e83d d382 993d a730 f53d a3d7 923d
00000190: 0f03 813c a20f 7a3c 7fe3 eb3d 8bb2 90bd
000001a0: 79c4 37bd 90ce a63b 596e 563c c88b 6c3d
000001b0: 681e f33c 30e9 e4bc 259f 4abd 5256 eb3c
000001c0: 5478 bf3d fe65 10bd f968 283d 7613 94bc
000001d0: 07a6 0f3e e4a1 38bd 8eb2 c8bc 306c 39bd
000001e0: a1c8 e53d e59c 273c a6ca d53d 437e d93d
000001f0: f4a0 093e 2242 703d 6a72 2d3e fc50 5e3d
00000200: 477e 65bd e103 243e 9ea3 3ebc effa 19be
00000210: 1e78 23bd de3b 85bd 1267 21be 0c50 1a3d
00000220: 4a0d 943c b59a 1a3d 803d d9bd fa5f e7bc
00000230: dbc7 9dbd c6b1 c8bd 3415 253e 178b b73d
00000240: f92f 0c3b 511b 603d 8551 37bd affe da3c
00000250: f289 b4bd 2931 253d 3b24 d6bc 9ef8 a03d
00000260: 51d4 573d 4b07 e5bd 70ae 33bd dbf1 6e3b
00000270: b8bc e03b 57c7 07be 1756 3abc 91f4 83bc
00000280: 90e2 87bd 8997 82bc 7e02 ecbd 3a53 6dbd
00000290: e343 9abd 5250 ea3d 30b0 2abc c396 3b3d
000002a0: fbb5 2cbe 4b80 643c 1ab6 03be b8b0 3f3d
000002b0: e76d 2fbd 5ec4 c03d 0f4d edbd ab7b 4dbd
000002c0: 9aca fc3d f152 913d ac25 f7bd a5e7 62bd
000002d0: db53 dcba c500 9ebd c268 2a3d 853b d53d
000002e0: ae37 08bd 731d 933b a4b1 1b3d ddf9 6b3d
000002f0: b9d9 263e 6040 42bd ff4f a3bd ce6f d6bd
00000300: d3f0 0dbe 60e7 3fbe b38e 573d 27be c23d
00000310: afc8 1c3e dbd2 1dbb 2ef7 4b3d 06eb 033e
00000320: 9657 95bd 4b86 92bd aae9 183e eba7 203e
00000330: 78dc 303e 72ae 413d bccf 1dbd 6da6 9e3d
00000340: c569 98bb 3e08 a4bd 0651 0a3d 452b b03d
00000350: daa4 21be e957 18be f0db be3d 1c88 813d
00000360: 9386 683d 6ec0 f9bc d73e d83d be02 163d
00000370: 3e5e 773d f0b2 bbbc f209 883a f7e5 e6bd
00000380: 25dd 0b3e fa40 743d 15d3 a73d 415f 803b
00000390: 96cb 2bbd 61ce f23c 9414 003e 2229 9ebd
000003a0: 271e 523d cf0c 6bbd 6791 03bd 6189 1a3e
000003b0: b211 93ba a1f2 c93d 8f80 1dbd 1567 65bd
000003c0: ff2e 253d cfba d2bc 0622 1b3e b93d 16bd
000003d0: 524a 48bd 81d9 eabd c9ea 853d ed5d ee3d
000003e0: dfac 003e dc71 f03d eca8 93bc 45cb 25be
000003f0: 8bf9 c7bd 6752 b23d 3b68 b5bc f229 16bd

feature_extractor.instruction_encoder.2.bias f4 [32]
0.13491298 0.0108640585 0.122902736 0.038903978 -0.08717989 -0.032507554 -0.0040601054 0.076821715
0.12411024 -0.084655754 -0.04377874 -0.119427525 0.01655715 -0.039054032 0.014908867 0.08085948
0.18724485 0.042210348 0.16424792 0.056935243 -0.14482985 -0.06799445 0.09126301 0.024387935
0.1781758 0.06164575 0.1517197 0.0054497984 -0.16407284 -0.05040501 0.15343815 -0.08129672
00000000: a126 0a3e 2aff 313c 6eb4 fb3d c759 1f3d
00000010: 5f8b b2bd a426 05bd a20a 85bb b454 9d3d
00000020: 822d fe3d ff5f adbd 5651 33bd 6b96 f4bd
00000030: dca2 873c 1ff7 1fbd 5244 743c a899 a53d
00000040: 1dbd 3f3e c2e4 2c3d 9b30 283e ee34 693d
00000050: 474e 14be ad40 8bbd 1ae8 ba3d 35c9 c73c
00000060: b873 363e 4180 7c3d 695c 1b3e 3994 b23b
00000070: b602 28be 7c75 4ebd e41e 1d3e e57e a6bd

feature_extractor.exemplar_encoder.0.weight f4 [64, 768]
0.068261094 0.059365112 0.058117833 0.035852026 0.056292143 0.02031083 0.10321765 0.00031628786
0.086721584 -0.048376646 0.046416126 -0.04410905 0.06317794 0.069722 0.0709125 0.069623485
0.12024895 0.056898344 -0.07923347 -0.05789492 0.06870037 0.07198718 0.06830186 -0.0567696
0.0033713279 0.011261871 0.08807191 0.09840074 0.0853803 0.10250663 0.017777719 0.08344968
0.052741673 0.020965189 -0.012095164 0.051907014 -0.11610037 0.027895236 0.08384264 0.0943465
0.028638648 -0.097399086 0.022271698 0.05067254 0.015623692 0.058650088 0.06090084 0.08137527
0.064020164 0.029618047 0.07260822 0.073042236 0.05671101 0.095833175 0.07719884 0.064857475
0.077558994 -0.078389764 0.045070276 0.044695463 0.03583812 0.062219094 0.071370535 0.060167655
-0.021539804 0.09284954 0.06902821 0.05872415 0.036991164 0.026015252 0.100489505 -0.013666668
-0.020238109 0.08036987 0.08642121 0.03632524 0.084862806 0.024148889 0.049238406 0.04322187
-0.053790297 0.05649527 0.050640512 0.06927454 0.014834912 -0.07775563 0.04721472 0.029407395
-0.086795695 0.05417657 0.024349786 0.03485604 0.113021225 0.035855357 0.10518918 0.067633145
-0.04286654 0.06491004 0.047717802 0.027370246 0.02262201 -0.06418476 0.061665937 0.021076892
0.046779558 -0.051065065 0.08729587 0.030234521 -0.10433638 0.04250349 0.072452284 0.089385875
0.01874648 0.08155407 0.1034361 -0.105777174 -0.07547282 0.050275773 -0.003831774 0.089972086
0.05252996 0.05446845 0.09673345 -0.09703612 0.06359637 -0.10875243 0.07556793 0.009860893
0.060387917 0.07293016 0.024067273 0.04475488 0.10034228 0.07467652 0.03732795 -0.04505777
-0.10651774 0.041540436 0.081851184 0.037962053 0.042340595 0.057448067 0.064250976 0.05999449
0.033579916 0.09508891 0.07979119 -0.11801737 0.06269825 0.022763705 0.027662778 0.044598173
0.039621726 -0.056914866 0.01239089 0.017199391 0.060021453 0.07623262 0.044104017 -0.09620816
0.03979965 0.03003919 0.104968354 0.08377974 0.12697409 0.10553365 0.06640467 0.08697123
-0.07300917 0.021013804 -0.035397056 0.065679826 0.08804163 0.06939447 0.09038169 0.019040994
0.029060587 0.0808702 0.07179847 0.087449886 -0.12434586 0.076313995 0.07420548 0.008725885
0.048749518 0.05763029 0.080429 0.08660166 0.073999286 0.051666863 0.07806497 0.057822853
0.039328165 0.0495742 0.028738229 0.06452266 0.032878812 0.09911628 0.030465195 -0.04186005
0.01760209 -0.06549374 0.09303108 0.04163354 0.077609286 0.042099472 0.0038104637 0.117354065
-0.08811823 0.061049152 0.07040226 -0.08073763 0.057041317 0.07747071 0.08301728 0.04238809
0.02043258 -0.09737558 0.07210936 0.026991324 0.10995414 0.025937602 0.071044184 0.04530407
0.05219204 0.090635434 0.08156822 0.033488303 0.06612703 0.026749853 0.060842317 0.026829267
0.03721368 -0.08172716 0.088053755 0.084662534 0.06801829 0.060284767 -0.022105614 -0.1026966
0.08441461 0.09200818 0.05444895 0.05213277 0.07398801 0.04995809 -0.05447323 0.018901877
0.061096307 0.10487735 0.065257505 0.09599095 -0.012222458 0.0035054756 0.06573044 0.08853879
00000000: 79cc 8b3d d528 733d f70c 6e3d 93d9 123d
00000010: 9792 663d e662 a63c c663 d33d 70d3 a539
00000020: 169b b13d 9726 46bd d61e 3e3d b1ab 34bd
00000030: 7063 813d 68ca 8e3d 933a 913d c296 8e3d
00000040: 1545 f63d 3d0e 693d 2845 a2bd 3923 6dbd
00000050: c8b2 8c3d 046e 933d d8e1 8b3d 3d87 68bd
00000060: 7ff1 5c3b b683 383c 0c5f b43d 5486 c93d
00000070: dedb ae3d ffee d13d 94a2 913c aae7 aa3d
00000080: a707 583d 30bf ab3c cb2a 46bc 739c 543d
00000090: 08c6 edbd 8d84 e43c b1b5 ab3d bd38 c13d
000000a0: 999b ea3c 2c79 c7bd 2373 b63c 028e 4f3d
000000b0: 84fa 7f3c 133b 703d 2973 793d 14a8 a63d
000000c0: 011d 833d 8ca1 f23c 9eb3 943d 2b97 953d
000000d0: ce49 683d 2f44 c43d 6d1a 9e3d ffd3 843d
000000e0: 40d7 9e3d d08a a0bd 9c9b 383d 9712 373d
000000f0: feca 123d 73d9 7e3d b72a 923d 5c72 763d
00000100: 3e74 b0bc e627 be3d aa5e 8d3d bc88 703d
00000110: 0c84 173d f01d d53c 71cd cd3d 29ea 5fbc
00000120: 64ca a5bc f598 a43d 9afd b03d c6c9 143d
00000130: 8dcc ad3d e4d3 c53c 36ae 493d 6a09 313d
00000140: 3753 5cbd 9667 673d 6d6c 4f3d cfdf 8d3d
00000150: 210e 733c 583e 9fbd 3964 413d c7e7 f03c
00000160: f1c1 b1bd 40e8 5d3d 3479 c73c 35c5 0e3d
00000170: ac77 e73d 11dd 123d 6d6d d73d 3f83 8a3d
00000180: d394 2fbd 8eef 843d be73 433d 9137 e03c
00000190: cb51 b93c 4d73 83bd 6c95 7c3d 72a9 ac3c
000001a0: ec9b 3f3d 9a29 51bd 2dc8 b23d 63ae f73c
000001b0: 50ae d5bd 2418 2e3d dd61 943d f10f b73d
000001c0: 3892 993c d205 a73d 4ed6 d33d b4a1 d8bd
000001d0: 7e91 9abd f8ed 4d3d 801e 7bbb 4943 b83d
000001e0: a829 573d 4f1a 5f3d 301c c63d e0ba c6bd
000001f0: d03e 823d 98b9 debd 5cc3 9a3d 958f 213c
00000200: 5259 773d 685c 953d bb28 c53c e550 373d
00000210: 4180 cd3d 01f0 983d 31e5 183d 7f8e 38bd
00000220: f925 dabd 4e26 2a3d 98a1 a73d 197e 1b3d
00000230: 556d 2d3d aa4e 6b3d 0496 833d c8bc 753d
00000240: 188b 093d f9bd c23d 9069 a33d 17b3 f1bd
00000250: f167 803d f37a ba3c 0d9d e23c 93ac 363d
00000260: 644a 223d 901f 69bd 2903 4b3c bde5 8c3c
00000270: 0ed9 753d d91f 9c3d 6aa6 343d c908 c5bd
00000280: f504 233d bf14 f63c a6f9 d63d b694 ab3d
00000290: 7f05 023e 0722 d83d 2cff 873d f91d b23d
000002a0: d585 95bd 2425 ac3c 81fc 10bd 2583 863d
000002b0: 2c4f b43d b01e 8e3d 091a b93d dcfb 9b3c
000002c0: 7810 ee3c 479f a53d 140b 933d ed18 b33d
000002d0: 0ba9 febd 834a 9c3d 0bf9 973d 04f7 0e3c
000002e0: 93ad 473d bd0d 6c3d f6b7 a43d 365c b13d
000002f0: f08c 973d a2a0 533d 87e0 9f3d a8d7 6c3d
00000300: 9216 213d 510e 4b3d 6f6c eb3c 7524 843d
00000310: efab 063d 7afd ca3d 2592 f93c 7275 2bbd
00000320: 4232 903c 9521 86bd 1487 be3d ee87 2a3d
00000330: 9ef1 9e3d 7f70 2c3d f9b8 793b 5457 f03d
00000340: 5577 b4bd ad0e 7a3d 0f2f 903d c559 a5bd
00000350: 28a4 693d f7a8 9e3d f704 aa3d 229f 2d3d
00000360: 3a62 a73c d96c c7bd 12ae 933d e91c dd3c
00000370: a32f e13d 187b d43c 9d7f 913d c390 393d
00000380: 52c7 553d 129f b93d 3d0d a73d 082b 093d
00000390: 9c6d 873d 8222 db3c cb35 793d 0dc9 db3c
000003a0: 5f6d 183d 9260 a7bd 8755 b43d 8d63 ad3d
000003b0: 2c4d 8b3d 29ed 763d d516 b5bc 9852 d2bd
000003c0: 91e1 ac3d c96e bc3d dd05 5f3d 2c89 553d
000003d0: 0787 973d dba0 4c3d 521f 5fbd 1cd8 9a3c
000003e0: 1f40 7a3d f0c9 d63d baa5 853d e796 c43d
000003f0: b440 48bc 1fbc 653b ae9d 863d d353 b53d

feature_extractor.exemplar_encoder.0.bias f4 [64]
0.06145292 0.024213877 0.07930582 -0.03404148 -0.0630276 -0.0853616 0.042431097 0.034803756
0.02824781 -0.030711984 0.06372793 0.054319974 -0.043730114 0.03182335 0.08856195 0.03183936
0.025679225 0.041361935 -0.026652873 0.094325244 0.0040476583 -0.061756272 0.08811365 -0.08051956
0.008359142 -0.07305872 0.026835712 -0.08852723 0.069986016 0.02126617 -0.050851893 0.05172537
-0.09120521 -0.0027145585 0.022618271 0.0764868 0.024815077 0.06044483 0.086896054 0.088770956
-0.07171947 -0.031731583 0.0881773 -0.09274078 -0.09061774 -0.033173557 -0.03447697 0.08057446
-0.04109032 -0.012811142 0.050580338 0.059161633 0.040892597 -0.07995364 -0.08862144 0.02246654
-0.050764665 -0.02228814 -0.024560988 0.08070924 0.028921986 0.015521231 0.02370551 0.02023656
00000000: 0fb6 7b3d 2e5c c63c 176b a23d 146f 0bbd
00000010: 9d14 81bd 10d2 aebd 3bcc 2d3d 628e 0e3d
00000020: f467 e73c b397 fbbc ca83 823d 9f7e 5e3d
00000030: 591e 33bd 3359 023d f85f b53d fd69 023d
00000040: 3d5d d23c 226b 293d 2057 dabc 982d c13d
00000050: 38a2 843b 25f4 7cbd ee74 b43d 70e7 a4bd
00000060: c8f4 083c cf9f 95bd 91d6 db3c c44d b5bd
00000070: d454 8f3d 6436 ae3c 134a 50bd fbdd 533d
00000080: ccc9 babd bce6 31bb f449 b93c 1da5 9c3d
00000090: fd48 cb3c 0095 773d 8ff6 b13d 8ccd b53d
000000a0: a8e1 92bd faf8 01bd 4d96 b43d e1ee bdbd
000000b0: cb95 b9bd ffe0 07bd b937 0dbd 3904 a53d
000000c0: 534e 28bd d3e5 51bc 542d 4f3d 7853 723d
000000d0: ff7e 273d bcbe a3bd 287f b5bd c00b b83c
000000e0: 9cee 4fbd 9e95 b6bc 2034 c9bc e34a a53d
000000f0: cded ec3c c34c 7e3c 0f32 c23c 24c7 a53c

feature_extractor.exemplar_encoder.2.weight f4 [32, 64]
0.11790948 0.031555146 0.06547746 0.03415068 0.00092152803 0.06619767 0.118502006 0.1357617
0.024201915 -0.112628505 0.1248647 0.013443612 0.0017215853 0.08837854 0.068674505 0.058939185
0.08802537 0.037149787 -0.00961361 -0.12185737 -0.11271391 0.08168213 0.07334728 -0.022496667
0.097559504 0.1091304 0.028378764 -0.008744655 0.060471132 -0.018669609 0.13212667 0.19624108
0.04375089 -0.07258553 -0.06096833 0.10742656 0.0045338455 0.144367 0.10058728 0.048198644
0.03301073 -0.044934567 -0.013897992 0.07500115 -0.1010611 -0.061644334 -0.034726527 0.050190646
0.049257006 -0.121766746 -0.052526858 0.05265983 -0.009717378 -0.03146403 -0.009683357 0.050949574
0.17286557 0.0351034 -0.021621205 0.042892758 0.111310676 -0.08053399 0.013572831 0.11155039
0.087827615 0.088113636 0.012436181 -0.16090961 0.179787 0.14012134 0.06724419 0.082621746
0.0906534 -0.019088253 0.13900392 0.0009246595 0.017887754 0.07741624 -0.048928495 0.13897546
-0.07736505 -0.009803824 -0.09062271 -0.012504882 -0.08004594 -0.02480425 -0.0148805445 -0.059337176
-0.055522285 0.14635724 0.051547196 0.15287656 0.022545122 0.09540483 -0.05204433 0.1446091
0.10857844 -0.11617906 0.04159902 0.079368025 0.019724568 0.067611255 0.028375175 -0.035989363
-0.048766594 -0.09035733 0.022024332 0.15084319 -0.17283292 0.18051699 0.14572774 0.0628233
0.1348094 -0.11862046 -0.07682896 0.030898005 0.009647027 0.052989855 0.049823835 -0.002334258
0.033757076 -0.086165935 -0.05283499 0.021124976 -0.016715316 0.013886816 -0.031349927 -0.08095949
-0.09317962 0.0016074769 0.008597641 -0.10574695 -0.04112647 -0.10427204 0.08554564 0.12049079
-0.106867515 -0.004901675 0.053621847 -0.067125835 -0.05734918 -0.06155164 0.091141924 -0.057903208
-0.0061037624 0.0027909963 -0.09711357 0.045908216 -0.059700444 0.023217645 -0.080210134 -0.06742216
-0.03687648 -0.11241472 -0.06733701 0.047393307 -0.07436516 -0.0849284 -0.064307086 -0.07186009
-0.04954151 -0.077296965 -0.032505162 0.10487859 -0.10492747 -0.07714577 -0.015685046 -0.060580503
0.0006508475 0.0314037 -0.09495943 -0.080686904 0.017377684 0.00019412427 0.09151458 0.030271633
-0.04926545 0.119770154 -0.021947078 -0.06094661 -0.03744224 -0.049184043 -0.025272187 -0.0679793
-0.085833825 -0.03316391 0.022889243 -0.025739506 -0.106132455 -0.10278245 0.02961943 -0.014618408
0.09194414 -0.16125324 -0.080899544 0.039232045 -0.014917835 0.05452116 -0.032870553 0.16720907
0.0001337789 -0.10836522 0.022304352 -0.0926274 0.10478918 -0.095810436 -0.14369407 -0.040255014
0.100899085 -0.03155673 -0.019943198 -0.117290236 -0.11032152 -0.05554276 0.04494566 0.03325571
0.04008412 -0.044075415 -0.13703145 -0.17999972 -0.12326302 -0.061375026 -0.15567215 0.09142729
-0.04977875 0.027735423 -0.016142916 0.10513892 -0.0005106012 0.014535322 -0.10926966 -0.09367958
-0.06416321 0.041766983 -0.17977485 0.011582818 -0.0019506889 -0.057943217 0.046171185 -0.051951703
-0.1256022 0.07523396 0.004651743 -0.07113374 0.027991613 -0.13104719 -0.057977825 0.02357036
0.061595008 -0.037265826 0.15616103 -0.0496114 -0.10867453 -0.10070442 0.060710687 0.008110579
00000000: 877a f13d f83f 013d 0c19 863d 95e1 0b3d
00000010: b392 713a a592 873d 2eb1 f23d 1d05 0b3e
00000020: 1843 c63c c6a9 e6bd 10b9 ff3d 9842 5c3c
00000030: d1a6 e13a cfff b43d 38a5 8c3d 376a 713d
00000040: a546 b43d 602a 183d 6782 1dbc 5b90 f9bd
00000050: 8dd6 e6bd f648 a73d 1937 963d ee4a b8bc
00000060: 47cd c73d c27f df3d 957a e83c be45 0fbc
00000070: 94b0 773d 02f1 98bc 374c 073e 6cf3 483e
00000080: 2234 333d b9a7 94bd edb9 79bd 7502 dc3d
00000090: a790 943b f1d4 133e b400 ce3d f16b 453d
000000a0: 4236 073d 4f0d 38bd 67b4 63bc 349a 993d
000000b0: 1ff9 cebd c57e 7cbd 673d 0ebd b594 4d3d
000000c0: b7c1 493d d860 f9bd 6726 57bd d5b1 573d
000000d0: a335 1fbc 6de0 00bd f1a6 1ebc 80b0 503d
000000e0: ac03 313e 95c8 0f3d f41e b1bc 51b0 2f3d
000000f0: daf6 e33d 01ef a4bd 9460 5e3c 8874 e43d
00000100: f7de b33d ec74 b43d 20c1 4b3c 7dc5 24be
00000110: 151a 383e f87b 0f3e 52b7 893d 9735 a93d
00000120: 7da8 b93d f85e 9cbc 0b57 0e3e d964 723a
00000130: 5789 923c 688c 9e3d 3f69 48bd 954f 0e3e
00000140: 9171 9ebd 38a0 20bc 6698 b9bd 47e1 4cbc
00000150: 20ef a3bd 4832 cbbc 87cd 73bc 8a0b 73bd
00000160: 566b 63bd acde 153e 2723 533d ac8b 1c3e
00000170: 8cb0 b83c 9c63 c33d 6f2c 55bd 6814 143e
00000180: 605e de3d 49ef edbd bc63 2a3d b48b a23d
00000190: 6b95 a13c c577 8a3d 0e73 e83c 9569 13bd
000001a0: 7bbf 47bd 440d b9bd 5f6c b43c a376 1a3e
000001b0: 1dfb 30be 72d9 383e a739 153e 81a9 803d
000001c0: 7a0b 0a3e 49ef f2bd 8058 9dbd d01d fd3c
000001d0: 900e 1e3c e40b 593d 1414 4c3d 5afa 18bb
000001e0: dc44 0a3d c477 b0bd 8169 58bd 490e ad3c
000001f0: 8fee 88bc 8785 633c c868 00bd 17ce a5bd
00000200: f5d4 bebd f9b1 d23a 1fdd 0c3c db91 d8bd
00000210: 3b74 28bd 948c d5bd 8d32 af3d e0c3 f63d
00000220: 5bdd dabd 3b9e a0bb 95a2 5b3d 4579 89bd
00000230: f9e6 6abd 931d 7cbd 9ea8 ba3d ea2b 6dbd
00000240: 1202 c8bb 26e9 363b 7be3 c6bd 410a 3c3d
00000250: 7488 74bd ee32 be3c 3645 a4bd a114 8abd
00000260: cb0b 17bd b039 e6bd fce7 89bd 7c1f 423d
00000270: c34c 98bd f1ee adbd 6fb3 83bd 622b 93bd
00000280: 0aec 4abd df4d 9ebd 2224 05bd 96ca d63d
00000290: 37e4 d6bd 9afe 9dbd ed7d 80bc 4323 78bd
000002a0: a39d 2a3a 2ba1 003d 177a c2bd 2d3f a5bd
000002b0: a55b 8e3c d68d 4b39 ff6b bb3d 37fc f73c
000002c0: 92ca 49bd 0e4a f53d 5cca b3bc 27a3 79bd
000002d0: 095d 19bd 3575 49bd 9e07 cfbc bb38 8bbd
000002e0: a5c9 afbd e1d6 07bd 3982 bb3c a8db d2bc
000002f0: f95b d9bd 9b7f d2bd 72a4 f23c 0c82 6fbc
00000300: 364d bc3d 921f 25be a9ae a5bd c8b1 203d
00000310: ef69 74bc 9451 5f3d 46a3 06bd db38 2b3e
00000320: 0047 0c39 96ee ddbd 9eb7 b63c 6fb3 bdbd
00000330: b69b d63d 4338 c4bd 8a24 13be 71e2 24bd
00000340: 2ea4 ce3d a141 01bd eb5f a3bc dd35 f0bd
00000350: 40f0 e1bd ce80 63bd f118 383d 2437 083d
00000360: 3f2f 243d 6c88 34bd f951 0cbe d951 38be
00000370: 5271 fcbd 6164 7bbd 8568 1fbe 3b3e bb3d
00000380: cde4 4bbd 6635 e33c 263e 84bc 1353 d73d
00000390: ded9 05ba 8f25 6e3c c6c8 dfbd 14db bfbd
000003a0: 0068 83bd db13 2b3d e616 38be dcc5 3d3c
000003b0: 42ae ffba de55 6dbd ff1d 3d3d 4fcb 54bd
000003c0: dd9d 00be 4314 9a3d a66d 983b 91ae 91bd
000003d0: ab4e e53c 3c31 06be 287a 6dbd a116 c13c
000003e0: 0c4b 7c3d 0da4 18bd ade8 1f3e 5335 4bbd
000003f0: c190 debd 1e3e cebd c5ab 783d 3ce2 043c

feature_extractor.exemplar_encoder.2.bias f4 [32]
0.09631188 0.022515243 -0.041452277 0.036296513 -0.18033491 -0.019353747 -0.10462433 0.11789206
-0.032670293 -0.022180852 -0.12684964 0.13047875 -0.067800514 -0.024409814 -0.07835184 -0.036558602
0.028653739 0.08958606 0.07334062 -0.14272454 -0.13587703 -0.09483952 -0.003330208 0.075644225
0.027680453 -0.14308982 -0.04829308 0.027085807 -0.053665057 -0.1356131 -0.007869785 -0.11761852
00000000: 2a3f c53d e371 b83c ddc9 29bd a7ab 143d
00000010: b7a9 38be c08b 9ebc 4845 d6bd 6471 f13d
00000020: 49d1 05bd 9eb4 b5bc dfe4 01be 399c 053e
00000030: ffda 8abd 17f7 c7bc ee76 a0bd 79be 15bd
00000040: 3fbb ea3c e578 b73d 9b33 963d 6226 12be
00000050: 5923 0bbe 393b c2bd 9e3f 5abb 5ceb 9a3d
00000060: 1ec2 e23c 2386 12be f7ce 45bd 0ee3 dd3c
00000070: e4cf 5bbd 29de 0abe 45f0 00bc fbe1 f0bd

feature_extractor.joint_encoder.0.weight f4 [32, 64]
0.16094542 -0.14030178 0.029841138 -0.08445246 -0.056735132 0.071364254 0.030767238 0.11689888
-0.018988634 -0.1232237 0.09886946 0.07946745 0.02456771 -0.014633731 0.04999814 0.09456451
0.024477948 -0.045846254 -0.019788476 -0.12869768 0.021155385 -0.04141776 0.118124686 0.0043858
0.08398171 0.0415639 -0.03472382 0.062471606 -0.09325084 0.050262783 0.05211011 0.096478574
0.051716294 -0.03154595 -0.09149691 0.011476051 0.11713564 0.04990359 -0.013722795 -0.09070809
-0.03303976 0.050323207 0.095541745 -0.0711385 0.041440886 0.10743783 0.071800455 0.053709604
0.020179132 0.09686967 0.1445669 -0.019980483 -0.05206985 -0.020930842 -0.053939518 0.0411175
0.04836843 -0.07738418 0.053440265 0.11640049 0.057340134 0.09279488 0.0788715 -0.042736202
-0.13749816 -0.14970705 -0.16625278 0.045489077 0.058042686 -0.09046743 -0.11300675 0.14960861
0.059114166 0.066709146 -0.022059396 -0.07648684 -0.10244595 0.12627934 -0.035356652 0.1001921
-0.016770286 -0.089820184 -0.17181967 0.0021317801 -0.04284523 -0.018030755 -0.054233123 -0.01298829
-0.06893525 0.16976331 -0.024739586 0.024686132 -0.1324487 -0.074086025 -0.09904931 -0.026428258
-0.061759528 -0.14931497 0.094344616 0.042892087 -0.05438306 0.036392923 0.0978979 0.024775311
-0.10654032 0.0068720984 -0.07252244 -0.060328633 -0.007200416 -0.0011930831 -0.13294917 -0.11589835
-0.017610436 -0.033675846 -0.04658095 0.012452881 0.005630075 -0.14579415 0.18223606 0.1315463
0.15320608 0.036197465 0.12018438 -0.025349842 -0.013752953 -0.012560131 0.026624463 0.04788861
0.004087146 0.104122 -0.031652458 0.1255101 0.028429203 0.044316377 0.07987305 0.024470491
-0.07185095 -0.07597457 0.017315654 -0.012761568 -0.029872015 -0.024521591 0.08615131 -0.013204546
-0.06861655 0.034741685 0.0031763453 -0.012237666 0.030513877 0.054886386 0.11987142 -0.039707437
0.016001642 0.054480594 -0.1474616 -0.10605361 -0.040625904 -0.0040657 -0.091586895 -0.06267227
-0.030221878 0.08384517 -0.07887179 -0.073737234 -0.040507946 -0.094167605 0.010393786 -0.107407734
0.050239 -0.014628326 0.15911087 -0.14424597 0.07427887 -0.018664382 0.07974872 -0.10424418
0.09631602 0.1822472 0.06514191 -0.11863516 0.12271059 -0.0930027 0.101753056 0.14590263
-0.046558492 0.16217138 0.02962106 0.098903514 -0.15915966 0.0052853446 0.13543773 -0.09913053
0.007575285 -0.17892103 -0.010627553 -0.09118012 -0.06287568 0.14541557 -0.053060666 -0.02351033
-0.069628924 -0.0031948553 -0.1096532 0.0441909 0.029834373 -0.1377046 -0.008302908 0.060637105
-0.13015825 -0.011193358 0.05803528 -0.11667167 -0.031409565 -0.044184446 -0.093852215 -0.14154664
-0.10412622 0.122337796 0.0965839 -0.012764049 0.025777845 0.033134732 0.10404208 0.11127458
-0.13967142 -0.14152604 -0.111226365 0.12736689 -0.0055579334 -0.018144615 -0.03006622 0.09062844
-0.067529336 -0.07162426 -0.009839835 0.1424079 0.09136838 0.06841806 -0.007887307 0.032938965
-0.09972627 0.0374088 -0.10326905 0.03265776 0.07371206 0.06917466 0.038420383 -0.050254043
0.14597568 0.065173484 0.098819405 0.017937789 0.13362792 0.081183895 -0.060204584 0.16002719
00000000: e0ce 243e 45ab 0fbe 6775 f43c 69f5 acbd
00000010: 1963 68bd 6c27 923d 930b fc3c ae68 ef3d
00000020: 0d8e 9bbc b55c fcbd 127c ca3d d5bf a23d
00000030: 3942 c93c 51c2 6fbc daca 4c3d 0aab c13d
00000040: fa85 c83c 48c9 3bbd 711b a2bc 53c9 03be
00000050: 0f4e ad3c aba5 29bd 5beb f13d c2b6 8f3b
00000060: 9afe ab3d e83e 2a3d 903a 0ebd 3ae2 7f3d
00000070: 4cfa bebd 59e0 4d3d 6971 553d 8f96 c53d
00000080: 77d4 533d 5336 01bd bb62 bbbd 0c06 3c3c
00000090: cfe4 ef3d b567 4c3d 93d5 60bc 2ac5 b9bd
000000a0: b354 07bd b51f 4e3d 64ab c33d 10b1 91bd
000000b0: ebbd 293d 5d08 dc3d 1e0c 933d 9afe 5b3d
000000c0: b54e a53c 9b63 c63d 5809 143e 1cae a3bc
000000d0: 3247 55bd 2877 abbc afef 5cbd d36a 283d
000000e0: fa1d 463d 997b 9ebd 2ee4 5a3d 6163 ee3d
000000f0: 7ddd 6a3d 3e0b be3d 6287 a13d 280c 2fbd
00000100: 51cc 0cbe ce4c 19be 2b3e 2abe c152 3a3d
00000110: 2bbe 6d3d fd46 b9bd 1570 e7bd 0033 193e
00000120: b221 723d ce9e 883d e8b5 b4bc 22a5 9cbd
00000130: 2fcf d1bd 5f4f 013e 23d2 10bd 8431 cd3d
00000140: d761 89bc a5f3 b7bd 7ff1 2fbe 56b5 0b3b
00000150: 7b7e 2fbd 3cb5 93bc 8d23 5ebd d6cc 54bc
00000160: ed2d 8dbd 6fd6 2d3e acaa cabc 923a ca3c
00000170: a2a0 07be 6aba 97bd 5dda cabd 1380 d8bc
00000180: 8ff7 7cbd 06e6 18be c037 c13d 9daf 2f3d
00000190: c6c0 5ebd bf10 153d b27e c83d 98f5 ca3c
000001a0: d031 dabd 572f e13b a586 94bd 281b 77bd
000001b0: 78f1 ebbb 3a61 9cba d423 08be 1d5c edbd
000001c0: c343 90bc afef 09bd abcb 3ebd 2b07 4c3c
000001d0: 7e7c b83b 104b 15be 179c 3a3e 13b4 063e
000001e0: 0ee2 1c3e cb43 143d 3a23 f63d 79aa cfbc
000001f0: 1154 61bc 02c9 4dbc 8c1b da3c d926 443d
00000200: 77ed 853b ea3d d53d 02a6 01bd b885 003e
00000210: 5ce4 e83c 1785 353d 7b94 a33d 5776 c83c
00000220: 9726 93bd 8e98 9bbd 8fd9 8d3c e515 51bc
00000230: 28b6 f4bc 81e1 c8bc 1970 b03d e157 58bc
00000240: d586 8cbd 4c4d 0e3d 3b2a 503b 7e80 48bc
00000250: 3df8 f93c 8cd0 603d 267f f53d 44a4 22bd
00000260: e015 833c 0b27 5f3d 2c00 17be a332 d9bd
00000270: 5967 26bd 9039 85bb e991 bbbd 525a 80bd
00000280: df93 f7bc 04b7 ab3d 8887 a1bd 8c03 97bd
00000290: a9eb 25bd f2da c0bd b34a 2a3c 96f8 dbbd
000002a0: 69c7 4d3d a5ab 6fbc f6ed 223e 37b5 13be
000002b0: 851f 983d 0ce6 98bc 4c53 a33d f97d d5bd
000002c0: 5541 c53d 039f 3a3e 1f69 853d fef6 f2bd
000002d0: b14f fb3d 3378 bebd e863 d03d 8067 153e
000002e0: 1eb4 3ebd 4110 263e dda7 f23c ed8d ca3d
000002f0: c0fa 22be af30 ad3b 30b0 0a3e f304 cbbd
00000300: 193a f83b 1337 37be 301f 2ebc a5bc babd
00000310: f7c4 80bd d2e7 143e 2456 59bd bc98 c0bc
00000320: 9c99 8ebd c760 51bb db91 e0bd 8401 353d
00000330: 3767 f43c 6f02 0dbe ec08 08bc 9d5e 783d
00000340: 3448 05be 5964 37bc 67b6 6d3d 8ef1 eebd
00000350: 51a7 00bd c0fa 34bd 9735 c0bd 9af1 10be
00000360: 2140 d5bd 3d8c fa3d c8cd c53d 4d20 51bc
00000370: 0f2c d33c 49b8 073d 0414 d53d ede3 e33d
00000380: 0606 0fbe 34ec 10be a6ca e3bd 776c 023e
00000390: 531f b6bb 04a4 94bc 6f4d f6bc 679b b93d
000003a0: d24c 8abd bdaf 92bd 4237 21bc 60d3 113e
000003b0: 581f bb3d c51e 8c3d c339 01bc 02eb 063d
000003c0: 493d ccbd f839 193d b97e d3bd 25c4 053d
000003d0: 59f6 963d 72ab 8d3d b15e 1d3d 2fd7 4dbd
000003e0: a67a 153e ad79 853d d461 ca3d 45f2 923c
000003f0: c2d5 083e be43 a63d 1599 76bd 2bde 233e

feature_extractor.joint_encoder.0.bias f4 [32]
-0.0115358075 -0.015661009 0.029778643 -0.03472582 -0.11320623 0.07318953 -0.14588173 0.10505871
-0.14168218 0.10302411 -0.004225554 0.06060188 0.023571491 -0.13169739 -0.0335619 -0.03721551
0.030754624 -0.07716299 -0.011587634 0.03288565 -0.010968346 0.122940846 -0.06293347 0.09104789
0.12083656 0.008136599 0.06587418 0.015688373 -0.11204479 -0.061327036 0.07204595 0.10878209
00000000: af00 3dbc 844b 80bc 57f2 f33c a93c 0ebd
00000010: abd8 e7bd 64e4 953d 0562 15be 0529 d73d
00000020: 2215 11be 4efe d23d 8476 8abb ad39 783d
00000030: 0019 c13c aedb 06be 3478 09bd 4a6f 18bd
00000040: 1ff1 fb3c a107 9ebd 0fda 3dbc 1ab3 063d
00000050: 94b4 33bc 69c8 fb3d 43e3 80bd 5177 ba3d
00000060: 2979 f73d 5f4f 053c 0be9 863d e784 803c
00000070: bd77 e5bd 0f32 7bbd d48c 933d 25c9 de3d

feature_extractor.joint_encoder.2.weight f4 [10, 32]
0.09839254 0.021788295 0.03589619 0.06767383 -0.06280625 -0.083885625 -0.16108993 -0.032182835
0.11589595 0.14360139 -0.06596745 0.008626358 -0.11094446 0.18730922 -0.043016586 0.021533916
0.05262729 -0.029913405 -0.03432837 0.049505834 -0.09174046 0.025470888 -0.09931567 0.0022979747
-0.038814552 -0.20889594 -0.015997007 -0.096570134 0.1919083 -0.13195811 -0.18781433 0.10370987
0.13015305 -0.010464891 -0.0007886078 0.041795738 0.013054697 -0.1437653 0.061729304 0.0154886
-0.077281795 -0.025394402 0.020587558 -0.047424603 -0.06111521 -0.007915445 0.068023 0.026444402
0.056998048 -0.0021214006 0.026604185 0.09576746 0.18273175 -0.11627032 -0.026385369 0.14608248
-0.050748542 0.0041165287 0.007217635 -0.10777274 0.2106679 0.032300916 -0.074790575 0.06106475
-0.15313381 0.17180796 -0.067756526 -0.10940601 0.0118925935 0.063638195 0.12420603 -0.015509108
0.085357815 -0.115752764 -0.15337442 -0.043201502 -0.017918132 -0.20360032 0.06926237 -0.0064519644
0.0741859 0.028295726 0.045455046 -0.056261584 -0.05086561 0.057902873 -0.006444831 0.0539163
-0.052398592 -0.21543355 0.13720588 0.0007313255 0.03504834 0.09406282 0.043627333 0.117783055
-0.0462799 0.06303566 0.105082415 0.14416176 0.020917766 0.08187371 0.0071267914 -0.01752458
0.05437748 -0.0038646227 -0.122981116 -0.072151676 -0.025314793 0.03286905 -0.028126653 -0.0018100472
0.06268036 0.07286065 0.11374427 -0.056301188 0.045256633 0.004965676 0.01529683 -0.005862674
0.0065896963 -0.06273088 -0.040163174 -0.026701305 -0.075580046 -0.066310145 0.015445424 -0.09518061
0.07339733 0.10643061 -0.07711809 -0.16625567 0.038797956 0.010859065 -0.10468125 0.03657934
-0.056291036 0.041680228 0.21934475 0.009017649 0.0025584907 0.12055058 -0.010608776 0.016191518
-0.048716813 0.040910255 -0.09195848 -0.058254026 -0.006002075 -0.041908517 0.016022686 0.03048759
-0.07734941 0.20360807 -0.035999384 0.030989047 0.070406206 0.08153118 0.116047375 -0.21633463
0.014867707 0.19952632 0.14107864 0.10188781 0.01805736 0.14245942 0.02098558 0.060553282
0.01674106 0.1432761 -0.0856861 -0.0636519 -0.007511155 -0.18945089 -0.040723458 0.0030806407
0.01983165 -0.02464276 0.0609414 -0.14292464 -0.03322681 -0.10074277 0.032638308 -0.09148338
0.0976464 -0.10195334 -0.045088325 -0.11738235 -0.028126681 -0.21006228 0.19366041 0.07560989
-0.123449184 -0.039876662 0.11189697 0.15226777 -0.009008799 0.09632432 0.11283077 0.004323982
0.11472158 -0.057803463 -0.13941225 -0.043726128 0.08884166 -0.21247101 0.05110138 -0.034796573
-0.025111206 0.05275071 0.062526636 -0.1186675 -0.11952322 0.09139425 0.00659608 -0.079258956
-0.048017193 -0.04971365 0.08396401 0.036050007 -0.107405946 0.22736637 -0.035287786 -0.103386335
-0.15474868 -0.0912652 0.023083841 0.086812384 0.03777051 -0.058730546 -0.0075756917 -0.054599427
0.0669032 0.1249485 -0.1520628 -0.088893734 0.05476323 -0.084039904 -0.100792825 -0.0094929645
-0.11652674 0.096077725 -0.031749874 -0.016006649 -0.11328408 -0.017641377 -0.0466339 -0.02257153
0.04985029 -0.1287489 0.024560252 0.0047124606 0.2055524 -0.008101293 0.21624756 -0.058726355
00000000: 0782 c93d 5e7d b23c e207 133d 9498 8a3d
00000010: 90a0 80bd 3acc abbd c2f4 24be 26d2 03bd
00000020: db5a ed3d 3e0c 133e f119 87bd 9155 0d3c
00000030: d936 e3bd fdcd 3f3e 2932 30bd e567 b03c
00000040: b78f 573d f50c f5bc e89b 0cbd a1c6 4a3d
00000050: 6ce2 bbbd 53a8 d03c 0466 cbbd 9e99 163b
00000060: 02fc 1ebd d1e8 55be 280c 83bc 90c6 c5bd
00000070: 9c83 443e 0720 07be 6652 40be d765 d43d
00000080: d746 053e ef74 2bbc 93ba 4eba 0232 2b3d
00000090: 5ee3 553c 3637 13be ded7 7c3d e6c3 7d3c
000000a0: eb45 9ebd ec07 d0bc 3da7 a83c 4d40 42bd
000000b0: f153 7abd c8af 01bc a54f 8b3d eea1 d83c
000000c0: c976 693d 3207 0bbb 05f1 d93c bb21 c43d
000000d0: 081e 3b3e 221f eebd 2126 d8bc a596 153e
000000e0: b4dd 4fbd f2e3 863b e981 ec3b f4b7 dcbd
000000f0: 53b9 573e f74d 043d cd2b 99bd 081f 7a3d
00000100: 1ccf 1cbe 6dee 2f3e efc3 8abd 4210 e0bd
00000110: 27d9 423c be54 823d bb5f fe3d ea19 7ebc
00000120: 14d0 ae3d c90f edbd 2f0e 1dbe 0ff4 30bd
00000130: 0cc9 92bc 9a7c 50be 6ed9 8d3d 006b d3bb
00000140: c7ee 973d 70cc e73c 122f 3a3d 8c72 66bd
00000150: 7558 50bd 902b 6d3d 292f d3bb 57d7 5c3d
00000160: e89f 56bd 9d9a 5cbe b37f 0c3e 6cb6 3f3a
00000170: d98e 0f3d 02a4 c03d 93b2 323d 3e38 f13d
00000180: fe8f 3dbd d718 813d 7335 d73d 249f 133e
00000190: bc5b ab3c 67ad a73d dc87 e93b b58f 8fbc
000001a0: ecba 5e3d 9c45 7dbb 86dd fbbd 42c4 93bd
000001b0: f860 cfbc b2a1 063d de69 e6bc 1b3f edba
000001c0: 905e 803d f737 953d c1f2 e83d 139c 66bd
000001d0: 055f 393d 1cb7 a23b 8e9f 7a3c ad1b c0bb
000001e0: 61ee d73b 0c79 80bd 2482 24bd b2bc dabc
000001f0: b6c9 9abd 9dcd 87bd ce0e 7d3c 0dee c2bd
00000200: 5751 963d 4bf8 d93d 17f0 9dbd ed3e 2abe
00000210: 9bea 1e3d 38ea 313c 2063 d6bd 38d4 153d
00000220: 6e91 66bd e3b8 2a3d e99b 603e c3be 133c
00000230: 5aac 273b 39e3 f63d 6ed0 2dbc 13a4 843c
00000240: 488b 47bd 8391 273d ba54 bcbd c69b 6ebd
00000250: 0ead c4bb 44a8 2bbd 0242 833c 1cc1 f93c
00000260: 5e69 9ebd a27e 503e 1774 13bd bedc fd3c
00000270: 2131 903d d2f9 a63d 3faa ed3d d386 5dbe
00000280: af97 733c a150 4c3e eb76 103e 8eaa d03d
00000290: 07ed 933c e2e0 113e f3e9 ab3c b806 783d
000002a0: 8c24 893c f8b6 123e 327c afbd ed5b 82bd
000002b0: 2320 f6bb 6aff 41be a4cd 26bd 93e4 493b
000002c0: fc75 a23c 9ddf c9bc b09d 793d d65a 12be
000002d0: d618 08bd 3a52 cebd bfaf 053d a35b bbbd
000002e0: d6fa c73d eacc d0bd 89ae 38bd 2866 f0bd
000002f0: ed69 e6bc 911a 57be ea4e 463e 5cd9 9a3d
00000300: edd2 fcbd b655 23bd 3d2a e53d 15ec 1b3e
00000310: a499 13bc af45 c53d d213 e73d 31b0 8d3b
00000320: 26f3 ea3d 53c3 6cbd 16c2 0ebe 2b1a 33bd
00000330: 9ef2 b53d 0092 59be ae4f 513d da86 0ebd
00000340: 04b6 cdbc 2111 583d f70d 803d f207 f3bd
00000350: 97c8 f4bd e92c bb3d ee23 d83b 8552 a2bd
00000360: adad 44bd 8aa0 4bbd 53f5 ab3d 2ca9 133d
00000370: a6f7 dbbd bbd2 683e ed89 10bd 37bc d3bd
00000380: 7076 1ebe 40e9 babd 531a bd3c b1ca b13d
00000390: 40b5 1a3d 718f 70bd 823d f8bb a6a3 5fbd
000003a0: 8b04 893d 00e5 ff3d 5ab6 1bbe eb0d b6bd
000003b0: 694f 603d 1d1d acbd 786c cebd 6188 1bbc
000003c0: 92a5 eebd 66c4 c43d 280c 02bd 6020 83bc
000003d0: 7c01 e8bd a684 90bc 3003 3fbd eee7 b8bc
000003e0: d12f 4c3d c0d6 03be 9532 c93c fc6a 9a3b
000003f0: 547c 523e 49bb 04bc 0070 5d3e 0c8b 70bd

feature_extractor.joint_encoder.2.bias f4 [10]
-0.013488582 0.13870965 -0.19472133 -0.010884562 0.015505523 0.055586725 -0.062119257 -0.075907774
0.07928981 -0.013065531
00000000: 37ff 5cbc e709 0e3e 0765 47be 2955 32bc
00000010: e10a 7e3c e8ae 633d c370 7ebd 8975 9bbd
00000020: b262 a23d cf10 56bc
