generation/invbo_decoder/results_cosine_gap/gp.pt (torch, 224829 bytes, 17 tensors)

covar_module.base_kernel.raw_lengthscale f4 [1, 10]
000000 16 c2 0d bf 75 6a 21 bf 99 0a 13 bf cd 41 2b bf
       -0.55374277 -0.63053066 -0.57438046 -0.6689728
000010 16 42 19 bf c9 91 18 bf d5 d0 17 bf 1f c0 28 bf
       -0.59866464 -0.5959745 -0.5930303 -0.65918154
000020 18 e1 34 bf 9f 86 28 bf
       -0.70655966 -0.65830415

feature_extractor.encoder.0.weight f4 [64, 768]
000000 fb 46 e4 3c 11 7e 9d 3c 26 49 9b 3d 1e c8 bd 3c
       0.027865877 0.019225152 0.07582311 0.023166712
000010 aa 64 82 3d db 46 ca 3d dc 76 ac 3d 63 c0 c1 bc
       0.063668564 0.09876796 0.08421108 -0.023651307
000020 5e 21 ba 3d f6 71 16 3d 5f c5 02 bd 4f 0a bc 3d
       0.090883955 0.036729775 -0.03192651 0.09181654
000030 1e b1 f2 3d 0a 5f 4a bd ee 8c be 3d 5d 6d c5 3d
       0.11850189 -0.049407043 0.09304224 0.0964
000040 62 15 b0 3d 76 1a 0d 3d 99 f9 61 3d 99 0d 07 be
       0.085978284 0.034449063 0.055169675 -0.13188781
000050 03 3b e0 3d 33 dd 37 3c 9c b1 a5 bd 90 0d 23 be
       0.109487556 0.011222172 -0.08090517 -0.15923142
000060 53 ae 2a 3d 61 7d f9 bd 6b 6d 4d 3d 77 c8 65 3d
       0.041670155 -0.12182117 0.050153177 0.05609938
000070 02 42 cf 3d ea 93 94 3d c6 eb b4 3c 0f 41 bc 3c
       0.10120012 0.07254775 0.022085082 0.022980241
000080 18 e3 9b 3d 1d f8 b6 3c 29 40 94 3c 3a b9 e4 3d
       0.07611674 0.022335107 0.018097 0.11168142
000090 04 1e 8b 3d 9e d9 7d 3c 53 9e 41 3d bc b7 de 3d
       0.067928344 0.0154937785 0.04727013 0.10874888
0000a0 28 5d 32 bc 26 aa 99 3d 65 27 a8 bc 06 8c ba bd
       -0.010886468 0.07503156 -0.020526597 -0.091087386
0000b0 39 7a 23 3d 43 a5 37 3d da e3 0b 3d fd ea 16 bc
       0.039911482 0.04483534 0.034152843 -0.009211299
0000c0 44 c2 9c 3c 61 93 0b 3d a2 27 8f 3d 79 0f 76 bd
       0.019135602 0.0340761 0.06989981 -0.06007335
0000d0 b9 bc c9 3d d9 65 1a 3e b4 60 d4 bd f5 66 9e 3d
       0.09850449 0.15077914 -0.10370007 0.07734481
0000e0 aa 86 cf 3d 4b c0 66 3d 80 a5 48 bd bd 8d 87 3d
       0.10133107 0.05633573 -0.048985958 0.06618831
0000f0 f0 06 8c 3d 49 74 cf 3d 55 b5 46 3d 60 d2 5d bc
       0.06837261 0.101296015 0.048512775 -0.013538927
000100 66 0a 9d bd f0 0f 5b 3d 7d 6b 85 3d f9 6d 25 3e
       -0.07667999 0.053481996 0.065146424 0.16155232
000110 c6 d2 35 3d f9 19 d2 3d 95 7b 8d 3d c6 15 05 3c
       0.044390462 0.1025886 0.06908337 0.008122867
000120 f1 93 0d be 6d 3a 6d 3d 84 ff 58 3d 0c f8 a2 3d
       -0.13825966 0.057917047 0.052978054 0.079574674
000130 d3 0b b9 ba ff f9 ea bc 6a 55 af 3d 3e 7f 73 3d
       -0.0014117904 -0.02868366 0.08561213 0.05944752
000140 ff ff f5 3d d7 a8 07 3e 3e 1a 9a 3d 6d c0 e3 3d
       0.12011718 0.13248001 0.075245366 0.11120687
000150 2e 53 03 3e 61 59 0d bd b9 e7 13 bd 0e ad 98 3c
       0.128247 -0.034509066 -0.03610966 0.018637206
000160 c7 18 9c 3d 46 c5 cd bc 87 56 ea 3c 25 89 04 3e
       0.076219134 -0.025118481 0.028605713 0.12942941
000170 23 6b 44 3d c5 df a1 3d fe 0e c9 bb 6f 33 91 3d
       0.047953736 0.07904009 -0.0061358204 0.07089888
000180 93 e8 0c bd b7 f8 d9 3c c8 58 71 bd 4b 95 6e 3d
       -0.034401488 0.026607854 -0.05892256 0.058247846
000190 36 0c 57 3d eb ca 43 3d 28 d0 08 3d 3f b5 a0 3d
       0.05250188 0.04780094 0.03340164 0.0784707
0001a0 12 06 09 bd df a7 34 3d 9a 46 d9 3c 62 01 10 be
       -0.033453055 0.044105407 0.026522923 -0.14063028
0001b0 65 e0 85 bd 4b 58 55 3c cd 11 cc bd a0 08 84 bd
       -0.065369405 0.013021539 -0.09964333 -0.064469576
0001c0 a2 a1 95 bb 34 43 37 3b 6c cb ac bc 37 87 1f 3e
       -0.0045663873 0.002796364 -0.021093093 0.15578924
0001d0 70 54 54 3e 83 31 20 bc d2 45 f8 bd 29 0b da 3c
       0.20735335 -0.0097774295 -0.12122692 0.02661665
0001e0 02 a5 c8 3c 79 af cb 3d bf c7 a8 bc 61 36 80 3c
       0.024492744 0.09945578 -0.020603059 0.01565093
0001f0 de ef 63 3d 48 7d 1e 3c b4 6e fa 3d 46 f0 c2 bc
       0.055648677 0.009673424 0.12228146 -0.023796212
000200 f5 95 a3 3d b3 fe 5d 3d 7c a3 f6 3d 30 0a 22 3d
       0.079875864 0.05419798 0.12042901 0.039560497
000210 b2 a5 0c 3d 8e c5 58 3d 76 d7 f3 3d 3d 26 8b bc
       0.034337707 0.052922778 0.1190633 -0.016986007
000220 a3 95 9c 3d 63 53 73 3d 59 1a 03 bc c1 92 88 3d
       0.076457284 0.059405696 -0.008001887 0.06668616
000230 73 1a ec 3c 49 41 0a 3e 40 8d e8 bc 27 1b bb 3c
       0.028821206 0.13501467 -0.028387666 0.022840096
000240 cc 0d 42 bd 1f e0 9d 3d e4 90 e2 3d 0a 2e 5b 3d
       -0.04737644 0.07708763 0.11062792 0.053510703
000250 b5 78 75 bd 50 d5 a3 3d 4d ec f6 bc e9 3f 8a 3c
       -0.05992957 0.079996705 -0.030141974 0.016876178
000260 65 a1 cd bc b2 bf ae 3c 08 1e 9b bc 86 6f 86 3d
       -0.025101373 0.021331642 -0.018935218 0.0656424
000270 3a dc 63 3d 3a 22 75 3d 29 f9 04 3e 89 54 d7 3d
       0.055629946 0.059847094 0.12985672 0.10514171
000280 d0 92 12 3d 60 34 43 3d ed a4 d5 3c d0 52 85 3c
       0.035784543 0.04765737 0.02607962 0.01627484
000290 70 9f c8 3d ab 40 89 3d 2e 3a b9 3d ef 0c 9b 3c
       0.09796035 0.067017876 0.090443 0.018927066
0002a0 0c 8c 2e bc 6b 4a 1d 3d 3c 89 84 bd 3c 27 19 3c
       -0.010653507 0.03840105 -0.06471488 0.009347733
0002b0 70 bc 64 bd c6 1b 92 bd 6e 1d bb bb ea 80 5d 3d
       -0.05584377 -0.071342036 -0.0057102954 0.05407802
0002c0 38 77 cb 3d 4b 38 9e 3d 50 83 18 3e 38 3c ec 3c
       0.099348485 0.07725581 0.14893842 0.028837308
0002d0 a4 80 a6 3c 52 31 f1 bc 81 bc 0b 3d 58 d8 ae 3d
       0.020325013 -0.029442463 0.03411532 0.08537358
0002e0 9b 62 4a 3d 38 4a 6e 3d 3d c3 e2 3c 97 ee 7b 3d
       0.049410444 0.05817625 0.027680987 0.061506834
0002f0 32 06 57 3d 6f bc 6f bc dc 53 d1 3c 54 72 61 3c
       0.052496143 -0.014632328 0.025552683 0.013760168
000300 81 12 b2 3d c3 0b dd 3c 12 d1 8a bb 7b 5b c1 3d
       0.086949356 0.026983147 -0.004236349 0.09441277
000310 cb 79 29 3d 0a 81 5e 3c aa 58 9c 3d c9 c4 b0 3c
       0.041375916 0.01358057 0.07634099 0.02157821
000320 c6 8e 72 3d 55 15 4e 3d d6 3c 6e bd c6 b0 20 3d
       0.05921819 0.050313313 -0.058163486 0.039231084
000330 c2 aa 9e 3c 79 74 3a 3d 1f b5 71 3d 59 a2 82 3d
       0.019368533 0.045521233 0.05901062 0.063786216
000340 bf f8 8e 3d 2c ef 60 3c 12 f1 03 bc 73 f6 92 3c
       0.06981038 0.013728898 -0.008053081 0.017939782
000350 d9 f3 3f bd 42 0d ab bc 12 c4 ae bd ba 6a 20 3d
       -0.04686341 -0.020880345 -0.08533491 0.039164282
000360 ff a1 29 3d 65 6c fb 3b 40 1c 1e 3c 70 a4 ea 3b
       0.041414257 0.0076728337 0.00965029 0.0071607158
000370 aa e1 3f bd 19 13 32 3d b1 1c 9f 3d fc fa d3 3c
       -0.04684607 0.043475244 0.07769144 0.025876515
000380 63 35 1b 3d 16 da c4 bc aa dd d2 bd 67 4e b8 3d
       0.03789271 -0.024029773 -0.10296185 0.08999329
000390 4e 7e 4f 3c 95 7f 29 3d fd e4 cb 3c ad 92 6e 3d
       0.012664391 0.041381437 0.024889464 0.05824535
0003a0 13 81 d5 3d 5e d5 a9 3d c4 04 6a 3d 6f 2c b0 3d
       0.104250096 0.0829265 0.05713345 0.08602225
0003b0 b6 ab 96 3c ac 55 0b bd dc 94 b8 3c 92 50 3e 3d
       0.018392425 -0.03401725 0.02253192 0.046463557
0003c0 f8 bd 11 3e 2d 29 c8 3d c9 48 87 3d cf 4b 95 bb
       0.14232624 0.09773479 0.066056795 -0.004556156
0003d0 66 d4 ac 3c 7c 31 48 3c be 8a 1e 3b 6f 3f 1b bd
       0.021097373 0.012218829 0.0024191584 -0.037902292
0003e0 e2 c0 df 3d e5 1f 7c 3d b9 fd 20 3a 13 12 96 3d
       0.10925461 0.061553854 0.0006141323 0.07327666
0003f0 b8 bf 12 3e 49 a4 60 3d 9e d5 14 bc 56 26 c0 3d
       0.14330947 0.054844175 -0.009084133 0.09382312

feature_extractor.encoder.0.bias f4 [64]
000000 bf dd b4 3d ce d8 f8 bc 2c 29 00 bd 47 06 59 bc
       0.08831357 -0.030376818 -0.031289265 -0.013246126
000010 e5 83 f9 3d 0c 11 95 bd 2c 25 cf bd 46 d7 51 3d
       0.1218336 -0.07278642 -0.10114512 0.05123069
000020 49 39 4f bc 9a 96 15 3d c7 9a 9d 3d 46 44 a2 bc
       -0.012647935 0.036520578 0.07695537 -0.019807946
000030 4b 57 05 bd 99 51 df 3c b4 9a 8d 3d 1e 52 bd 3d
       -0.032553952 0.027260588 0.06914273 0.09244178
000040 2d 6c 11 bd 0f 0a a5 bd 1c 53 d2 bc 3d bb 8f bd
       -0.035503555 -0.08058559 -0.025674395 -0.07018135
000050 0a 67 73 3d ea 08 06 3d 83 5b 48 bd 08 24 a4 3c
       0.059424438 0.032723345 -0.048915397 0.020036712
000060 41 1e 94 3d 96 ad 76 3d 91 54 f1 3c ec ab 93 bd
       0.07232333 0.06022414 0.02945927 -0.07210526
000070 06 54 cd bc cd cc 87 3d d0 d5 0c bd 11 36 7f 3d
       -0.02506448 0.066308595 -0.034383595 0.06230742
000080 82 0b 9e bd 34 b8 8c 3d d5 90 8c bb 3f 27 50 3d
       -0.07717039 0.068710715 -0.0042897263 0.050818678
000090 4c 20 52 3d f8 9b bc bd a9 00 05 3d 6c 44 8a bd
       0.051300332 -0.09209436 0.032471333 -0.06751332
0000a0 ec 42 7e 3d b2 9a f0 3c 50 5d 88 3d 4a 80 01 3e
       0.06207554 0.02937064 0.06658423 0.12646595
0000b0 d3 f1 92 3d 6e 8b ee bc dd 17 de 3d bb 79 9b bd
       0.071750306 -0.02911922 0.10844395 -0.075915776
0000c0 8d b7 68 bd 82 af 5c 3d 5b 1f e9 3d 64 e3 66 3c
       -0.056815673 0.053878315 0.11382934 0.0140923
0000d0 63 5d 76 bd 89 1c d4 3c c0 a9 66 3d 58 c5 87 3d
       -0.060147654 0.025892513 0.05631423 0.06629437
0000e0 d1 3f c1 3c 36 0f 31 bd 7d 41 91 3d 3c b9 79 bd
       0.02359 -0.043227397 0.07092569 -0.06096767
0000f0 d8 5d 8c 3d 00 8d 35 bd 99 06 fd bc dd c7 3c 3d
       0.06853837 -0.04432392 -0.030886935 0.046089042

feature_extractor.encoder.2.weight f4 [64]
000000 f5 92 84 3f 3e 94 7d 3f 3e 94 7d 3f 3e 94 7d 3f
       1.0357348 0.99054325 0.99054325 0.99054325
000010 45 ed 6b 3f 8d 56 6e 3f c8 73 78 3f ce 8c 8c 3f
       0.9215892 0.93100816 0.9705167 1.098047
000020 3e 94 7d 3f 82 72 89 3f 8b 6c 88 3f 3e 94 7d 3f
       0.99054325 1.073807 1.0658125 0.99054325
000030 4c 14 86 3f 47 a4 71 3f 2d 81 88 3f 11 18 77 3f
       1.0474944 0.9439129 1.0664421 0.965211
000040 c9 68 86 3f 77 56 6e 3f a6 68 86 3f 19 01 71 3f
       1.0500728 0.93100685 1.0500686 0.941423
000050 1a 07 73 3f 13 4b 84 3f ff 68 86 3f 3e 94 7d 3f
       0.9493271 1.0335411 1.0500792 0.99054325
000060 14 7b 69 3f 23 2c 72 3f 0b 21 64 3f 7c 56 6e 3f
       0.9120343 0.945986 0.8911292 0.93100715
000070 fc 57 6e 3f d8 42 7d 3f 51 57 6e 3f 1b 4e 7f 3f
       0.93103004 0.9893012 0.93101984 0.99728554
000080 8d 56 6e 3f 41 eb 7d 3f 3e 94 7d 3f b0 32 8b 3f
       0.93100816 0.99187094 0.99054325 1.0874844
000090 e7 5f 8b 3f ed 68 86 3f b4 53 92 3f f1 68 86 3f
       1.0888642 1.0500771 1.1431794 1.0500776
0000a0 87 54 74 3f 5f f8 6e 3f 1c c1 6c 3f 92 0d 7e 3f
       0.9544148 0.93347734 0.9248216 0.99239457
0000b0 15 1f 83 3f 74 56 6e 3f 33 a4 6e 3f e7 52 88 3f
       1.024386 0.93100667 0.932193 1.06503
0000c0 79 56 6e 3f 59 5c 7d 3f 41 13 6d 3f 60 91 6c 3f
       0.93100697 0.98969036 0.92607504 0.92409325
0000d0 76 56 6e 3f 69 fe 81 3f f0 13 8e 3f c2 f2 73 3f
       0.9310068 1.0155765 1.1099834 0.95292294
0000e0 eb a6 91 3f ab 56 6e 3f a6 01 84 3f 79 56 6e 3f
       1.1379064 0.93100995 1.0313003 0.93100697
0000f0 f5 dd 65 3f 82 56 6e 3f 71 63 6e 3f 7b 51 7b 3f
       0.89791805 0.9310075 0.93120486 0.98171204

feature_extractor.encoder.2.bias f4 [64]
000000 56 0e 06 3d 22 d0 c2 3c 9d da 1c bc bd ec 8e bd
       0.032728516 0.023780886 -0.009573606 -0.06978748
000010 a0 f6 78 bc 17 af b3 bc 57 fb 90 3c 39 3e c0 3d
       -0.015195519 -0.021934075 0.017697973 0.09386868
000020 ac c5 3f bc 5a ac 1a 3d 0b 4a ed 3d 8a 7e 7a 3d
       -0.0117048435 0.037762024 0.11586388 0.061155833
000030 97 fc 86 bd 88 40 88 3c e4 fc bd bc d2 d7 9b bd
       -0.065911464 0.016632333 -0.023191877 -0.07609524
000040 27 80 11 bb 67 e2 6e bd af 5e c0 3d 0c b6 9f bd
       -0.002220163 -0.058321383 0.093930595 -0.077983946
000050 89 a6 c8 bd 30 6f 66 3d 2b fb 69 bd 31 6e 82 3b
       -0.09797389 0.05625838 -0.057124298 0.003980421
000060 a5 1f 64 3b 7e 01 b1 bd 1b 96 0a 3d da 96 05 3e
       0.00348089 -0.08642863 0.033834558 0.13045827
000070 a1 67 7e bb 5f ab 0a be 95 6e a6 3b cc 1d 42 3d
       -0.0038819092 -0.13541935 0.0050791004 0.047391698
000080 2c 05 97 3c fe b6 9e bd e3 05 5f ba 3c e6 99 bd
       0.018435083 -0.07749747 -0.0008507652 -0.07514617
000090 2f 62 66 bd 16 c4 97 bd aa 86 ef bd 2a 08 20 be
       -0.05624598 -0.07410447 -0.11695607 -0.15628114
0000a0 ac 86 0f 3c 72 dd b5 bd 4a b1 ca bc 81 38 b2 bd
       0.008760136 -0.08880128 -0.024742741 -0.087021835
0000b0 ae 14 4d 3d 7e 2c 2a bc 3d 1f 7a 3d 12 c9 2f 3d
       0.05006855 -0.010386584 0.061064947 0.042916365
0000c0 e7 4a d6 bc 64 2d c4 3d ea 9c bb bd 90 b9 67 3d
       -0.026158763 0.0957897 -0.09160788 0.05657345
0000d0 ce 73 b5 3d e4 6b ae bd 8d a9 dc 3d 05 fe b2 3c
       0.088599786 -0.08516672 0.10774527 0.021849642
0000e0 d5 c1 dd 3c 36 f2 dd 3b 5b 3c 45 3d 57 2b 0c 3c
       0.027069965 0.0067732586 0.048153263 0.008555255
0000f0 15 bd d5 bb 2b 38 56 bb da 15 b4 3c 1d f6 96 bc
       -0.0065227845 -0.0032687287 0.021983076 -0.018427903

feature_extractor.encoder.2.running_mean f4 [64]
000000 a7 27 42 41 00 00 00 00 00 00 00 00 00 00 00 00
       12.134681 0.0 0.0 0.0
000010 6c 16 ab 40 e0 bf 9f 35 0f d7 33 36 50 a7 94 40
       5.346487 1.1902266e-06 2.679826e-06 4.645424
000020 00 00 00 00 f8 35 d2 40 1f d0 9e 40 00 00 00 00
       0.0 6.569088 4.9629054 0.0
000030 01 50 d1 3d 49 e6 16 41 1e bc 17 41 ab 16 e4 40
       0.10220338 9.431222 9.483427 7.127767
000040 53 95 10 33 a0 18 94 32 cb c9 9c 31 5b 51 73 35
       3.3663422e-08 1.7240666e-08 4.5631388e-09 9.064294e-07
000050 1c 66 29 41 b0 bd 7f 41 2b 2b 78 32 00 00 00 00
       10.587429 15.98381 1.4445315e-08 0.0
000060 ec 1b 06 41 1c f2 5d 41 dd a8 e2 40 27 e4 12 35
       8.381817 13.871609 7.083113 5.4721244e-07
000070 a3 c6 6f 34 84 eb 0c 41 da 1d 80 30 aa 70 80 41
       2.2330873e-07 8.807499 9.32171e-10 16.055012
000080 73 72 0c 34 db 4b ac 40 00 00 00 00 09 1d b5 40
       1.3080152e-07 5.3842597 0.0 5.6597943
000090 9a 01 93 40 d6 e9 15 35 4a dd 8d 41 6e d0 88 35
       4.5939455 5.58471e-07 17.733051 1.0193451e-06
0000a0 8e 8e b5 40 29 94 29 41 f4 88 57 40 98 32 76 40
       5.6736517 10.598672 3.367734 3.846838
0000b0 ac 01 95 41 ed c0 0a 35 2a ba a6 40 5b 46 14 36
       18.625816 5.168975e-07 5.210225 2.209467e-06
0000c0 34 8b 00 34 60 63 7b 41 3a 24 cf 40 fa f0 51 3f
       1.1971571e-07 15.711761 6.473172 0.82008326
0000d0 f0 f3 33 35 36 73 8e 41 3f 36 b7 40 5b 96 e9 40
       6.703767e-07 17.806255 5.725372 7.299604
0000e0 35 53 ab 40 8b 00 33 30 06 cc 4b 41 15 ea a6 35
       5.353907 6.512059e-10 12.73731 1.2436091e-06
0000f0 e7 a2 06 41 17 fc 96 34 6a 93 05 35 25 07 80 41
       8.414771 2.8123097e-07 4.9760877e-07 16.003489

feature_extractor.encoder.2.running_var f4 [64]
000000 43 5b d2 3f e5 aa 3c 38 e5 aa 3c 38 e5 aa 3c 38
       1.6434101 4.498185e-05 4.498185e-05 4.498185e-05
000010 6c 2a d7 3f db 13 3d 38 31 f9 3e 38 fb 10 df 3f
       1.6809821 4.5079603e-05 4.5531608e-05 1.7427057
000020 e5 aa 3c 38 fe 6d f1 3f 60 55 de 3f e5 aa 3c 38
       4.498185e-05 1.8861692 1.7369804 4.498185e-05
000030 3b 4c 71 3e 59 52 00 40 e0 fe da 3f 4d e0 e3 3f
       0.23564236 2.005026 1.7109032 1.7802826
000040 44 b0 3c 38 2a ac 3c 38 28 ab 3c 38 1a ed 3c 38
       4.4986853e-05 4.4983033e-05 4.4982095e-05 4.504351e-05
000050 13 e0 aa 3f a1 9a 3b 3f a1 ab 3c 38 e5 aa 3c 38
       1.3349632 0.7328282 4.4982535e-05 4.498185e-05
000060 88 75 94 3f 11 94 9a 3f 4d c3 b6 3f 88 d5 3c 38
       1.1598368 1.2076436 1.4278351 4.502156e-05
000070 28 c0 3c 38 0f e9 9f 3f e6 aa 3c 38 2c 9d 7c 3f
       4.5001652e-05 1.2492999 4.4981854e-05 0.98677325
000080 b8 b9 3c 38 8e 39 1e 40 e5 aa 3c 38 3e 38 ee 3f
       4.4995657e-05 2.4722629 4.498185e-05 1.8610914
000090 58 a3 f6 3f 32 da 3c 38 7e 32 58 3f 82 ea 3c 38
       1.9268599 4.5025903e-05 0.84452045 4.5041095e-05
0000a0 b7 69 c1 3f 2d bd 8d 3f 9b 42 e4 3f 9d b4 07 40
       1.5110387 1.1073357 1.7832826 2.1203988
0000b0 de c7 65 3f 17 e5 3c 38 10 74 ae 3f 4b 80 3d 38
       0.897581 4.503605e-05 1.362917 4.5180594e-05
0000c0 49 b8 3c 38 74 60 b9 3f a7 9d bc 3f 02 98 81 3f
       4.499432e-05 1.448256 1.4735612 1.0124514
0000d0 59 e6 3c 38 9b 88 96 3f 0c 78 b7 3f a8 7c d5 3f
       4.503722e-05 1.1760439 1.433351 1.6678667
0000e0 32 54 f0 3f e5 aa 3c 38 e9 86 ae 3f bc 0c 3d 38
       1.8775694 4.498185e-05 1.3634921 4.507297e-05
0000f0 9c b7 25 40 af c8 3c 38 f1 d1 3c 38 e0 3c 94 3f
       2.5893316 4.5009594e-05 4.5018216e-05 1.1581078

feature_extractor.encoder.3.weight f4 [32, 64]
000000 be 71 3d bd f9 3f 55 3d ef 4d cb bc b3 43 ca bd
       -0.04625105 0.052062962 -0.024817435 -0.09876194
000010 43 4a 4e bd aa 09 c7 bc bf 47 44 be ef fe 6e bd
       -0.05036379 -0.0242966 -0.19167994 -0.058348592
000020 76 7c 66 3d b4 cb 4d 3e f5 0a 9a 3d 9e e9 28 bc
       0.05627104 0.20097238 0.07521621 -0.010309605
000030 0c ab 95 bb 07 b7 31 3e f1 a3 72 3d 2b a1 1b be
       -0.0045675095 0.17354976 0.059238378 -0.151982
000040 e1 fe c6 bd a0 b6 1f 3d e8 38 7f 3d 3f d9 09 be
       -0.09716583 0.038992524 0.06231013 -0.13461779
000050 62 f0 26 be d2 7f 61 3e 08 9e 7b bc 3c e3 a3 3d
       -0.16302636 0.22021416 -0.015357502 0.08002326
000060 cd e2 3b bd fa 09 16 be 45 ef af 3d 1b a4 03 bd
       -0.04587059 -0.14652243 0.08590559 -0.032138925
000070 25 11 29 3d 6e 91 e2 3c dc 15 de 3d 7b 12 bb bd
       0.041276116 0.027657237 0.10844013 -0.09134384
000080 a2 ca c9 3d f2 71 f1 bd 37 7b 3b 3c 6f 55 b8 bd
       0.09853102 -0.117893115 0.011442951 -0.0900067
000090 18 00 01 bd c9 61 f9 3c 4f 06 10 bd 4c 56 5b bd
       -0.03149423 0.030442135 -0.035162266 -0.053549096
0000a0 35 a5 19 3e a9 77 b0 bc c6 51 2c bd 06 d6 74 3d
       0.15004428 -0.021541433 -0.042070173 0.05977442
0000b0 00 07 3f 3e 46 02 75 bd 25 a5 fa 3d 18 d2 9e 3d
       0.18655014 -0.05981662 0.1223853 0.07754916
0000c0 60 97 5e bb e1 f7 84 3e 8e 91 36 be a7 fa a7 3d
       -0.0033964738 0.25970367 -0.17828962 0.08202105
0000d0 73 32 13 be 9f 52 ab 3d fa c6 c1 3d 0b 2c c0 3c
       -0.14374714 0.08365368 0.0946178 0.023458501
0000e0 20 cc 51 3b 16 6c 32 3e cf 10 c5 3d 2a 1f 5b 3d
       0.0032012537 0.17424044 0.096223466 0.053496517
0000f0 ad 4a 24 be e4 f2 24 be 2b 90 23 3c 75 b3 af 3c
       -0.16044112 -0.1610828 0.009983103 0.021447876
000100 2f 83 8e bd ce 10 bf 3d a2 79 90 3c 37 a3 af be
       -0.06958615 0.09329377 0.017636124 -0.3430421
000110 a8 59 ae 3c fd 7c a8 3d 10 06 d1 3c aa 09 e1 3d
       0.021282986 0.082269646 0.025515586 0.109881714
000120 b4 e7 14 3e 2f 96 70 bd 72 e3 2d bc 5c 4c 76 3e
       0.14541513 -0.058736976 -0.010613309 0.24052566
000130 bb 74 e1 3a a2 d9 bc 3d 8e ac 3e be 26 82 b2 bd
       0.0017200926 0.09221198 -0.18620512 -0.0871623
000140 23 b9 e3 bc 13 60 e2 bd 89 51 26 3e 8b 95 e7 bd
       -0.027798241 -0.11053481 0.1624204 -0.1130782
000150 a4 e1 21 be a8 6a 07 3e 62 19 27 be d7 36 e9 3d
       -0.15808731 0.1322428 -0.16318277 0.11387413
000160 01 45 76 bd 6a 33 df bd 17 d4 75 bd 74 85 a6 3e
       -0.0601244 -0.10898478 -0.060016718 0.32523692
000170 7e 5a 17 be d9 63 11 be e5 28 32 3e 03 95 b5 3d
       -0.14780614 -0.14198245 0.17398413 0.08866312
000180 e5 f6 5e bd 3a c6 34 3d c8 0f 3a be 2b d5 cf bd
       -0.054434676 0.044134356 -0.18170083 -0.101480804
000190 7e 17 4c 3e d8 56 00 be 35 79 cf bc 58 f8 48 be
       0.19930837 -0.12533128 -0.02532635 -0.19625986
0001a0 70 ef 2f 3e 8a 41 13 bc ee d6 2d bd 9c 30 44 3e
       0.17181182 -0.008987794 -0.0424413 0.19159168
0001b0 1e 33 cf 3b 6e 31 06 bc fa a8 35 be 30 42 a7 3d
       0.0063232323 -0.008190496 -0.1774024 0.08166921
0001c0 93 4b 54 bd d2 62 72 bc f6 a9 12 bd 82 81 2d 3e
       -0.051829886 -0.014794068 -0.03580662 0.16943935
0001d0 70 40 28 3e 4d 40 2e bc 32 18 dd bd 94 10 3b be
       0.16430831 -0.010635448 -0.107956305 -0.18268043
0001e0 66 18 37 bc d0 a2 17 3c 6e 9e 4e 3c 82 24 f8 3d
       -0.011175251 0.009255126 0.012611015 0.12116338
0001f0 33 71 04 bd af ac 27 3e 95 62 77 3c 51 07 21 3e
       -0.032334518 0.16374467 0.015099187 0.15725447
000200 32 e1 04 3e 34 b4 2d 3d ad f4 d2 3d 14 ba d6 3d
       0.1297653 0.042408183 0.103005745 0.1048471
000210 94 13 d4 3c 58 f4 bc bd 02 4e ab 3d 13 1d 54 3e
       0.025888242 -0.09226292 0.08364488 0.20714216
000220 d9 42 b5 3d 72 d9 25 3d 3a eb d4 3d 39 4d 85 3d
       0.08850641 0.040490575 0.103964284 0.0650887
000230 aa 0a 47 3e 3f 5b 23 3e b3 40 90 bd 1f 37 24 bd
       0.19437662 0.15952776 -0.070435904 -0.04009163
000240 bb 75 d8 3d 70 42 e4 bd e1 d1 8a 3d 6e 47 c2 bc
       0.1056933 -0.111454844 0.067783125 -0.023715701
000250 fa bb 83 bd 9b cf 54 3c e2 65 ed 3d cd f3 71 3d
       -0.06432338 0.01298895 0.11591698 0.059070397
000260 30 ef 6b 3c 7e 37 0a be 23 46 70 bd 7c f8 29 bd
       0.014400288 -0.13497731 -0.058660638 -0.04149674
000270 80 6a 32 bd 74 06 b8 bd 04 3a 5d 3d 03 94 a6 3d
       -0.043558598 -0.08985606 0.054010406 0.081337
000280 6f 37 f6 bc 17 c3 1b bc 7d 6f 9b bd b6 e9 1d be
       -0.03005573 -0.009506962 -0.07589624 -0.15421185
000290 f6 88 a4 3d 8b cd c2 3a ac ec 9d be db 71 6d 3d
       0.08033936 0.0014862282 -0.3084463 0.05796991
0002a0 eb 6e a6 3c fe 8f 30 bd 33 6b 43 3d 35 31 c1 bc
       0.020316562 -0.04310607 0.047709655 -0.023583034
0002b0 e3 5e ab 3c bc 84 b7 bc 01 8a 33 bd 69 ff 0d 3e
       0.020919269 -0.02240216 -0.043832783 0.13866962
0002c0 b2 6e 6b 3d f2 55 b9 3d 8d 0a 60 3d 34 13 44 bd
       0.057478614 0.09049596 0.054697562 -0.047869876
0002d0 40 ff ee bd dd 1d 2f be 3a ba 8c bd 5a 9e 34 3e
       -0.11669779 -0.17101236 -0.068714574 0.17638531
0002e0 4b 27 e4 bd f0 ba 66 3d 79 c6 33 bd 01 b0 16 be
       -0.11140307 0.05633062 -0.04389045 -0.14715578
0002f0 44 35 0c be 08 0c 45 3c b3 e4 48 3c f4 83 9c be
       -0.13692194 0.012026794 0.012261557 -0.30569422
000300 c9 ea 63 be db 5b a9 3d 7a fd f3 bc 94 5b 56 3d
       -0.22257532 0.08269473 -0.029783953 0.05233343
000310 3d d3 85 bd 9b 50 dd bd d1 c6 ba bc 6f d1 fc 3d
       -0.06534431 -0.1080639 -0.022799881 0.12344634
000320 49 b1 2d 3d d2 45 26 3e 7f f0 10 bd 07 5a 72 bb
       0.0424054 0.16237572 -0.035385605 -0.003697993
000330 13 9d 6f 3d 83 0a dc 3d 55 b9 6f 3d 0a 83 ce 3d
       0.058499407 0.107441925 0.058526356 0.100835875
000340 15 7a 9e 3d 45 de 6c 3d 6e 77 46 3e 5b 69 2a 3d
       0.07738129 0.05782916 0.19381496 0.04160438
000350 18 f0 e4 bd 09 5a cf bc ca 77 45 be 8f 59 13 3d
       -0.11178607 -0.025311487 -0.19283977 0.03597408
000360 dd 4a 9d ba 93 c4 94 bd dc 5d 93 3d 4a 8a d6 3d
       -0.001200046 -0.07264056 0.07195637 0.10475595
000370 ec f8 d4 bd 2f 1e 2c be c1 cb e7 bd ef e8 8f bd
       -0.103990406 -0.16808389 -0.1131816 -0.070268504
000380 ea 24 48 3d d2 6a e8 bd f9 af 2f bd ba 26 0a be
       0.04886333 -0.11348499 -0.04289243 -0.13491336
000390 7e 1e 7c 3e 09 b2 fb 3c 86 72 f5 3c 80 80 06 3c
       0.24621007 0.030724542 0.029961836 0.008209348
0003a0 22 f1 04 3e 77 4f 1d 3e f3 ae d4 bc 5d 4f 0b 3e
       0.1298261 0.15362345 -0.025962329 0.13604493
0003b0 a8 02 f2 3d 94 9f 0e be 00 83 89 bd 82 5c 84 3a
       0.11816913 -0.13928062 -0.067144394 0.001009837
0003c0 1e 22 b5 3d aa 7b 01 bc 1b e0 16 bd 2b fd a7 3d
       0.08844398 -0.007903019 -0.036834817 0.08202585
0003d0 c8 8b 25 3e 5b 07 56 3d 4b c7 26 3b bc 5f 41 be
       0.16166604 0.05225311 0.0025448378 -0.18884176
0003e0 95 f1 15 3e 99 28 40 3c 8d c9 25 3d 1f e5 91 3d
       0.14642937 0.011728429 0.040475417 0.071237795
0003f0 03 8e e1 bd d2 55 c1 3d 9f cd 77 3d ed fd 88 3d
       -0.11013415 0.09440197 0.06049883 0.066890575

feature_extractor.encoder.3.bias f4 [32]
000000 73 cf 90 3d 8b 81 0f 3e f9 93 98 bc 38 69 48 bd
       0.07070818 0.1401426 -0.018625246 -0.04892847
000010 af 00 52 3e 55 1b ff 3d a9 9e 53 be e5 69 47 3e
       0.20508073 0.12456385 -0.20665993 0.1947399
000020 00 bc 48 3d b5 46 fb 3d 4e f4 af 3d 24 1e de 3d
       0.049007416 0.12269346 0.08591519 0.108455926
000030 71 47 51 3e c2 4d d4 3d 45 91 11 3e b5 bd ea 3d
       0.20437409 0.103663936 0.14215572 0.11461965
000040 54 84 74 3b 69 b5 b1 3d 36 49 1a 3e 2c 2d 29 3e
       0.003731032 0.08677179 0.1506699 0.16521138
000050 b3 69 c5 3d 50 d4 a9 bd eb 59 74 bd 73 19 7e 3d
       0.09639301 -0.082924485 -0.059656065 0.06203599
000060 92 d7 0f 3e bc 1c 1d 3e 17 ac db bd 32 95 84 3e
       0.14047077 0.15342993 -0.10726183 0.25895077
000070 ca 93 2e bd c6 c0 29 3e f2 a7 05 be a3 00 03 be
       -0.04262141 0.16577443 -0.13052347 -0.12793212

feature_extractor.encoder.5.weight f4 [32]
000000 95 15 39 3f eb 1c 29 3f 18 c1 2a 3f 0f 0b 3c 3f
       0.72298557 0.6605975 0.6670089 0.73454374
000010 f5 5c 36 3f f6 d4 54 3f b3 a3 16 3f 00 98 39 3f
       0.7123559 0.8313745 0.58843535 0.7249756
000020 82 c5 20 3f e8 3e 40 3f 5f 71 31 3f 64 fe 33 3f
       0.62801373 0.7509599 0.69313616 0.70310044
000030 ac 0a 1e 3f 2a 8d 3d 3f 35 a8 46 3f 57 0b 44 3f
       0.61735034 0.74043524 0.77600414 0.76579803
000040 27 d9 01 3f a7 52 2c 3f 95 6b 26 3f cf 0b 58 3f
       0.50721973 0.6731362 0.6500791 0.8439302
000050 de fd 54 3f d1 40 57 3f 85 87 49 3f 8a 48 3e 3f
       0.8319987 0.84083277 0.7872241 0.74329436
000060 ab 70 3b 3f 2b cb 4c 3f a3 29 4d 3f 79 9e 2b 3f
       0.7321879 0.7999751 0.8014166 0.67038685
000070 84 a5 48 3f ea 06 43 3f 1f ec 34 3f 29 52 3a 3f
       0.78377557 0.76182425 0.7067279 0.72781616

feature_extractor.encoder.5.bias f4 [32]
000000 00 d1 8c bb 8e 6a 09 3a be b7 22 ba f7 88 00 3b
       -0.0042973757 0.0005242013 -0.0006207189 0.0019612887
000010 93 b1 40 bb f1 4a e1 ba eb 10 43 ba a3 52 ba 3b
       -0.0029402717 -0.0017188472 -0.00074411806 0.0056861206
000020 40 f2 ba 3b f3 54 d8 3a 92 e0 0b 3b 6e 0e d4 3a
       0.005705148 0.0016504809 0.002134357 0.0016178617
000030 c2 ae 7f 38 db fd 81 39 68 55 bb 3b 04 c2 3d bc
       6.0959494e-05 0.00024793934 0.0057169683 -0.011581901
000040 77 89 21 bb 70 bd 37 bb 1b aa 98 3b ef c0 5b bb
       -0.0024648586 -0.0028036498 0.00465895 -0.0033531745
000050 8e a1 02 bc 88 47 9b bc 8a e0 ad 3b f7 4e 55 ba
       -0.007973088 -0.018955007 0.005306308 -0.0008137072
000060 71 a2 e0 39 2b 07 b6 3b 2a 1f 09 bc 37 f3 1d 3b
       0.00042845638 0.0055550537 -0.0083692465 0.0024101266
000070 c3 a4 34 3b 61 db ce bb 89 37 17 3b 8a 33 e1 3b
       0.0027564026 -0.006312773 0.0023073873 0.006872599

feature_extractor.encoder.5.running_mean f4 [32]
000000 c8 a3 53 3f 06 36 4c 3f ba 27 0b 3f 7d c2 32 3f
       0.82671785 0.79769933 0.5435749 0.69828016
000010 10 f1 10 3f c7 a9 ef 3e 9c 97 4f 3e 19 3f 6b 3f
       0.5661783 0.46809217 0.20272678 0.91893154
000020 39 96 e4 3e 36 c6 19 3f ed 7f 30 3f f3 84 11 3f
       0.4464586 0.6006807 0.689452 0.5684349
000030 48 59 1e 3f 72 18 76 3f e1 5a 0a 3f f4 bf 10 3f
       0.6185498 0.9613105 0.5404492 0.565429
000040 05 31 f1 3e c4 31 c2 3e f9 71 67 3f bb 2b 36 3f
       0.4710771 0.37928593 0.90408283 0.7116048
000050 d8 93 18 3f 49 06 e1 3e 64 b1 06 3f 89 9b 2d 3f
       0.5960059 0.43950108 0.52614427 0.6781545
000060 37 dc 29 3f 0c 31 3e 3f c5 d2 e4 3e 53 fb 70 3f
       0.66351646 0.7429359 0.44692054 0.9413349
000070 32 cf 34 3f e1 0f 4c 3f f5 33 4e 3e 0e ca b6 3e
       0.70628655 0.7971173 0.20137008 0.3570103

feature_extractor.encoder.5.running_var f4 [32]
000000 f9 3f cd 3f 44 19 88 3f 58 96 a9 3f ba 6d ab 3f
       1.6035148 1.063271 1.3249006 1.3392861
000010 7d 3f 4c 3f 45 8e 45 3f d8 12 a1 3e cc 3b e9 3f
       0.79784375 0.7717021 0.3145969 1.8221374
000020 a2 25 30 3f 34 17 95 3f e9 01 94 3f ae 0d 4f 3f
       0.68807423 1.1647706 1.1563083 0.8088025
000030 e4 3c 21 3f a2 b6 17 40 62 29 16 3f 24 86 2a 3f
       0.62983537 2.370522 0.58656895 0.6661093
000040 de 51 20 3f a5 8b ce 3e 2e 3f ce 3f ee f7 98 3f
       0.6262492 0.40340915 1.6113031 1.1950662
000050 8a 4a 90 3f f9 57 62 3f cf b8 b0 3f 38 db 79 3f
       1.1272748 0.88415486 1.3806399 0.97600126
000060 ae cd 5a 3f 47 df 4f 3f b2 b3 5a 3f 69 17 c5 3f
       0.8547009 0.8120007 0.85430443 1.5397769
000070 cd 13 b3 3f 6a 15 b5 3f 9b 0f 90 3e 0c f1 49 3f
       1.3990418 1.414716 0.28136906 0.78883433

feature_extractor.encoder.6.weight f4 [10, 32]
000000 51 d3 b6 3d 15 81 87 bb 78 98 f3 3c df f8 27 3d
       0.08927024 -0.004135261 0.029735789 0.041008826
000010 02 df ff bc c6 c6 7d bd 84 eb 5a bd ad 20 b8 3d
       -0.031234268 -0.061957143 -0.05344726 0.089906074
000020 b1 e2 69 bd 33 ab d1 3d 4c 38 7b bc a1 45 93 3d
       -0.057100955 0.10237732 -0.015333246 0.07191015
000030 f8 0a ac 3c f9 ef da bd 64 1f 36 3d d4 a6 2b bd
       0.021001324 -0.106903024 0.04446353 -0.041907147
000040 1a 83 db bc d1 d4 28 bc 3c 37 a4 bc 7c 63 cd bc
       -0.026795913 -0.010304646 -0.020045869 -0.025071852
000050 36 5f 0b 3b 7d 93 74 3c e6 ac d3 bc 10 c6 bc bc
       0.0021266467 0.014927742 -0.02583928 -0.023043662
000060 98 b4 ac bc 23 55 84 bd 82 24 11 bd 75 98 5e bc
       -0.021082208 -0.06461551 -0.035435207 -0.013586153
000070 7e eb 49 3d f2 da aa bb e3 55 e1 bc f1 47 ab bd
       0.04929685 -0.0052140886 -0.027506774 -0.08363331
000080 b4 8c cf 3d 20 a6 43 bb 27 70 e6 3c fb ec 8e bd
       0.10134259 -0.0029853657 0.02812965 -0.06978794
000090 a2 d9 10 bd d0 09 cf 3c e8 22 f0 3a 53 69 80 3d
       -0.0353638 0.025273234 0.001832095 0.06270089
0000a0 e2 1e 8f bd 93 a0 25 bd 47 59 3f 3d 46 5e 29 3d
       -0.06988312 -0.04043634 0.046716 0.04134967
0000b0 87 13 82 3b 99 72 b5 3d 4e 84 3e bd de 8e 71 3d
       0.003969613 0.088597484 -0.046512894 0.05897414
0000c0 2d 2b 8b bc 2f c2 9b 3c 07 58 57 bd 6a 54 e4 bd
       -0.016988361 0.019013492 -0.052574184 -0.11148913
0000d0 2e 54 cd 3d e2 f5 30 3c 55 15 bf bd 0a 1a c8 bc
       0.100258216 0.0108008105 -0.09330241 -0.024426479
0000e0 54 92 22 bd a8 96 8b bd 6e 8f 50 3c f8 a6 57 3d
       -0.03969033 -0.06815845 0.012729509 0.05264947
0000f0 f6 9d 5d bd 0c 4c 81 3d b6 5d 84 3c 39 b6 6d bd
       -0.05410572 0.06313333 0.016157966 -0.05803511
000100 15 05 31 3d 01 70 b4 3a 23 e2 53 3d b9 5f 2c bc
       0.043217737 0.001376629 0.051729333 -0.010520869
000110 f6 0a 06 3c 9f 27 43 3d f8 bc e2 bc 63 0a d2 3c
       0.008181324 0.047645207 -0.027677998 0.025639718
000120 97 56 a4 3b c0 c5 ca 3d 42 80 48 bd 57 e7 9c 3d
       0.005015205 0.09900999 -0.04895044 0.07661312
000130 69 a4 57 bc d4 bd 08 bd 19 81 7e 3c 90 a7 2d bc
       -0.013161757 -0.03338416 0.015533709 -0.010599032
000140 30 84 bc bb 5a bf c6 3c 4a 50 86 3b 16 30 a5 3d
       -0.0057530627 0.024261165 0.0040989267 0.08065812
000150 87 1c 4c bd 7d 5c 99 bd f0 f3 e2 bd c7 ac c5 3c
       -0.049831893 -0.07488344 -0.11081684 0.024130238
000160 89 4f 90 3d 99 46 13 bd 46 00 17 3d a1 57 16 3c
       0.0704642 -0.035956 0.036865495 0.009176166
000170 78 da 3f bd d4 c0 7b bc 1f 64 49 bd 70 a4 14 be
       -0.046839207 -0.015365798 -0.04916775 -0.14515853
000180 b5 b1 83 bc a8 a8 00 3d 18 23 cf bc 93 eb 4a 3d
       -0.016075948 0.031410843 -0.025285289 0.049541067
000190 4f 8c 7e 3c 19 60 e1 bc e8 98 e5 3b 18 fe 03 bd
       0.015536382 -0.027511643 0.0070067532 -0.032224745
0001a0 cf 8c 09 3d 5b f2 e8 bc 37 ec 0d 3d 55 37 de 3b
       0.03358155 -0.028435877 0.0346491 0.0067814984
0001b0 ac 04 c1 bc d4 57 fd bc 3d 90 03 3d d4 0c 52 bd
       -0.023561798 -0.030925669 0.03211998 -0.051281765
0001c0 6d 1a 39 ba 20 90 16 bc 6f 3c 8e 3a ba 24 74 3d
       -0.00070611277 -0.0091896355 0.0010851751 0.059605338
0001d0 2b 08 3e bd 75 1f 9f bc 51 a9 af 3d 04 c4 b2 3b
       -0.04639451 -0.01942418 0.085772164 0.005455496
0001e0 ca 9b 48 3c 8b 2c 98 3c 60 29 e3 3b 71 9c 0e 3d
       0.012244174 0.018575927 0.0069324225 0.034817163
0001f0 c2 37 5e b9 42 0b 57 bd 08 47 a8 bb c3 58 db 3a
       -0.00021192341 -0.05250097 -0.0051354207 0.0016734827
000200 a5 6a 00 3c de ad d4 bc 6f 41 81 3d 7a 9c c8 3c
       0.007837926 -0.025961813 0.063113086 0.024488676
000210 6e 2a 27 3b 86 fb 78 bd fb b7 9e bc 0e 40 c8 3d
       0.0025507468 -0.060786746 -0.019374838 0.097778425
000220 2c 18 26 bc 7b b9 81 bc 1a c9 19 3c d0 36 0e 3c
       -0.010137599 -0.015835514 0.009386325 0.0086800605
000230 0e 3c ef 3b 3e 37 65 bd 91 1f 4e 3d 5b de 47 bd
       0.0073008602 -0.055960886 0.050323073 -0.04879604
000240 72 30 6a bc 2d eb bd 3c b7 b7 3c 3d b1 be 98 bd
       -0.014293777 0.02318343 0.04607364 -0.074582465
000250 90 36 7b 3d 84 a9 82 3d 4d ae 33 bd bb 0d 5b bc
       0.06133133 0.06379989 -0.043867398 -0.013369973
000260 ae f9 19 bd fa 4d 65 bd 8f 0b ad bb 57 9b 09 3c
       -0.03759163 -0.055982567 -0.005280919 0.008398852
000270 4f ba 11 ba 66 57 88 3a 51 e3 36 3a f2 73 85 bc
       -0.0005559073 0.0010402023 0.0006976622 -0.016290639
000280 c6 cc 80 bc 6b 53 bf bc 16 4b 38 bd 23 9f b0 3b
       -0.015722644 -0.023355206 -0.044993483 0.0053900643
000290 7b 75 3a bc d7 cf de bb cd 57 a7 bc 9e d1 93 bb
       -0.011380549 -0.006799679 -0.020427609 -0.0045110723
0002a0 4c b2 2e bc a9 24 4c 3d 65 c9 c8 bc a1 a4 eb bb
       -0.0106626265 0.04983965 -0.024510095 -0.007191256
0002b0 7c cd 89 3c 34 75 09 bd 51 94 84 bc 7d 91 ae 3c
       0.016821615 -0.03355904 -0.016184004 0.021309609
0002c0 7c ef b2 3b 5f 40 9c bc 73 7e 7c bc 16 68 e0 3c
       0.0054606777 -0.019073663 -0.015411007 0.027393382
0002d0 03 1c 21 bd 42 d5 11 bc 41 1c 19 3d f9 92 55 bc
       -0.039333355 -0.008900942 0.03738046 -0.013035529
0002e0 dc 85 a1 bb 48 59 47 3c d7 85 c3 bc d5 c9 40 bd
       -0.0049292874 0.012167282 -0.02386753 -0.047067482
0002f0 3a f8 71 3d 3e 3f d7 39 1b 6e bc bb fd 13 e8 3c
       0.059074618 0.00041055115 -0.0057504303 0.028329844
000300 70 8e ad bb 83 d4 ed bc 02 98 06 bc 5c f8 52 bd
       -0.005296521 -0.029031998 -0.008214952 -0.051506385
000310 7f 79 40 bd ca 33 44 3d 54 ef a3 3c 79 c3 93 3c
       -0.046990868 0.047900952 0.020011581 0.018037545
000320 4b 1b 34 bb e5 b8 b8 bd c2 14 56 3d 83 db 64 bd
       -0.0027482088 -0.09019641 0.05226589 -0.055873405
000330 b3 91 ba 3c 61 8c 98 bd 13 04 8a bd 63 94 62 3d
       0.022774553 -0.0744865 -0.06739058 0.055317294
000340 9e e6 81 3c fc 17 2a bd 2b cb 89 3c 68 4f a9 3d
       0.015857037 -0.04152678 0.01682051 0.08267099
000350 24 0f 5e bd c3 4d a9 bd a8 8b 8b bb 29 9c 1b 3d
       -0.054213658 -0.08266785 -0.0042585917 0.037990723
000360 03 4d 1f bc 48 d1 c9 3d 63 55 2a 3d fd 7b 36 3d
       -0.009722951 0.0985437 0.041585337 0.04455184
000370 d2 4c 98 bc 34 1f 1b bd 9b 7d be bc 64 37 83 3d
       -0.018591318 -0.037871554 -0.023253253 0.06407049
000380 d2 12 2e 3c f8 6c 27 bb 4b e5 4b 3d 31 2d b3 bc
       0.010624604 -0.0025547128 0.049779218 -0.021872135
000390 3b c7 31 bc 6c b8 44 3d 40 8b 9e 3d db 1d 97 3d
       -0.010850723 0.04802744 0.077414036 0.07378741
0003a0 73 4e 42 bd 72 9a 74 bd dd 5c 2d bd c9 16 72 bd
       -0.047438096 -0.059717603 -0.04232489 -0.05910376
0003b0 b2 e8 fa 3c ee 18 d4 bd d8 41 ce bc a2 06 2f 3d
       0.030628536 -0.103563175 -0.025177881 0.042730935
0003c0 56 ee a2 3c a8 91 e5 bb 5b fd eb 3c 5c d9 8c bd
       0.019889038 -0.007005889 0.028807333 -0.068773955
0003d0 56 a7 62 3d ed 8e 50 3d e0 b2 7e bd 04 90 96 3b
       0.055335365 0.050917555 -0.062182307 0.0045948047
0003e0 8f 1e 60 3c 12 5b c6 3b a4 a9 0a bd a3 45 1a bd
       0.013679161 0.006053337 -0.03385319 -0.037664067
0003f0 89 d2 64 3d f5 3b bf 3d f1 8c 72 3d c6 c0 29 3d
       0.055864844 0.09337608 0.059216443 0.04144361

feature_extractor.encoder.6.bias f4 [10]
000000 88 d8 10 3e ec 06 20 3e 1c 39 d8 bd 1d 64 ce bd
       0.141451 0.1562764 -0.10557768 -0.10077689
000010 7c 99 48 3d b7 dd dc 3b 92 55 34 3e f3 dc b1 bc
       0.0489745 0.0067402977 0.17610767 -0.021711802
000020 6f 19 e1 bd ef b8 ea bc
       -0.10991179 -0.028652636

X_min f4 [768]
000000 67 aa 91 bd ed 56 a8 bd 1e c0 91 bd d5 1c 3f bd
       -0.0711258 -0.08219705 -0.071167216 -0.046658356
000010 60 5e 8a bd a1 b2 5d bd fb 3c c1 bd ed 46 13 bc
       -0.06756282 -0.054125432 -0.09435459 -0.008989078
000020 fc dc 36 bd 67 a5 87 bd 06 14 2b bd 14 15 d9 bd
       -0.04464434 -0.06623345 -0.041767143 -0.105997235
000030 f1 8d 23 bc 4b 76 ff bc 6f a7 fc 3c c6 71 d7 bc
       -0.009982572 -0.031184336 0.030841557 -0.026299369
000040 4b ae 88 bd 5d 97 88 bd ea 46 2f bd 85 c8 d5 bc
       -0.06673869 -0.06669495 -0.04279224 -0.026096592
000050 e4 1e 07 bd 11 83 5b bd c5 b2 dd bd 14 87 2f bd
       -0.032988444 -0.05359179 -0.10825113 -0.04285343
000060 fd 0e 9d bd 03 df e7 bc 28 85 70 bc 4a 2f 9d bd
       -0.076688744 -0.028304582 -0.014680184 -0.07675035
000070 c9 79 9f bd 84 2a 38 bd af 35 50 3c 5a 94 9c bd
       -0.077869006 -0.04496242 0.012708112 -0.07645483
000080 a5 4b 9e bd af 93 76 bc 12 26 a5 bd b2 8f b1 bd
       -0.07729272 -0.015049859 -0.08063902 -0.08669986
000090 78 8e 9e bd e5 3f a1 bd 5e 78 9f bd 43 cb e9 bc
       -0.077420175 -0.07873515 -0.0778663 -0.028539306
0000a0 cd b9 9c bd 25 46 fa bd ba cc 9a bd 09 7f 19 bc
       -0.07652626 -0.1222041 -0.0755858 -0.009368666
0000b0 69 ab ce bd 2a 70 b6 bd a1 88 4f bd a9 6b 37 bd
       -0.10091288 -0.08908112 -0.05066741 -0.044780407
0000c0 f6 7a 82 bd ba 4f a9 bd 83 60 ce bd 33 e5 13 bd
       -0.06371109 -0.0826716 -0.10077002 -0.036107253
0000d0 1b e9 d5 bd c1 57 b4 bd c1 4a b5 bd 3b de 83 bd
       -0.10444852 -0.088058 -0.08852149 -0.064388715
0000e0 28 f2 8b bd fb 74 b5 bc 51 b6 fc bb d1 82 ae bd
       -0.06833297 -0.022150507 -0.0077121635 -0.08521045
0000f0 ff 5c ac bd 1a 6b 2c bd fc 9c 89 bd 41 9c 96 bd
       -0.08416175 -0.042094328 -0.067193955 -0.07354022
000100 a7 5b b5 bd 87 48 e3 bc d8 a4 9b bd 22 10 ca bd
       -0.08855372 -0.027744545 -0.07599801 -0.09866358
000110 51 09 11 bd cb 54 74 bd 62 bf ad bc 2a 83 a9 bd
       -0.035409275 -0.059651177 -0.021209422 -0.08276971
000120 dc 34 94 bd ed a7 a2 bd c2 bc 98 bd 34 0f 93 bd
       -0.072366446 -0.079421856 -0.07457878 -0.07180634
000130 24 21 1c bd 29 62 48 bd 03 ab 2e 3c ab f4 96 bd
       -0.038117543 -0.048921738 0.01066089 -0.073708855
000140 0f 35 11 bd 29 61 cb bc 53 92 34 bd a1 33 c1 bc
       -0.03545099 -0.024826603 -0.04408486 -0.023584189
000150 4a fb 6b bd 57 94 a6 bd 02 20 bb bd 97 32 2f bd
       -0.057612695 -0.08133762 -0.091369644 -0.042772856
000160 78 e2 be bd fa ec 00 bd a4 21 e1 bd 9f e8 85 bd
       -0.09320539 -0.031476 -0.109927446 -0.065385096
000170 64 b1 45 bd 3e 8a 0a bd 89 af b4 bd 67 cb 98 bb
       -0.048264876 -0.033823244 -0.08822543 -0.0046629193
000180 7a a2 ae bd 1b fe 8d bd 98 5b 82 bd 3d 5a 5b bd
       -0.08527084 -0.069332324 -0.06365126 -0.053552855
000190 ed b7 8a bd c2 90 9f bd 3b ed b7 bd 31 3a 05 bd
       -0.06773362 -0.07791282 -0.08980795 -0.0325262
0001a0 4e 2b c4 bc 22 e9 23 bd 40 58 82 bd 98 5c ca bd
       -0.02394643 -0.040017255 -0.063644886 -0.09880942
0001b0 1e 5f 99 bd 3d 34 3e bd 17 3c a3 bd 48 13 78 bd
       -0.07488845 -0.046436537 -0.079704456 -0.060565263
0001c0 8f 6c bd bd ea dc f9 bc c3 06 3d bd 45 96 ca bd
       -0.092492215 -0.030500848 -0.046149027 -0.09891943
0001d0 87 00 ce bd c7 59 e7 bd ca 0a 93 bd 85 b3 40 bd
       -0.10058694 -0.112964205 -0.07179792 -0.047046203
0001e0 4c fe 93 bd 90 1c cf bd 43 ed 05 be 09 57 53 bd
       -0.07226238 -0.1011287 -0.1307879 -0.051596675
0001f0 63 7d ef bc 83 eb 13 bd 60 92 9f bd 99 95 92 bd
       -0.029234594 -0.036113273 -0.07791591 -0.0715744
000200 26 70 81 bd c2 19 d0 bc 13 3d b7 bd fe b8 8d bc
       -0.06320219 -0.025402907 -0.08947196 -0.017300125
000210 ef 5c 6c bc 81 d5 9a bd 55 05 3d bd c7 a7 40 bd
       -0.014426454 -0.07560254 -0.046147663 -0.047035005
000220 fe 0a b9 bd 86 ff 52 bd 06 14 b0 bd 2d f7 17 bd
       -0.090353 -0.051513217 -0.08597569 -0.03710096
000230 0a 6a aa bc 45 97 6b bd d1 2d 63 bb 95 a5 60 bd
       -0.020802516 -0.05751731 -0.003466476 -0.05484541
000240 d6 91 b5 bd 2a f2 34 bd e3 5b 7b bd e2 a7 f0 bd
       -0.088657066 -0.04417626 -0.061366927 -0.11750771
000250 ed 22 34 bc 38 74 23 bd 81 51 8b bd 97 95 dc bc
       -0.010994655 -0.039905757 -0.06802655 -0.026926799
000260 4b 80 24 bd 28 9a 53 3c e9 e2 4d bd 72 fd 8b bd
       -0.040161412 0.012915172 -0.050265227 -0.0683545
000270 ef df b8 bd 04 d6 27 bd b1 93 03 be 4b c4 f6 bc
       -0.09027087 -0.040975586 -0.12849309 -0.030122897
000280 e7 08 c6 bd cf 96 c7 bc 98 b1 ab 3b 20 c1 72 bd
       -0.09669667 -0.024363903 0.0052396767 -0.05926621
000290 22 b7 84 bc cd c7 9e bd 35 ca 43 bd b8 d5 bf bd
       -0.016200606 -0.07752953 -0.04780026 -0.093669355
0002a0 c9 71 68 bd 8a 3d a6 bd 1e ca bb bd 14 4f 52 bd
       -0.05674914 -0.081172064 -0.0916941 -0.051344946
0002b0 ed 57 11 bd fc 08 39 bd 80 a5 7e bd a5 77 1c bd
       -0.035484243 -0.045174584 -0.06216955 -0.03820004
0002c0 47 65 28 bd 52 45 99 bd 26 56 9c bd cf 09 c4 bd
       -0.04111221 -0.07483925 -0.07633619 -0.09572183
0002d0 ef 5d 90 bd 51 b2 a1 bd 2a 7a 0f bc e5 68 68 bd
       -0.070491664 -0.07895339 -0.0087571535 -0.05674066
0002e0 14 14 9c bc b8 e3 17 bd c8 1a d8 bd 16 66 ed bc
       -0.019052543 -0.037082404 -0.10551983 -0.028979342
0002f0 68 ed b7 bd 90 2c a8 bd f4 6a e4 bc c3 de 14 bc
       -0.089808285 -0.082116246 -0.02788303 -0.009086314
000300 bc f0 49 bd 22 50 f0 bc a9 40 6a bd 9d 76 bf bc
       -0.049301848 -0.029335085 -0.05719057 -0.023371989
000310 dd 1d 7c bd fa d2 b7 bd 65 c9 6d bd 02 73 0c bd
       -0.061551917 -0.089757875 -0.058053393 -0.034289367
000320 a3 dc a4 bd d7 2a 83 bd c0 de b4 bd 77 26 6d bd
       -0.080498956 -0.064046554 -0.08831549 -0.05789801
000330 ec ae 3c bd 1d 86 ae bc f6 20 64 bd 9d 2f f5 bc
       -0.046065256 -0.021304185 -0.055695496 -0.02992993
000340 aa 03 75 bd 48 32 ef bc 81 8a c9 ba 47 eb 8b bd
       -0.059817947 -0.02919878 -0.001537636 -0.06831985
000350 22 1c 7a bc 78 e1 17 bd 41 dc 80 bd 94 20 99 bd
       -0.015265496 -0.037080258 -0.0629201 -0.07476917
000360 84 b1 ea bc b3 68 b0 bc 3a cb 93 bd bf f4 1a bd
       -0.0286491 -0.0215343 -0.07216497 -0.037831064
000370 e5 7d 59 bd 76 d0 da 3c 6a 63 62 bd 2f bf 7f bd
       -0.053098578 0.02671073 -0.05527059 -0.062438186
000380 31 b8 8b bd 56 0c a8 bd 05 be 07 be bd 93 b4 bd
       -0.06822241 -0.08205478 -0.1325608 -0.08817241
000390 0a 0c 6e bd 78 ee 77 bc 68 69 8c bd 74 fe 8a bc
       -0.05811695 -0.015132539 -0.06856042 -0.016967036
0003a0 de 8b 99 b9 e9 28 a8 bd a4 4b 4b bd e2 59 98 bd
       -0.00029286643 -0.08210928 -0.049632683 -0.07439019
0003b0 ba 64 bb bd ec 30 86 bd 6c 3b c0 bd 5a eb 65 bd
       -0.091500714 -0.065523 -0.09386334 -0.056132652
0003c0 33 c6 9b bc 71 0a f6 bc 4a 7e 36 bd 87 c6 a2 bc
       -0.019015407 -0.030034276 -0.044554032 -0.019870056
0003d0 af bc 82 bc 81 95 c6 bd d6 dc ed bc 0e c8 27 bd
       -0.015959112 -0.09696484 -0.029035967 -0.04096227
0003e0 13 ae 30 bd cb d6 f0 bc 74 82 9d bd 0a 0d 84 bd
       -0.04313476 -0.029399296 -0.076908976 -0.064477995
0003f0 4c b1 a5 bd 5a a5 ef bc b2 43 39 bc 7c 7b 57 bd
       -0.08090457 -0.02925365 -0.011307644 -0.052608

X_max f4 [768]
000000 73 e3 7f 3d 99 2d 89 3d fb a1 b1 3d 88 83 bb 3d
       0.06247277 0.0669815 0.086734734 0.09155947
000010 6b bc 4c 3d a4 12 0f 3d eb 3b 0c 3c ac 39 be 3d
       0.049984377 0.034929886 0.008559207 0.09288344
000020 f4 63 43 3d 0b 88 03 3d 7d 61 59 3d 2a 5a 3e 3c
       0.047702745 0.032112163 0.053071488 0.0116181765
000030 f5 42 d7 3d 41 12 97 3d 3a d8 fe 3d e5 ce 98 3d
       0.10510818 0.073765285 0.12443586 0.07461337
000040 4b 03 1f 3d 3d 19 3d 3d fa c7 8a 3d 8e 9d ce 3d
       0.0388215 0.046166647 0.06776424 0.10088645
000050 a8 eb ae 3d fd f2 51 3d 2c ae 89 3b d1 66 a4 3d
       0.085410416 0.051257122 0.004201671 0.08027423
000060 c5 7d 8b 3c 74 8b d3 3d b9 65 7f 3d 4f 2a 8a 3d
       0.017027745 0.10329333 0.06235287 0.06746351
000070 9f aa 87 3d fd 76 90 3d ec f5 f1 3d a0 92 52 3d
       0.0662434 0.07053945 0.11814484 0.051409364
000080 48 e7 c5 3c 7d 20 e4 3d 25 bb 32 3c c2 b5 3e 3d
       0.024158135 0.11139009 0.010908877 0.046560057
000090 ae 74 cc 3c 39 b9 06 3d 45 f5 62 3d 2f 70 83 3d
       0.024957981 0.032891486 0.05540969 0.06417882
0000a0 b8 98 62 3d f9 1e 7e bc db a5 fb 3c 96 05 c7 3d
       0.055321425 -0.015510314 0.030718734 0.09717862
0000b0 1b 79 06 3d dc a9 fc 3c 4c 32 ac 3d a5 9c d0 3d
       0.03283034 0.030842714 0.08408031 0.101861276
0000c0 85 84 c6 3c f2 ce 69 3c ca 67 b9 3b 34 11 73 3d
       0.024233112 0.014270531 0.0056581246 0.059342578
0000d0 73 51 12 3c 89 b0 46 3d 27 76 d7 3c 84 a6 70 3d
       0.008930552 0.0485082 0.026301457 0.05875255
0000e0 dd 23 3d 3d c7 24 b7 3d ba 52 a2 3d e2 7b 2a 3d
       0.04617678 0.089425616 0.07925935 0.04162205
0000f0 cb 68 4a 3c 9c 5f af 3d 7b 9d 0e 3d 55 0f 45 3d
       0.012354086 0.08563158 0.034818154 0.048110325
000100 6e c6 14 b8 e2 96 a2 3d 6d ff 4f 3d d8 33 94 3c
       -3.547075e-05 0.07938935 0.050780702 0.018091127
000110 c1 5b b2 3d 98 aa 2b 3d 92 3a c5 3d 9b 51 15 3d
       0.08708907 0.041910738 0.09630312 0.03645478
000120 05 7b de 3c 2b 41 1c 3d 95 0d 98 3c 9d cc 07 3d
       0.02715827 0.038148087 0.018561164 0.03315412
000130 92 20 75 3d 1d 24 7d 3d 75 d6 0a 3e 97 17 3d 3d
       0.059845515 0.06180202 0.13558371 0.046165075
000140 5a ad 95 3d f1 09 7f 3d 32 34 60 3d a1 7e a2 3d
       0.07308455 0.06226534 0.054737277 0.07934309
000150 bf e4 21 3d 89 ad 66 3c f6 83 61 3c d6 78 80 3d
       0.03952479 0.01407946 0.013764372 0.062730476
000160 40 ff 56 3d 47 ef b0 3d 26 46 98 3c dc 6b 12 3d
       0.05248952 0.086393885 0.018588137 0.035747394
000170 39 5e 3b 3d 90 f9 9d 3d c5 62 aa 3c 3b 26 b4 3d
       0.045744155 0.07713616 0.02079905 0.087963544
000180 6c 75 c7 3c cd 99 6f 3d e7 67 8b 3d 77 4a 94 3d
       0.024347983 0.058496285 0.06806927 0.072407655
000190 e4 8c 2e 3d db 0e 59 3d 70 af 92 3d f0 be 8d 3d
       0.042614833 0.052992683 0.07162368 0.06921184
0001a0 33 df b8 3d a9 a0 6f 3d d1 e5 4f 3d ba e1 ed 3c
       0.09026947 0.058502827 0.05075628 0.029038299
0001b0 76 5e 50 3d 26 9d 98 3d d2 cb 1c 3d 8a 61 9b 3d
       0.050871335 0.07451849 0.038280316 0.075869635
0001c0 1a b3 c7 3c ec 06 a8 3d a5 70 8d 3d 5c 6c 86 3c
       0.024377394 0.08204445 0.06906251 0.016409092
0001d0 75 5e 20 3c 32 2c 97 3c f1 f3 27 3d 41 fc 12 3d
       0.009788145 0.018453691 0.041004125 0.0358851
0001e0 49 06 22 3d 53 89 f8 3c c8 c1 07 bc 60 68 85 3d
       0.039556775 0.030338919 -0.008285947 0.065140486
0001f0 57 29 be 3d 30 57 b4 3d ae 52 34 3d 29 9f 83 3d
       0.09285229 0.08805692 0.044024162 0.06426842
000200 39 0b 09 3d 93 33 cd 3d 3e ee 0f 3d 16 31 a1 3d
       0.03345797 0.100196026 0.035139315 0.078706905
000210 aa 59 a4 3d d2 bd 00 3d f9 54 2a 3d 42 d3 3b 3d
       0.080249146 0.031431027 0.041584942 0.045855768
000220 35 c3 be 3c 3d 06 95 3d ac 1e bb b9 0f e9 81 3d
       0.023286441 0.072765805 -0.00035690272 0.063432805
000230 ce 9c 8b 3d db b0 5d 3d d5 f4 d0 3d 7e 78 fc 3c
       0.068170175 0.05412374 0.10202948 0.030819174
000240 47 d0 63 3c ea 9f 85 3d 89 70 5c 3d da c4 07 3c
       0.013904638 0.06524642 0.05381826 0.008286679
000250 de ad c0 3d f5 fa 6c 3d 1d c1 14 3d d7 19 b4 3d
       0.094081625 0.05785652 0.03631698 0.08793991
000260 38 1d 8f 3d bf 1e d9 3d cf bd 56 3d 21 36 8b 3d
       0.06987995 0.106015675 0.05242711 0.06797434
000270 bf e1 e8 3c b4 06 4c 3d c9 54 ea 3a 0a 88 ae 3d
       0.028427957 0.04981108 0.0017878051 0.08522041
000280 0e 17 aa 3b 0c 07 92 3d 2a 8e c1 3d 9e 88 7e 3d
       0.0051907366 0.0713025 0.09450944 0.062142007
000290 ae d5 f3 3d 1d 9b 84 3d 3a 04 48 3d 82 33 22 3d
       0.119059905 0.06474898 0.048832156 0.039599903
0002a0 d3 17 a1 3d 83 34 2e 3d bc 2a 2f 3d 14 5e 35 3d
       0.07865872 0.042530548 0.042765364 0.044279173
0002b0 e5 c8 df 3d e3 74 97 3d a8 6f d0 3c e1 17 44 3d
       0.109269895 0.07395341 0.025443867 0.047874335
0002c0 7b ea e3 3d 06 85 ed 3c 5a 55 3e 3d e6 14 95 3c
       0.11128708 0.028994095 0.046468116 0.018198442
0002d0 71 58 3e 3d d0 c8 28 3d 80 6d a8 3d 9d 97 24 3d
       0.046471063 0.041207135 0.082240105 0.040183652
0002e0 6a 8e ac 3d de e9 8b 3d 9e 13 c6 3b 91 da b1 3d
       0.08425601 0.06831716 0.006044819 0.08684266
0002f0 f6 f6 8a 3d 44 10 c3 3c 92 7f 7e 3d ce 8a a2 3d
       0.06785385 0.023811467 0.06213338 0.07936631
000300 fc 1a 77 3d e4 10 87 3d 7d f1 87 3d 90 e0 b5 3d
       0.06032847 0.065950185 0.06637857 0.088807225
000310 43 13 f6 3c e8 62 c3 b9 1f ac 4a 3d 9f 29 6d 3d
       0.030038482 -0.0003726699 0.049480554 0.05790102
000320 68 a3 a2 3b 27 72 6e 3d 05 b8 b8 3c 05 e8 30 3d
       0.004963327 0.058214333 0.022548685 0.04319002
000330 f8 2d 80 3d 18 0d ab 3d c1 75 6a 3d 3b 6e 8c 3d
       0.06258768 0.08352107 0.057241205 0.06856962
000340 c2 e6 be 3c 00 5c 66 3d 21 28 b1 3d 1e 0a 13 3d
       0.023303393 0.05624008 0.08650232 0.03589832
000350 a2 2b dc 3d d0 dc 67 3d d4 f2 34 3d 5d d3 25 3d
       0.1075051 0.056607068 0.04417689 0.040484775
000360 42 29 a9 3d c4 74 bf 3d d3 d5 c8 3c 76 a3 81 3d
       0.082598224 0.09348443 0.024516022 0.06330006
000370 f8 e2 65 3d 15 63 fa 3d 80 6f 26 3d 83 53 0a 3d
       0.056124657 0.1222593 0.04063368 0.03377105
000380 56 28 5c 3c 81 87 13 3c 19 c8 3c 3b ee a2 25 3d
       0.013437351 0.009004475 0.002880579 0.040438585
000390 f4 19 95 3d a7 df b0 3d 78 2c 91 3d da 2a a1 3d
       0.07280341 0.08636408 0.0708856 0.078695014
0003a0 5d f4 b1 3d bf 11 a8 3b ad ec a3 3d b8 37 9c 3c
       0.08689187 0.0051290686 0.08004127 0.019069538
0003b0 65 79 88 3c 41 d8 1c 3d 07 02 ab 3c 42 d2 4f 3d
       0.016659448 0.038292173 0.02087499 0.050737627
0003c0 3b 4a e6 3d e1 64 99 3d 71 85 85 3d ff 61 8f 3d
       0.11244627 0.07489944 0.065195926 0.07001113
0003d0 5a 46 c6 3d 0c d0 3d 3d d4 b2 84 3d 42 34 98 3d
       0.09681387 0.046340987 0.06479421 0.074318424
0003e0 52 66 e7 3c cf e5 ab 3d d4 e0 6a 3d cb 83 62 3d
       0.028247032 0.08393442 0.05734332 0.05530147
0003f0 2c d1 36 3d 63 75 b8 3d a0 32 cc 3d 76 47 90 3c
       0.044633076 0.09006765 0.099705935 0.0176122
