hbbops_improved_4/results/25x25/gp_model_final.pt (torch, 701565 bytes, 29 tensors)

deep_kernel.base_kernel.raw_lengthscale f4 [1, 10]
00000000: f377 94bd 1f71 91bd 0b33 82bd 677c 74bd
00000010: 4796 76bd d848 7fbd 5618 71bd 8600 83bd
00000020: 2e9e 8bbd 7770 7bbd
-0.07249441 -0.07101654 -0.06357392 -0.05968895 -0.06020191 -0.06232533 -0.0588611 -0.06396584
-0.0681728 -0.06138655

fidelity_kernel.covar_factor f4 [15, 3]
00000000: c2f7 c13e 68b2 b4be 5eb2 9e3e 8204 0b3f
00000010: 9cfb e93f f49c 513d 8a69 483f 1e9e dfbe
00000020: fed4 b23f 95bd 523f b81e d23d 2608 1f3f
00000030: d57e d73d 79fd d6bd 80d8 483d f63b d03f
00000040: 580c 0ebe 12c1 d9be 50eb b33e 7a7e e53e
00000050: a833 bfbf 4210 40be 9b30 653f ed21 60bf
00000060: ed43 dabd 9956 47bf 99c6 72bf 5f1c 223f
00000070: 1b68 74bf a380 a0bf e973 1cbd ba59 97bf
00000080: d6d0 3fbc 77b6 da3f 72e0 f53f 28b0 4dbe
00000090: bf9c 9dbf d877 aebf 8087 ce3f 6a48 9ebf
000000a0: 0682 46bf 9f22 5dbf 9136 74be 8467 833f
000000b0: b055 2bba
0.37884337 -0.35292363 0.30995458 0.54303753 1.827991 0.051175073 0.7828604 -0.4367532
1.397125 0.8232053 0.102597654 0.6212181 0.10522238 -0.10497565 0.049034595 1.6268299
-0.13871896 -0.42530113 0.35140467 0.44823056 -1.4937639 -0.18756202 0.8952729 -0.87551767
-0.10657487 -0.7786651 -0.94834286 0.6332454 -0.9547135 -1.2539257 -0.038196478 -1.1824257
-0.011707505 1.7086934 1.920912 -0.2008673 -1.231346 -1.3630323 1.6135101 -1.2365849
-0.7754215 -0.8638095 -0.2384894 1.0265965 -0.0006535901

fidelity_kernel.raw_var f4 [15]
00000000: 23d7 13bf d0e9 993e 75ef 54bb 0510 0d40
00000010: eef4 82bd e63c 4b3f d884 693e 3ccf 14c0
00000020: fddd b53f 854c 6abf af46 f23f 892a b4bf
00000030: a7f6 35be ed52 fb3f d6da 95be
-0.5775015 0.30061197 -0.003249136 2.2041028 -0.06394373 0.793898 0.22804582 -2.3251486
1.420837 -0.9152301 1.8927821 -1.4075481 -0.17769872 1.9634682 -0.2926852

feature_extractor.instruction_encoder.0.weight f4 [64, 768]
00000000: 86c9 b03d 793b 9cbd b154 c1bb d087 943d
00000010: 2da2 8abd d185 c8bd 9c22 a83d 9fb3 993d
00000020: a717 85bd ff64 943d 057e ac3d 853f 5fbd
00000030: f15b a33d 6109 e5bd 19f1 53bd 87d5 a5bd
00000040: d983 4e3d e99b a0bc f9c5 acbd c63c 41bd
00000050: 3167 e03c 687a 603d 0a23 ecbd 4a9c 033d
00000060: 9c8b 97bd 5fdd 5e3a d78d d3bc 18d9 88bd
00000070: ed8a 80bd 0def 4b3d 9812 fbbc 96c5 7dbd
00000080: 0d2a 9ebd b81c 65bd 947c 6f3c ae36 85bd
00000090: bab5 73bd ea5d b23c cc10 81bd 60fc aabd
000000a0: 6c7e 1cbd 22a6 77bd cb3b 863c fe2e 4abd
000000b0: db48 8b3d 845e bfbc df2c 20bd e83a 01bd
000000c0: 9958 3a3d 90e0 87bd 3374 363c 4ed4 8f3d
000000d0: 5827 99bc 761b 32bd 4fec fa3c 5141 9ebd
000000e0: 7c35 1abd 8211 453d cd30 98bd b069 84bd
000000f0: dc39 12bc 7206 f9bc ba5e 033d 3d82 3fbd
00000100: 1760 0d3c 851a 8b3d 10e9 9cbc e926 4abc
00000110: 2cdd 143d fc57 a33d 52c5 373d f951 9a3d
00000120: 73bb 88bd 2ba9 3abd 2f95 eebb 609e 85bd
00000130: e0ba 063c 793f 263d dc9f 57bd 9ed4 763d
00000140: f5f1 19bd 5392 0e3d c45d 7e3d 6707 9fbd
00000150: 010f 983d c051 c6ba 8757 86bd 23f4 763d
00000160: 3a96 5cbd 6c0a 6abd 2166 94bd da0e 24bd
00000170: 99ed a5bc cd97 99bc f0ed 20bc a676 c9bc
00000180: 8f38 a1bd 88d3 d33c c135 ad3c ce3c 363d
00000190: aec0 91bd eb03 debd 1b57 34bb 2bc5 17bd
000001a0: ee3b 90bd ff2b 78bd 4a80 4c3d 781a af3d
000001b0: 860e f6bc fe87 2b3c 526a 8fbd 27c1 46bd
000001c0: c1cd 8fbd efbf 8fbd dce4 b4bd 441f b83a
000001d0: 4e6f ed3c 41a0 823d 6bc5 5ebd 64ca a1bd
000001e0: 8ea1 f4bb f470 5ebd 723b 0c3d 0e93 4dbd
000001f0: 3285 3b3d 8035 57bc 61fc a13d be68 b1bc
00000200: b383 663d c54c aebd 7546 1c3d 40fe d2bb
00000210: 488b aabd 667c 203d 494b a9bd 87e1 163d
00000220: c487 9c3c 650a 29bd c4af 8bbd 260c f8bc
00000230: 4b72 0bbd 6ef6 eabc 5d92 4ebd cca3 263d
00000240: c827 843c 7b2a 2c3d 7cdb 8e3d c7e8 abbc
00000250: 2267 09bd 0a6a 82bd 86c2 4f3d d6a4 57bd
00000260: 4143 253d f2cb ca3c 03a6 b63c c696 303d
00000270: 5839 94bc 994a 47bc ce04 81bd 7072 673d
00000280: 335c 223d f91d a1bd 9041 a3bd 1e4e 8c3d
00000290: f602 a0bd 7eaf 9c3c b815 1e3d 9460 97bb
000002a0: 02c4 55bc 7307 88bd bc70 88bd f447 7a3d
000002b0: cba7 ffbc eff8 58bd da18 a8bc 181f 773d
000002c0: f0f3 d3bc b02e 843d 0f3d 233d 12c1 85bc
000002d0: fa52 6bbd d2b8 91bd 66fd d0bb 0c4d a6bd
000002e0: 5ba6 b13d 054a bdbb 8495 963d a3e1 943c
000002f0: 6b5f d4bd 0e85 41bd de42 a6bd cc95 10bd
00000300: 8413 63bd 0a75 79bd fabe 9f3d bb0a 2f3d
00000310: 429f 393d 8ca3 363d afa4 26bd 0af4 903d
00000320: 7f04 f23c d357 603d dff0 903d 259c 733d
00000330: 9a78 98bc 62d9 b33c 8137 5a3d 8d33 a83d
00000340: 8d5b 16bd e6cd 5d3c 18b5 34bd 8fe7 81bc
00000350: 2a0d 87bd 9bd1 ed3c a0b0 223c 72c5 923d
00000360: a8f6 82bd 93ff b6bc 7d56 3c3d 25c1 23bc
00000370: 8e50 8a3d 27e9 0cbd 667f 5bbd e164 5ebd
00000380: 30fa 3fbd 310b 85bd e08a 723d b375 833d
00000390: 4488 4e3d 6f8b 5bbd 5c42 dfbc 8701 6cbd
000003a0: e349 343d 452f 8bbd 91ba d2bd 74ae a93a
000003b0: eaf8 87bd acf4 8ebc 8766 8d3d fd95 3bbd
000003c0: 5b0b bcbc 709e b73d 0966 13bd f25e 8abd
000003d0: 9097 8f3d a2fd fc3c a924 afbc 6e0e 5b3d
000003e0: 6550 853d 9baf 28bd 1fcb 4fbd c891 d53c
000003f0: 5a0e 843d 0005 aa3c 2ecd 4e3d 7ac8 393d
0.086321875 -0.07628531 -0.0058999886 0.07252467 -0.06769214 -0.097911485 0.08209726 0.07504963
-0.06498652 0.07245826 0.08422474 -0.054503936 0.07976521 -0.111834295 -0.0517436 -0.08097368
0.05041871 -0.019605594 -0.08436198 -0.0471771 0.027392955 0.054804236 -0.11530121 0.03213147
-0.07399675 0.0008501615 -0.02582447 -0.06682032 -0.06276498 0.049788523 -0.030648515 -0.06195601
-0.07722864 -0.05593559 0.014617104 -0.0650457 -0.05949948 0.021773297 -0.06302032 -0.08348918
-0.038206503 -0.06046117 0.016385933 -0.04936122 0.068010055 -0.023360498 -0.039105292 -0.031550318
0.04549465 -0.06634629 0.0111361025 0.07022916 -0.018695518 -0.04348322 0.030630259 -0.07727302
-0.037648663 0.0481124 -0.07431183 -0.06465471 -0.008924928 -0.030398581 0.03207276 -0.046755064
0.008628867 0.067921676 -0.019154102 -0.0123383785 0.03634374 0.07975766 0.044865914 0.07535166
-0.06676378 -0.045571487 -0.0072809677 -0.06524348 0.008223265 0.040587876 -0.05264269 0.06026136
-0.037584264 0.034807514 0.06210114 -0.07765084 0.07424737 -0.0015130565 -0.06559663 0.06029142
-0.053854205 -0.057138845 -0.07246042 -0.040053226 -0.020254897 -0.018749142 -0.009822354 -0.024592709
-0.07872116 0.025857702 0.021143796 0.04449158 -0.07116829 -0.10840591 -0.002751774 -0.03705327
-0.07042681 -0.060588833 0.049927033 0.085499704 -0.030036222 0.010469435 -0.07002701 -0.04852405
-0.07021666 -0.0701903 -0.08832714 0.0014047404 0.028983738 0.06378222 -0.05438749 -0.07899931
-0.007465548 -0.05430694 0.03423638 -0.05018907 0.04578132 -0.013135314 0.079094656 -0.02165639
0.056277942 -0.085107364 0.03815313 -0.0064390004 -0.08327347 0.039181136 -0.08266313 0.036836173
0.019107707 -0.04126968 -0.06820634 -0.03027923 -0.034044545 -0.02868196 -0.05043255 0.040683553
0.01613225 0.0420327 0.06975457 -0.02098502 -0.03354562 -0.063678816 0.05072262 -0.052647434
0.04034734 0.024755452 0.022295957 0.04311254 -0.01809375 -0.012163782 -0.062997445 0.05650562
0.03963871 -0.07867045 -0.079714894 0.06850837 -0.07813065 0.01912665 0.03859493 -0.0046196673
-0.01304722 -0.06642046 -0.066621274 0.061103776 -0.03120794 -0.052971777 -0.020519663 0.060332388
-0.025873154 0.064542174 0.039853152 -0.016327415 -0.05745218 -0.0711533 -0.0063778637 -0.08120164
0.08674308 -0.005776646 0.073527366 0.018173998 -0.10369762 -0.04724603 -0.08118223 -0.035299107
-0.055438533 -0.060902633 0.07800098 0.042734843 0.045317896 0.044589564 -0.0406844 0.07077797
0.02954316 0.054771256 0.070771925 0.059475083 -0.018612195 0.021954242 0.05327559 0.082129575
-0.036708403 0.01353786 -0.044118017 -0.015857486 -0.06594308 0.029030612 0.009929806 0.07166566
-0.06394702 -0.022338664 0.04598092 -0.00999478 0.06753646 -0.03440204 -0.053588293 -0.054295424
-0.046869457 -0.06496275 0.059214473 0.06418934 0.05042292 -0.05359977 -0.027253322 -0.057618644
0.044015776 -0.06796125 -0.10289491 0.0012945668 -0.066392735 -0.017450653 0.06904321 -0.045797337
-0.022954633 0.089657664 -0.03598598 -0.06756391 0.0701133 0.03088266 -0.021379786 0.053480558
0.06509475 -0.041183095 -0.05073082 0.02607049 0.0644805 0.020754337 0.050488643 0.045357205

feature_extractor.instruction_encoder.0.bias f4 [64]
00000000: da37 60bd ce46 373d 0ba5 9f3d 6f90 1fbd
00000010: 6102 333d 0918 f2bb 9829 9c3c a6c0 0e3d
00000020: bc37 99bd 3577 4b3c d97b 61bc b54c 97bd
00000030: 10b1 8fbd dc93 93bd 08e1 9bbd 6e6a f6bc
00000040: b3db 9fbd 41fe ba3c 3b2b 12bd c3e1 30bd
00000050: 3f0a 8f3d 8314 97bd 771e 44bd 437b a83d
00000060: e236 de3c 07cf ab3d e292 e1bc 6731 a3bd
00000070: b10a 3b3d 9a08 0e3d 53b8 9fbc ed95 e23c
00000080: 5267 403d 8cbc 11bd e3f9 83bd cfb3 8b3d
00000090: 3280 45bd 7193 c93c daa7 a93d 5379 13bc
000000a0: 0ad4 0d3d be7b 26bd 6427 133d 1108 7cbd
000000b0: 8552 4d3d c72f a4bc 1f71 833c 2986 52bd
000000c0: 2d17 8ebd ac63 853d fdad 303d dad9 eb3c
000000d0: 9f2c 543d e1c0 303d ad1b 5f3d 514b 8fbc
000000e0: 3991 bc3c d408 843c 785d a83c 9c51 13bd
000000f0: e738 bb3b 6534 b13c 7485 0e3c 9e10 8c3d
-0.054740764 0.04474526 0.07795151 -0.038956102 0.04370344 -0.007388119 0.019062802 0.034851693
-0.074813336 0.012418558 -0.013762438 -0.073876776 -0.07016194 -0.07205936 -0.07611281 -0.030080047
-0.07805576 0.022826316 -0.03568576 -0.043184053 0.06984376 -0.07376959 -0.047880616 0.08226635
0.02712578 0.08389097 -0.02753586 -0.07968407 0.045664493 0.03467617 -0.019497072 0.02765938
0.046973534 -0.035580203 -0.064441465 0.06821405 -0.04821796 0.024606438 0.08283968 -0.009001094
0.034626044 -0.040645353 0.035926238 -0.06153113 0.050127525 -0.020042313 0.016045151 -0.051397476
-0.06938014 0.065131515 0.04313468 0.028790403 0.051800366 0.043152694 0.054469753 -0.017491968
0.023018466 0.01611749 0.020552382 -0.0359665 0.0057135704 0.021631429 0.00869881 0.06839107

feature_extractor.instruction_encoder.2.weight f4 [32, 64]
00000000: 6a2f d5bd b70f 2d3d abaa 2bbb 74e6 d1bc
00000010: fa26 3b3d f08d 243d 535f 1dbd 965f e6bd
00000020: 2de2 d63d e96a 8dbd 0b76 e43a 9bb5 acbc
00000030: bfb9 d93d 5be7 e63c 909b f7bd 5b34 e2bb
00000040: 465f 42bb f073 d7bd 19fb ed3d 24a3 4f3d
00000050: e45d 7fbb 7223 3cbd 2538 e33d b198 d6bd
00000060: e088 63bd 3e3e b83d 560a bebd 65d1 55bd
00000070: 8d67 e93d 267a 04bd 6f87 e1bd 80a2 e93d
00000080: 5406 00bd 2194 9bbd 1303 c53c 1bd6 8c3b
00000090: cdd3 093d 7597 56bd 5737 22bd e166 d0bd
000000a0: 371e 4a3d 0a9f b0bd 120a e43c 6a86 d1bd
000000b0: 8d44 e4bd 3c86 803d 428e ecbd 87b8 19bd
000000c0: f85a a23d 1834 853b 62a5 f2bd 0fea 27bd
000000d0: b24d f1bd e680 143d 3ad4 8b3d f17d 983d
000000e0: 68dd a1bc d604 a2bd 526d 373c 82ef 42bc
000000f0: a57e 6bbc 289f c63d dd2a 2ebd 4280 c2bd
00000100: 807b 41bd af64 dabc b7d0 2e3d d5c9 aebc
00000110: f43a 9c3d 981a 7ebd d78c dc3d bcba fdbc
00000120: c87b c3bd ecaf 1ebd ca42 b13b 4641 ca3d
00000130: 0aa5 c93b 5b2a 513d 7123 0aba 68e6 e7bc
00000140: a2d1 1a3d ab7c ecbd 6b76 60bd 4722 6e3d
00000150: bdfc 6fbd 17f8 fe3d 8574 6dbd 590d aabd
00000160: d58c 9d3d 2141 15bd 8b62 d9bd b855 1b3d
00000170: 7a29 873d 2f3d f6bd 4a70 c5bd 9cf0 0fbc
00000180: 5526 a83d 7510 b5bc bade bc3d eff4 d6bd
00000190: 9f82 b03c e591 ee3d ffc1 953d f49f 06bd
000001a0: 70c0 963d e76c dd3d adeb d7bd 241a 02bc
000001b0: 0cb6 1bbd caa3 a7bd 976c 203d 1359 583c
000001c0: 7979 d0bd ea46 c23d 0788 27bd 43bc 863d
000001d0: 160f 143d e3dc 50bc 835f 2e3c 4a65 c1bd
000001e0: 79bb a5bd 5283 7dbd 2c72 f5bd e851 773d
000001f0: b062 bebd 12a9 ba3c 7ee2 10bd 2315 b9bd
00000200: a45c 043c c3ad 8dbc 9417 82bd b9ec b4bd
00000210: 1ef6 3a3c f358 b43c 0145 743d 1f38 d63c
00000220: 8f55 1bbe 3dba 26bd 9f55 2dbe aac3 cdbc
00000230: 48b5 99bd 83cb 64bc 10c7 ecbd bbd4 1c3d
00000240: 8a24 ecbd 19cc 563d 2aa3 13bc 0bc3 033c
00000250: 46b2 cfbc b454 36bd d102 0dbe ddec a3bd
00000260: 3469 b7bd 5334 e3bd bb40 503d 5606 863d
00000270: 4e4a 18bc add1 8bbd 5086 97bd 42b5 9bbd
00000280: bfef f0bd 0e7e fd3d 9d41 793b 3009 bfbd
00000290: 3bff 8bbd 0a87 833c dcfd bdbd fe3f f73c
000002a0: 45ea c9bd df9d 9b3d 7a73 2a3d f94a a13c
000002b0: f814 88bd 3e6a 41bc a0fd bcbc 835f cdbd
000002c0: 4b4f a83d b994 6abd 9dd7 b5bc abd5 70bc
000002d0: 8586 17be 8681 63bd 12d5 95bc c66b 933d
000002e0: 9384 babd f520 6cbd db11 5dbd 57e5 df3d
000002f0: ab15 c1bd e214 81bc f1a0 15be 45c1 bcbd
00000300: ddbb 1bbd ba3a 59bc fff4 65bc fb7e 283e
00000310: 6904 c9bc cda0 0dbe db26 21be 95f6 b0bd
00000320: 8825 1bbe 59d5 adbd c0fe e6bc d492 213e
00000330: d584 8a3c 61ff b43d 16d7 07bd 14dc 3d3c
00000340: 7d13 04bd 592c 253d 8c0d f23c 6c28 0bbe
00000350: bee1 fcbd 15a6 db3d b81d f9bd 04df abbc
00000360: a29d 99bd 377a 1a3d f33b 71bd d5e1 fc3d
00000370: 99a8 53bd bc61 4c3d 7d5b c93c a0f3 2fbe
00000380: 6b9e b8bc f553 20bd de44 1f3d ef95 87bd
00000390: ee24 96bd 6208 f53d eea7 793b 37ea edbd
000003a0: b20e eebd 8eef d1bd 0207 16be 93a7 eb3d
000003b0: 192b 6abd bf63 8dbd 1e4e 533d 6184 133e
000003c0: 0b46 16bd 8380 8fbc 9771 83bd 4768 e83d
000003d0: 7f66 1dbe f37e e33d 35fe 1f3e 3b3c 0d3e
000003e0: 1d61 9d3c 47be 003e 54a4 9fbd 676c 07be
000003f0: ae98 47bd bc6b 8f3d efbb f2bc 159b 753b
-0.10409434 0.042251315 -0.0026194255 -0.025622584 0.045691468 0.040174425 -0.038420986 -0.112487
0.10492358 -0.06905157 0.0017430199 -0.02108269 0.106311314 0.02818649 -0.12090218 -0.006903214
-0.0029658838 -0.1052016 0.11620159 0.050692692 -0.0038965875 -0.04593224 0.11094693 -0.10478342
-0.055550456 0.08996247 -0.09279315 -0.052201647 0.11396704 -0.032343052 -0.1101216 0.114079475
-0.031256035 -0.07596613 0.024049317 0.0042979843 0.033649255 -0.052390534 -0.039603557 -0.101758726
0.04934522 -0.08624084 0.027836833 -0.102307156 -0.111458875 0.06275603 -0.11550571 -0.037529495
0.07927507 0.004065048 -0.118479505 -0.0409947 -0.11782397 0.03625574 0.068275884 0.074458964
-0.019758895 -0.07911079 0.011195498 -0.011897923 -0.014373456 0.096983254 -0.042521346 -0.094971195
-0.04723692 -0.026659338 0.042679515 -0.021336475 0.07628432 -0.06203708 0.107690506 -0.030972831
-0.09545094 -0.03874199 0.005409573 0.09875731 0.0061537074 0.051065784 -0.00052695634 -0.028308108
0.037797578 -0.11547216 -0.054800432 0.05813816 -0.05859064 0.12449663 -0.05797245 -0.08303327
0.07692877 -0.036439065 -0.10614499 0.037923545 0.06599708 -0.120233886 -0.09640558 -0.008785393
0.08210436 -0.022102574 0.09222169 -0.10495936 0.02154666 0.11648921 0.073123924 -0.032867387
0.07360923 0.10811787 -0.105429985 -0.007940803 -0.03801541 -0.08185537 0.03916606 0.013204831
-0.10179419 0.09486182 -0.04090121 0.06578877 0.0361472 -0.012747976 0.010642889 -0.094431475
-0.08092398 -0.061892815 -0.11984667 0.060380846 -0.09296167 0.022785697 -0.03537225 -0.09037235
0.008078728 -0.01729477 -0.063521534 -0.08834214 0.011411218 0.02201507 0.05963612 0.026149807
-0.15169357 -0.040704954 -0.16927193 -0.025117714 -0.0750528 -0.013964537 -0.11561406 0.038288813
-0.11530407 0.052440736 -0.009011069 0.008042107 -0.025353562 -0.044514373 -0.13770606 -0.080041625
-0.08955613 -0.110939644 0.05084298 0.06544177 -0.009295059 -0.06827102 -0.07398665 -0.076029316
-0.11764478 0.12377559 0.0038033493 -0.09327924 -0.06835791 0.016055603 -0.092769355 0.030181881
-0.098591365 0.07598471 0.041614033 0.01968907 -0.066446245 -0.011805115 -0.023070157 -0.10027983
0.08218249 -0.05727074 -0.022197539 -0.01469938 -0.14797409 -0.055543445 -0.018290076 0.071982905
-0.09107318 -0.057648618 -0.053972106 0.10932415 -0.09427961 -0.015757028 -0.14612176 -0.09216551
-0.038020957 -0.01325863 -0.014035462 0.16454689 -0.024538236 -0.13830872 -0.15737478 -0.08640782
-0.15151036 -0.084879585 -0.028197646 0.15778667 0.016909042 0.08837772 -0.033164106 0.011588115
-0.032245148 0.040325496 0.029547475 -0.13589638 -0.123477444 0.10725037 -0.121638715 -0.020980366
-0.07500769 0.03771421 -0.058895063 0.123477615 -0.05167446 0.049897894 0.024579758 -0.1718278
-0.022536477 -0.039142568 0.038884036 -0.066203944 -0.073312625 0.119644895 0.0038094479 -0.116169386
-0.11623897 -0.102507696 -0.14651111 0.115065716 -0.057170007 -0.06903791 0.05158817 0.14405967
-0.036687892 -0.017517334 -0.0641815 0.11348014 -0.1537113 0.11108198 0.15624316 0.13792507
0.019211346 0.12572585 -0.07795015 -0.13224946 -0.04872959 0.070029706 -0.02963063 0.003747647

feature_extractor.instruction_encoder.2.bias f4 [32]
00000000: a67f 6cbd 5623 b6bd 0f08 b5bd b849 203e
00000010: ec0a 683d fa18 0e3d ed2a 533a a12b bcbc
00000020: e024 ea3d 0169 4cbd a729 08bc 569e 473c
00000030: ea52 133e 9ee6 adbd c6ae edbd 2b89 263e
00000040: 47d9 a73c 8002 963d 045d 66bd aa2f f9bd
00000050: 1190 ba3d 9008 3ebd 648a 993d ba8f 053e
00000060: f35d 52bc 9d11 5c3d 5e1d 90bc c395 b63d
00000070: 5ce7 243e b22a 3bbc d1e1 67ba 536d 88bd
-0.057738923 -0.088934585 -0.08839428 0.15653121 0.05665104 0.03469179 0.00080554077 -0.022970023
0.114328146 -0.049904827 -0.008310712 0.012183746 0.14387098 -0.08491252 -0.11605601 0.16263263
0.020489348 0.073246956 -0.05624105 -0.12167294 0.0910951 -0.046394885 0.07497099 0.13043109
-0.012839782 0.053727735 -0.017592128 0.089152835 0.16103882 -0.011423754 -0.00088456 -0.06661477

feature_extractor.exemplar_encoder.0.weight f4 [64, 768]
00000000: e972 ccbc afda aabc 2000 10bd ecd6 a8bd
00000010: 8345 51bd 64c9 99bd 0387 98bd 18a5 4fbd
00000020: 19e5 aabc 5c2b 57bd 4c0c 29bd 4c28 a5bd
00000030: c311 6cbc 4f11 4cbd a98c 9cbd 0bf5 4ebd
00000040: d6ec 82bd bc6c 9dbc f814 9dbd 4c09 f9bc
00000050: ae6b 1dbd feca 4fbd 7cd9 d6bc dc61 abbc
00000060: a77e 4bbd e3c6 38bd 7df6 24bd 6244 17bd
00000070: fef3 2ebd 3501 9ebd ee45 84bd 2ea2 3bbd
00000080: ea36 febc 84e6 5dbd 907d 20bd 23ff 12bd
00000090: 3b44 6fbd bf3a 67bd 6a3c 81bd 3953 1ebd
000000a0: 6fb3 043d f1ae 57bd 4d75 dabc fe02 05bd
000000b0: 57f5 4dbd 7431 89bd 2518 a6bd 244d 87bd
000000c0: 5b1b f2bc 15fb 99bd 51bf 6cbd f3d7 91bd
000000d0: 3077 a4bd be9b 46bd 9f9f 0cbd c401 aabd
000000e0: 57e8 85bd a41d 0abd a978 f1bc abca 88bd
000000f0: 8c3b d7bc ff20 6ebd 908f 98bd 779b 73bd
00000100: 090a 6fbc 27b8 0bbd a405 0bbd f167 fbbc
00000110: b27e 95bd 25a8 a8bc 31b1 3bbd 83cf c5bc
00000120: 9711 18bd 7887 9fbc 99c2 39bd 4f99 25bd
00000130: 5435 94bd 9e84 22bd d570 e6bc 1d43 16bd
00000140: 3929 c1bc cca2 8dbd 4507 4bbd bd07 40bc
00000150: e501 a0bd 5900 6abd 1d7f 8fbd be41 193c
00000160: 3722 45bd a3d3 58bd 7ca6 7bbd 675d e0bc
00000170: eca7 75bd 5744 f6bc 824d 97bd 1032 efbc
00000180: bc3f 1ebd 464b 10bd a90e 02bd 1b4e 03bd
00000190: 37dd 89bc d1ef aabd c1ae a6bd 6e40 01bd
000001a0: f235 89bd d573 a2bd 4826 00bd b271 7fbd
000001b0: b156 b6bc 8f0d 87bd 9e17 86bd 77a9 64bd
000001c0: a9c4 97bc c4bd 83bd 81e6 99bd 1dd3 65bd
000001d0: 642a 05bd deba 93bd 97f8 22bd d347 40bc
000001e0: 817a 6bbd 0002 0fbd 4d62 e9bc bb99 eebc
000001f0: f83c 9fbd c04a 9cbd b30a 6ebd 8ba9 a6bc
00000200: e27e 18bd 9faa 8ebd 48dd 49bd aadb 33bd
00000210: e195 a0bc dd7b a7bd c76b 8dbd c076 d63c
00000220: 6ecd 00bd 0416 24bd 8070 f0bc 9020 92bd
00000230: 47f7 99bd fdc3 82bd 21ef 81bc fb14 07bd
00000240: 29f5 51bd e074 a7bd 386d aabc 193f 87bd
00000250: 1f26 80bd 2499 81bc df54 8ebd 3a35 1ebd
00000260: 065f 06bd 4e1f a6bc fbbe 54bd 1057 bbbc
00000270: 35c6 e93c 16fc 62bd 4dc0 fdbc c198 2bbd
00000280: c79c 97bd 5837 96bd 2c58 0bbd e09d dfbc
00000290: ebb3 32bd 03a4 85bd 7b2a 84bc ba46 23bd
000002a0: c74e 3fbd 2be2 5cbc fc22 d2bc 366b 8cbd
000002b0: 51c5 9dbd d529 f0bc eacd 40bd e128 bdbc
000002c0: abe1 83bd b59e 6abd 1097 9dbd 91ea 34bd
000002d0: df53 ffbc 841b 97bd 3750 1abd 4ad9 8fbd
000002e0: 7f8e f9bc 7508 aabc beac 58bd 2809 aabd
000002f0: 2fa4 c9bc 5aae a8bd 0e47 92bc 2738 93bd
00000300: 1a32 5fbc 2812 3bbd b8c6 08bd 8956 75bd
00000310: 85e3 73bd f153 d1bc cdf1 b8bc 8ffd abbc
00000320: e72e bfbc 16fe a3bd 7465 8fbd 34f7 60bd
00000330: a242 8fbc 3988 64bd e515 8bbd 0145 b7bc
00000340: eadb fbbc 42a5 3fbc c002 4a3c 7d8c 8fbc
00000350: 83f3 2ebd 3ed8 89bd 16b9 91bd 6933 59bd
00000360: b814 70bd f58a 45bd ae99 8bbd a526 4fbd
00000370: 2da2 07bd 59fc 63bd a478 fdbc 41b5 52bc
00000380: 35b6 4ebd d41e aabd fc60 43bc 5c8a 21bd
00000390: 4088 69bd bf00 7dbd 64fd 8abd ea5f 18bd
000003a0: 793d f4bc f8fb 3bbd 7b48 72bd e2ef c5bc
000003b0: 13d7 eabc 915a e8bc 5515 47bd 4a5e 883b
000003c0: e974 a9bd 3837 31bd 2ad0 9dbd b89b 7dbd
000003d0: ab20 4ebd 20f8 98bd 8924 67bd 0a28 59bd
000003e0: ea39 3abd ca7b a5bd 3c27 8dbd c4c4 cfbc
000003f0: 50f1 0abd 6148 8bbd c3cd 29bd ce38 6ebd
-0.024957137 -0.02085623 -0.03515637 -0.08244118 -0.051091682 -0.07509115 -0.074476264 -0.050694555
-0.020861195 -0.052531585 -0.041271493 -0.08064327 -0.014408532 -0.049821194 -0.07644016 -0.05052666
-0.06392829 -0.019216888 -0.07670015 -0.03039994 -0.03843277 -0.050730698 -0.026226752 -0.020920686
-0.049681332 -0.04511155 -0.040274132 -0.03693045 -0.042713158 -0.07715074 -0.064586505 -0.045808963
-0.031032044 -0.054174915 -0.039182246 -0.03588785 -0.05841468 -0.05645251 -0.06310351 -0.038653586
0.032397684 -0.05265707 -0.026667261 -0.032473557 -0.050282802 -0.066988856 -0.08110074 -0.0660651
-0.02955406 -0.07518593 -0.05779964 -0.07121267 -0.08030546 -0.04848837 -0.034331914 -0.08301118
-0.06538456 -0.033719674 -0.02947648 -0.06679281 -0.026273511 -0.058136936 -0.074492574 -0.059474435
-0.014589795 -0.03411117 -0.033940926 -0.030689212 -0.07299556 -0.02058799 -0.04582328 -0.0241468
-0.03712615 -0.019473776 -0.0453516 -0.04042941 -0.07236734 -0.039677255 -0.028129974 -0.036685098
-0.023579227 -0.06915817 -0.04956748 -0.011720595 -0.07812861 -0.057129238 -0.07006667 0.009354053
-0.048128333 -0.052936208 -0.06143807 -0.027388288 -0.059974596 -0.030061884 -0.0738783 -0.029198676
-0.038635 -0.035228036 -0.031752262 -0.03205691 -0.016829116 -0.083465226 -0.081388004 -0.031555586
-0.066997424 -0.079322495 -0.031286508 -0.062364288 -0.022258135 -0.06594383 -0.06547473 -0.055825677
-0.018526392 -0.06432679 -0.07514668 -0.056109536 -0.03251113 -0.072133765 -0.039787855 -0.011735874
-0.057489876 -0.034914017 -0.028489256 -0.029126039 -0.07775301 -0.07631445 -0.058115672 -0.020344516
-0.03723038 -0.06966137 -0.049283296 -0.04391066 -0.019602718 -0.08177922 -0.069053225 0.026179671
-0.031445913 -0.04006006 -0.02935052 -0.07135117 -0.075178675 -0.06385038 -0.015861096 -0.032978993
-0.051259194 -0.08176589 -0.020804033 -0.06603832 -0.06257271 -0.015820093 -0.069497816 -0.03862498
-0.032805465 -0.0202786 -0.051939946 -0.022868663 0.028536895 -0.05541619 -0.030975485 -0.041893724
-0.0740295 -0.07334775 -0.034019634 -0.02729696 -0.043628614 -0.065254234 -0.016133538 -0.039862372
-0.046705987 -0.013481657 -0.025651447 -0.06856386 -0.07703651 -0.029316822 -0.047071375 -0.023090782
-0.06439527 -0.05728026 -0.076948285 -0.044169012 -0.031167923 -0.07378295 -0.037674155 -0.070238665
-0.030463455 -0.020755986 -0.052899115 -0.08302528 -0.024614422 -0.0823638 -0.017856147 -0.071884446
-0.013622785 -0.045671612 -0.033392638 -0.05989698 -0.05954315 -0.025552722 -0.022576237 -0.02099493
-0.023337794 -0.080074474 -0.070017725 -0.05492325 -0.017487828 -0.055793975 -0.067912854 -0.02237177
-0.030744512 -0.011697115 0.012329757 -0.017523045 -0.0427127 -0.06730698 -0.071153805 -0.053027544
-0.05861351 -0.048228223 -0.068164214 -0.050573964 -0.033113647 -0.05566058 -0.030941315 -0.012860597
-0.050466735 -0.08306661 -0.011924978 -0.03943859 -0.057014704 -0.06176829 -0.06786612 -0.037200846
-0.029814469 -0.045894593 -0.059151154 -0.024162237 -0.028667009 -0.028363498 -0.04860433 0.0041616308
-0.08274252 -0.04326555 -0.0770572 -0.061916083 -0.050324123 -0.07469201 -0.056431327 -0.0530167
-0.045465387 -0.080802515 -0.06892249 -0.02536238 -0.03392154 -0.068009146 -0.041455995 -0.058159642

feature_extractor.exemplar_encoder.0.bias f4 [64]
00000000: 3de3 42bd a492 d73c 64c1 263d 8ca5 0ebd
00000010: 4cc4 503d 5f9e 95bd a8bf 9d3d 2f1e 943c
00000020: 012f 8c3c 2b4c e83c 06b7 8a3d 0254 423d
00000030: 2147 d63c 9c70 99bd e3df 9dbd 9ef2 713d
00000040: 61f6 943d ef8d 83bd fcb7 89bc ef3f 8f3d
00000050: d0b5 273c 856f 1ebd 894c 193d 2f85 813d
00000060: a0f6 193c f924 0b3d e64f 883d 1091 3b3d
00000070: 6d3e 503d 82d5 a6bd 7a76 933b e2be 343d
00000080: 62d7 9b3d 6823 8f3d c59f 8fbd 73cd 8b3c
00000090: 8fed 65bd c74c 30bd ee42 4f3d c8b1 403d
000000a0: 6f38 833d 61d5 3b3d c94c 2abd e2f1 193d
000000b0: d1ea 90bc 04ed b13b 648a 853d 46ae 41bd
000000c0: dd87 f4bc d029 32bd 09ce 443c bb14 cabc
000000d0: 2736 fa3c 6d18 4fbd 381e 82bd fea8 bcbb
000000e0: 1319 cabc 20a3 a1bd 549d a3bb b3db 7bbd
000000f0: 0cad 3f3d 9858 56bd c81d d33c f8b9 523d
-0.047579993 0.02631504 0.040711775 -0.034825847 0.050968453 -0.073055975 0.07702571 0.018080799
0.017112257 0.028356632 0.0677319 0.047443397 0.026156964 -0.07492182 -0.07708719 0.05906927
0.072735555 -0.06423556 -0.016811363 0.06994616 0.010236219 -0.038680572 0.037426505 0.06324231
0.009397179 0.033970807 0.066558644 0.04579264 0.050840784 -0.08146192 0.0045002075 0.044127353
0.076094404 0.06989175 -0.070128955 0.01706574 -0.056134757 -0.04304197 0.05060094 0.047044545
0.06407248 0.04585779 -0.041577134 0.037584193 -0.017690094 0.005429866 0.065205365 -0.04728534
-0.02984994 -0.043496907 0.012012013 -0.024668088 0.0305434 -0.050560404 -0.0635342 -0.00575745
-0.02467016 -0.07892442 -0.00499312 -0.06148882 0.04679589 -0.052330583 0.025771037 0.051446885

feature_extractor.exemplar_encoder.2.weight f4 [32, 64]
00000000: 31bc e43d 21e0 293d 5bdd fc3d 4454 4f3d
00000010: 92a7 f13c 697b febd 2fe0 f7bb 3423 d8bd
00000020: 256c 143d 2d23 a53d 491e cb3d 6e68 3cbd
00000030: 8db7 0cbe be3d d9ba ed31 8d3d a9ea 2fbc
00000040: cdf5 763c 0246 38bd 00d8 c03c 3606 7abd
00000050: 8ae3 c9bd 7a37 9a3d 9097 84bd 0f81 0f3d
00000060: 7434 803d 6826 af3d 3237 e43d ab16 c0bd
00000070: 0e0f babd c529 acbd ca94 9f3d 3113 82bd
00000080: 325f 203e 22d5 083d c53b 51bc b09f 51bc
00000090: 12b6 353d eee8 493c 7877 3dbc 9aa2 7ebd
000000a0: da3e d23d eacd 34bd 7ed5 17bd 3482 ab3d
000000b0: 5be6 313d 0780 0f3d f436 e7bd 91d5 53bb
000000c0: 52db 493d 7f7d e3bd 2ba0 843d fe25 043e
000000d0: c654 043e c0ff c5bd edf5 99bd 7818 99bd
000000e0: 009a 873d 6b34 683c ebf3 8dbd ce30 92bd
000000f0: a552 06bd 1e12 eebc 76d9 7fbd 72d9 b93d
00000100: 9fe3 303c d479 0fbe ee19 263d e8bc e63d
00000110: eccf b03d 422c a03d 2a2a 2fbe cee8 05be
00000120: 06bc 413d f407 c63c ce0e 023d afbc 7c3d
00000130: 6d4f 8e3c 6f54 a83c 1603 0d3c 6748 aa3c
00000140: 6aa3 8fbd 1f93 98bc c4b3 08bd 5850 973c
00000150: de69 e7bd e241 09bd 5644 1a3e ec8a ee3c
00000160: e329 b3bb 2bf1 3f3d c58e d4bd c4b1 783d
00000170: 58e9 1d3e 90eb 553b bbb0 a83d a092 11be
00000180: 55e4 70bd 5f3c cdbd 3a39 b7bd c416 e53b
00000190: 4a4a d2bd bbfa ea3d cc66 623c 7e31 b2bd
000001a0: fe3d bfbd bbcd 29be b055 81bd 50ce 67bc
000001b0: 4f6d aabd d546 48bd 8902 c9bd cbe0 27bd
000001c0: 1ce9 c8bd ed76 0f3e 9521 b83d 11bd cdbd
000001d0: e3a0 473d a088 6b3d 7ba4 1cbe fdcd 05bd
000001e0: 0bf4 ccbd 890b 81bd 7b85 353d 9041 273e
000001f0: f4ce 913d ea1f 793d 89c1 06be 6171 03bd
00000200: 9cb4 d1bc 68d9 22be 8828 7a3d c324 263d
00000210: d23e 05bd e555 f8bc 88d4 4bbd ca0f 803d
00000220: 3e18 1fbe 471c 15be 5101 15bd dc7b 773c
00000230: 88d8 86bd 1626 943d 134f 3e3c 4a9c 2c3d
00000240: 7dc9 16be f22b 6a3d 8b54 2c3c c1d4 7fbd
00000250: 7b14 af3d 5d1e 3bbd ba06 42bc 6790 1dbd
00000260: b4e1 b6bd c6e8 15be f716 51bd 1a00 27be
00000270: 21c5 17be 02fd 0fbd bd5c cd3c 6c11 12be
00000280: f601 3abc c5d0 c2bd 6ac2 b53c c3d3 05be
00000290: 1ec5 09be 65a4 76bd ab3b b7bc 0adb f8bd
000002a0: fcc5 9ebd e60b 91bd 45ce 9a3d 9548 4b3c
000002b0: 1949 c9bd 5246 9f3c 63da 8e3d 8716 ed3b
000002c0: dbca 91bc a651 dc3c 86bc 48bd 1cd7 8e3b
000002d0: 9b75 8d3c 900e bd3c 70e0 1a3d 0478 f6bd
000002e0: 8dae aebd da9d 9b3d 37d4 89bd 4f2b 25be
000002f0: 9d13 10bd 7689 8e3d f701 12bd 4b6c 1ebe
00000300: 1bb3 2b3e a0d7 7abc edcf 6dbd 4fb4 ab3c
00000310: 8884 0d3e e9ea 293e 955d 05bb 2fc7 8abd
00000320: e26e 023c f1e1 53bd 6730 c7bd 5cd7 e43d
00000330: facf 85bd 74f7 693d e06c e53c 08f9 50bd
00000340: c747 6cbd 32f0 dabd e9ff 8abc f8cd 8f3d
00000350: ae3c db3d 05de 473d ae7c 1cbd 82e6 973c
00000360: b92c 9abd 399e 8fbc 6493 233e 4a15 133e
00000370: c2b3 c0bd 25ca 543c 31b9 5bbd 8fff 43bd
00000380: 614d 88bb 1767 d93c 6cdc 59bd 3c6f 8bbc
00000390: 4154 213d 3780 34bc fb33 56bd 63fe 343d
000003a0: 29aa bcbd 9979 063e 38de 02bc 9d15 8bbd
000003b0: b8b5 a03c dba4 133e 3137 a23d 7350 d4bd
000003c0: 31f0 523d f7ef 02be 5cf2 673c 02f8 5dbd
000003d0: 28d4 99bd caf5 993d 070d a9bd 187c acbd
000003e0: 9ab8 ec3c fceb 013e 70c2 32bd 5abb 7abd
000003f0: 17f7 6bbc c613 933c 37b3 123d af12 17be
0.11168707 0.04147351 0.12346908 0.05061747 0.029498849 -0.12425882 -0.0075645666 -0.105535895
0.036235947 0.0806335 0.09917886 -0.04599803 -0.13741894 -0.0016574187 0.06894288 -0.0107371
0.015073252 -0.04498864 0.023540497 -0.06104108 -0.09857853 0.075301126 -0.06474221 0.03503519
0.06260005 0.08552247 0.1114334 -0.093793236 -0.09084903 -0.084064044 0.07792051 -0.06351317
0.15661314 0.033406384 -0.012770598 -0.01279442 0.04436309 0.012323601 -0.011564128 -0.062166788
0.10265894 -0.044141687 -0.037068836 0.08374444 0.043432575 0.035034206 -0.11289778 -0.003232334
0.049281426 -0.11107921 0.06475862 0.12905118 0.12922964 -0.09667921 -0.0751761 -0.0747537
0.0662117 0.014172654 -0.06931289 -0.07138215 -0.03279366 -0.029061373 -0.062463246 0.090746775
0.010796457 -0.14011317 0.040552072 0.112665 0.08633408 0.078209415 -0.17105928 -0.13077089
0.047298454 0.024173714 0.0317524 0.06170338 0.017371858 0.020548074 0.008606693 0.020786477
-0.07013591 -0.01862484 -0.033374563 0.018470928 -0.112994894 -0.033510096 0.1506513 0.029118977
-0.00546764 0.046860855 -0.103787936 0.060716406 0.15421045 0.0032641627 0.08236834 -0.14216089
-0.058811504 -0.100212805 -0.08946462 0.0069912393 -0.10268076 0.11473604 0.013818454 -0.08700846
-0.09337996 -0.16582386 -0.06315172 -0.01414831 -0.0832163 -0.048895676 -0.09814937 -0.040985864
-0.09810087 0.1401021 0.0899078 -0.10045827 0.048737418 0.057503343 -0.1529712 -0.03266715
-0.10007485 -0.06301028 0.04431675 0.16333604 0.07119551 0.06082145 -0.13159765 -0.03209055
-0.025598817 -0.15903246 0.06107381 0.040562402 -0.032530613 -0.030314395 -0.049763232 0.062530115
-0.15536591 -0.14561568 -0.03637821 0.015105214 -0.06584269 0.07233827 0.011615532 0.042141236
-0.14725299 0.057170816 0.0105182035 -0.062458757 0.08548828 -0.045683254 -0.011842424 -0.03846779
-0.08929768 -0.14639577 -0.05104729 -0.16308632 -0.14821292 -0.035153396 0.025068635 -0.14264458
-0.011353007 -0.09512476 0.02218743 -0.13069062 -0.134541 -0.060215373 -0.02236732 -0.121511534
-0.07752606 -0.070823476 0.07558874 0.012407442 -0.098283954 0.019442711 0.06975248 0.0072353515
-0.017796924 0.026894402 -0.049007915 0.004359139 0.017267993 0.023078233 0.037811697 -0.1203461
-0.08529387 0.07598467 -0.0672993 -0.16129802 -0.035174955 0.06959812 -0.035646405 -0.15470998
0.16767542 -0.015310198 -0.05805962 0.020960001 0.13820088 0.16593517 -0.0020349969 -0.067762725
0.007961007 -0.051729146 -0.09726029 0.11173889 -0.06533809 0.057120755 0.028006017 -0.051018745
-0.05768564 -0.10690345 -0.01696773 0.07021707 0.10704933 0.04879572 -0.03820484 0.018542532
-0.075280614 -0.017531501 0.15974194 0.1436359 -0.09409286 0.012987648 -0.05364341 -0.04785114
-0.004159615 0.026538415 -0.053188726 -0.017020814 0.03938699 -0.011016897 -0.052295666 0.044187915
-0.09212143 0.13132323 -0.007987551 -0.06791232 0.0196179 0.14418356 0.07920683 -0.10366907
0.051498596 -0.12786852 0.014156904 -0.054191597 -0.07511169 0.07517584 -0.08254438 -0.084221065
0.028896619 0.12687677 -0.04364246 -0.06121383 -0.0144021725 0.017953765 0.035815444 -0.14753221

feature_extractor.exemplar_encoder.2.bias f4 [32]
00000000: b0fd 273e b452 2a3d e832 763c 946f 143e
00000010: 2e26 fabd cc4b bcbd 829a 21be af52 893c
00000020: 963e 363d fe83 8bbd 46bd 0b3e b882 8abd
00000030: 1bb7 353e 9193 d4bb aa58 08be 0da9 c1bd
00000040: 8442 713d 65f0 18be 71c3 42bd 9e37 953d
00000050: cb93 e3bd 5ddd 803d 5724 1e3e acdc afbd
00000060: 4943 9a3d 818d 873d aa66 00be d198 4ebd
00000070: 9b74 eebd 74cf 0e3e 53f4 f3bd cef6 13be
0.16405368 0.041582778 0.015026785 0.14495689 -0.122143134 -0.091941446 -0.15781596 0.01676306
0.04449328 -0.06812285 0.13646421 -0.06763214 0.1774563 -0.006487318 -0.13315073 -0.09456072
0.058901325 -0.14935453 -0.04754967 0.07285999 -0.11112174 0.06292222 0.1544355 -0.08587012
0.07532365 0.066187866 -0.12539163 -0.050438706 -0.116433345 0.13946325 -0.119118355 -0.14449617

feature_extractor.joint_encoder.0.weight f4 [32, 64]
00000000: 2190 5cbc 0703 f0bb 1e47 febd cf10 d33d
00000010: efca e5bd 8fbb 0b3e bbad 533b d620 77bd
00000020: fc8c 2cbd 7c9c 993c 4557 773c 9aec 813d
00000030: 1c19 133e 0454 f83d 9735 9fbc c600 2c3e
00000040: 8db8 ee3d 7205 0a3c 89a2 63bc 5f2a c0bd
00000050: c562 1e3e 83a3 0c3e 95e8 83bc a1cb 20bd
00000060: 71a2 a4bb b216 97bd 784f 44bd a7dd 303d
00000070: a6f9 013e 60d6 2f3d efb9 e2bd 0f0d 4dbd
00000080: f9dc 103e 002e e83c 7207 fcbd 4114 03bc
00000090: a62b 163e a56e c43d 0de0 5e38 545e 483d
000000a0: 84ca babd 4a68 2c3e 8e8c d6bd 128b c7bc
000000b0: a649 753d d210 51bd 797a f2bb 872f 193e
000000c0: 79fe 0c3e 05e8 25be 6005 3ebc 5c9e 2cbd
000000d0: f787 933d 3f99 223e 51f7 b33d e133 b23d
000000e0: c8a3 06be aa6b 923d bbe5 c5b9 2b2e 96bd
000000f0: 381d d1bd 6d28 3abd 7d68 4e3d 9ed0 1dbd
00000100: 3e77 143c 2aa0 cbbd 85f1 56bd aab6 1cbe
00000110: 0e09 7c3d da06 48bd 6646 1e3d 99d4 a33d
00000120: ce0e 1abe 9740 94bc 68af be3c 20ee 543d
00000130: 60de adbd aae0 bfbd 04a0 973d 3a95 ec3c
00000140: edd6 eebd 14c2 eabd 611a d6bc 34d9 9cbc
00000150: 14e0 24bd adf6 4a3d 94b4 68bd aefb 833d
00000160: 4deb d5bd 9ba9 f83c b0c7 68bd 00af 9c3d
00000170: f8dc 103d 5489 123e e4cb 793b f40b 29be
00000180: d8d0 103e 1cdb 993d eb5a 853d 209d 0f3e
00000190: 4801 6ebd c287 9bbd f293 10bd 13ca 073e
000001a0: c05c c23d db69 663d 26b4 b0bd c9c0 8abd
000001b0: 6e22 15be b805 0e3e fe1e e1bd a3c6 fdbd
000001c0: 0a7f 30bc e1f4 98bd efe7 69bc 5b0f 1fbe
000001d0: 7a65 bd3a 6910 a5bc cb51 0cbe 745f 22bd
000001e0: 140d be39 66a9 253e e8f9 07be 2a71 92bd
000001f0: 588f 0dbd 18f8 213e e751 d0bd b282 0ebc
00000200: 107a 713d a19d e53a 0c9b 15bd 835d d23d
00000210: 5ac9 29be 7d51 123d 0aa4 0938 ff34 e7bd
00000220: 3636 1c3d 80d5 673d ea22 523d 3f76 413b
00000230: 851b 10bd af10 203e 6486 f73d 9be1 dd3d
00000240: c9b7 e53d 2c39 93bd 50f6 503d 6cd7 773d
00000250: 6e4f dc3d 71b3 38bd f3f8 95bc ed30 883d
00000260: 7d58 2ebe 941c ce3d 8e7c 353c b2ab 9cbc
00000270: 35a5 973d e822 263d f66a 44bd 195e 063e
00000280: d32d 2ebe c3c9 8f3c ee0b ca39 8473 263e
00000290: 2e35 a43d 40fa 8f3d 6269 7a3d 136a 5abd
000002a0: 719d 4abb 9bf6 c23d bdf8 5c3c b67c 0dbe
000002b0: 5f47 fa3d c8d6 0fbe 3eff b0bd 632c 443d
000002c0: afd2 123d 2b50 1d3d 0021 6ebd 18a7 9f3d
000002d0: 04da 1abe 5cac e0bd ff72 3b3d 4803 423d
000002e0: 6f36 81bd 00ee c8bd 6dfe 67bc bde2 1abd
000002f0: 052f 183e ed49 2a3e 3e19 c53d 7b0b cdbd
00000300: e95a 80bd ae0e d4bc 6f22 8e3d d097 f4bc
00000310: aeb6 a83c 4d45 243e 2b40 2b3e 3d12 05be
00000320: fc39 31bd 6735 d2bd 2479 f53d 01a8 adbc
00000330: 91b1 7dbd 5f8a e73d 31a2 9cbd 1448 1c3e
00000340: 1477 fd3d be90 173e 1fa7 ebbd 06ef d83d
00000350: 0e4f 4d3c 7323 88bd 0607 e53c 1393 58bd
00000360: 7dfc 2a3e 9630 97bc 5a88 693d f872 9abd
00000370: a882 a23d cf2b 37ba 1e7e c1bd 8eea 4d3d
00000380: aaef 17bb 041f 9cbc 6041 2cbd 09ee 6e3d
00000390: 0bcb 0e3e 52fd 02bc d81d bbbd abaf 703d
000003a0: 7b59 febb b5fe dfbc 5e17 013e aa4e 9cbd
000003b0: 9b39 98bc 0181 613d 0d67 983c 97b7 223e
000003c0: 0886 6b3d 3e47 443d 64a5 f7bd 61f7 b7bc
000003d0: 2159 82bd 499e 76bd d829 08bd 4c8e be3c
000003e0: c7c0 e4bd 5047 ecbd 4e96 203e 4fee 0bbc
000003f0: bef4 803d 8a9c 3c3d d9c3 8dbd 4e91 a23c
-0.013462097 -0.0073245796 -0.12415908 0.1030594 -0.11220347 0.13645767 0.0032299596 -0.06033405
-0.04212664 0.018751375 0.01509649 0.06343956 0.14365047 0.121254 -0.019434733 0.1679717
0.11656294 0.00842415 -0.013893732 -0.09383082 0.15467365 0.1373425 -0.016102115 -0.039256696
-0.0050242473 -0.07377376 -0.04792735 0.043180134 0.1269289 0.042929053 -0.1107062 -0.05006128
0.14146794 0.028342247 -0.123061076 -0.008000434 0.14665088 0.09591416 5.3137588e-05 0.048918083
-0.09120658 0.16836658 -0.104760274 -0.024358306 0.05988469 -0.05104143 -0.007399854 0.14959536
0.13768949 -0.1620179 -0.011597961 -0.04214321 0.072036676 0.15878771 0.08787406 0.08701301
-0.13148415 0.071494415 -0.0003774593 -0.073330246 -0.10210651 -0.04544871 0.050392617 -0.03852903
0.009061633 -0.09942658 -0.052476425 -0.15304056 0.061532073 -0.04883466 0.038641356 0.07999534
-0.1504471 -0.018097205 0.023277 0.051984906 -0.0848968 -0.09369023 0.074035674 0.02887975
-0.116620876 -0.11462799 -0.026135625 -0.01914654 -0.04025276 0.049551655 -0.056812838 0.064444885
-0.10445271 0.030354312 -0.05683106 0.07650566 0.035366982 0.14310199 0.0038115913 -0.16508466
0.14142168 0.07512495 0.06511482 0.14024782 -0.05810669 -0.07594253 -0.03529734 0.13260679
0.09490347 0.056253295 -0.086281106 -0.06775052 -0.14563915 0.13869369 -0.109922394 -0.123914026
-0.010772476 -0.07468582 -0.014276489 -0.15533201 0.0014449798 -0.020149427 -0.13703077 -0.039641812
0.00036249368 0.16177902 -0.13278925 -0.071504906 -0.03456053 0.15817297 -0.10171872 -0.008698152
0.0589543 0.001751829 -0.036524817 0.10271742 -0.16580716 0.035722245 3.281612e-05 -0.11289405
0.038137637 0.056600094 0.051302828 0.0029519943 -0.035182495 0.15631364 0.1208618 0.108340465
0.11216695 -0.07188639 0.051016152 0.060508177 0.107573375 -0.045093004 -0.018307185 0.06649957
-0.17025943 0.100640446 0.011077059 -0.01912484 0.074045576 0.040560633 -0.04795357 0.13121833
-0.17009668 0.017552262 0.0003853733 0.16255003 0.08017956 0.07030153 0.061135657 -0.053323817
-0.0030916596 0.095196925 0.013487038 -0.13817105 0.12220644 -0.14046776 -0.086424336 0.047893893
0.035845455 0.038406532 -0.05813694 0.077955425 -0.15122229 -0.10970375 0.045763966 0.04736641
-0.063092105 -0.0981102 -0.014159781 -0.03781389 0.14861687 0.16629763 0.09623955 -0.10011955
-0.0626734 -0.025885906 0.069401614 -0.029857546 0.020594921 0.16042061 0.16723697 -0.12995239
-0.04326819 -0.10264092 0.11985996 -0.021198275 -0.06193692 0.11305689 -0.07648123 0.1526187
0.12376228 0.14801309 -0.11506485 0.10592465 0.012531055 -0.066473864 0.02795745 -0.052874636
0.16697879 -0.018455785 0.0570148 -0.0754146 0.07935077 -0.0006987424 -0.09447883 0.050272517
-0.0023183622 -0.019057758 -0.042054534 0.058332477 0.13944642 -0.007994967 -0.091365516 0.05876128
-0.0077621317 -0.027343133 0.1260657 -0.076321915 -0.018582156 0.05505467 0.018603826 0.15890346
0.05750087 0.047919504 -0.12092093 -0.022456827 -0.06364656 -0.060209546 -0.03324303 0.023261212
-0.11169582 -0.11537039 0.15682337 -0.008540704 0.06296681 0.046047725 -0.069221206 0.019844677

feature_extractor.joint_encoder.0.bias f4 [32]
00000000: 71cd 8f3c a963 903a 1042 673d 3ed1 cab9
00000010: 5563 133e c380 9a3d 6876 823d 9cf6 01bd
00000020: 6d36 613b 843f cbbc 9fa5 debd fe20 8b3d
00000030: dd8f 7fbc 53a4 993d 72f1 623d a77c e1bd
00000040: 466e e3bd b634 d3bd e9bb 903d 4b8e 113d
00000050: 12cf b53d 1d6f ffbd 995f 27bd 6251 d33d
00000060: 33ff f6bd da12 363d 1669 c13d 332f cd3c
00000070: b583 933d 34a5 cf3d 610e 37bd b872 593d
0.017554017 0.0011016029 0.056459486 -0.0003868434 0.14393361 0.075440906 0.063702404 -0.031729326
0.0034364716 -0.02481056 -0.108714335 0.06793402 -0.0155982645 0.075020455 0.05540604 -0.11010104
-0.11105017 -0.10312788 0.07067091 0.03553609 0.08877386 -0.12472365 -0.040862653 0.10318257
-0.12060394 0.044451572 0.09443872 0.02504692 0.072028555 0.10138932 -0.044691447 0.05308792

feature_extractor.joint_encoder.2.weight f4 [10, 32]
00000000: cecd 5dbe 5cba e23c 5372 c53a 2f37 c2bd
00000010: d69b 623d 4577 a4bd fb29 3abd 3879 1c3e
00000020: 71ff 6bbe 24ff ab3d 52e5 d73d 04cb 883d
00000030: 9026 b0bd b9b7 8f3d 6bd6 e1bc 13dc 223d
00000040: 617c 053e eaca a43d 30aa 153e 0339 aabd
00000050: dcd2 39bd 0db8 52be 3f6c 2abe 6e31 b33c
00000060: 58bc 96bc d28c 573e 0786 2dbe ca17 83bd
00000070: ed13 2b3e b681 19be 3b42 a1bd 7ac5 94bd
00000080: 0c4d a4bd 792e 523e 11e8 503e 957b 09be
00000090: 2f61 403e 8a3e a4bd a446 ccbd eb19 7f3d
000000a0: 4350 da3d 69d9 273e 2d7d 963d 96aa a6bd
000000b0: 9ca5 75bd 150b c73c d1e9 5e3d 0433 c3bd
000000c0: a40b a0bd fcb0 a6bd f8a4 87bc 755d 11be
000000d0: dfe1 38be d0cc 3ebc 5139 e6bc 2f52 b0bd
000000e0: c820 bf3c 946a 12bd e6b8 3bbe efd0 a43d
000000f0: c39f fe3d 8478 dbbc 733f 44bd 02c8 f13d
00000100: b504 3a3e a3d9 1e3d c036 4ebe 0744 0a3d
00000110: add6 24be 7cb9 19be 0203 9b3d 2ca4 3ebe
00000120: e184 66be 0292 54bc 83d0 d63d e1ee 83bd
00000130: 0e64 bdbc 9604 053e 956b f23d dadf d73d
00000140: 05d3 27be 0e60 c33c 6995 ecbd 2f68 81bd
00000150: ccac 32be a1bf acbd 3da1 6d3c 7e74 353d
00000160: 6539 da3d 98c2 a5bd e723 22bc c93b 293c
00000170: 4b0f 503e caa3 1cbe 2fca 29bd f568 63be
00000180: 0b0e 443e 8614 e4bd 0053 8cbd 86e2 b53d
00000190: 00b8 653e 2291 333e 248d 393e 2b3f c2bd
000001a0: dc65 2d3d 1c5b 203e 18b1 bbbd a6cf be3d
000001b0: 562b bdbc 286d 66be 7b26 1d3e 5a3c 0b3e
000001c0: 2649 513e 6ab8 bdbd 022c 4abe 38ff e2bd
000001d0: 78aa 123b 1302 e6bc 5b84 1a3e 8a13 7abd
000001e0: 0f5d 04be 35b9 be3d e157 2fbd 5edc 433e
000001f0: 7e06 fb3d 0edb e63c 2ee2 15bd 4767 083e
00000200: 6c08 b6bd f0b6 dbbd b507 dd3d 098c 9fbc
00000210: f002 e0bc 838a f13d a5de 7a3d 4e89 edbd
00000220: 22e3 42bd aa1c 12be f08f 3b3e 9532 b0bd
00000230: 8f90 25be cf93 e1bc fb5e 4f3e 9891 14be
00000240: f1a4 933d 5de4 6bbd 0964 23be 4b8a e13d
00000250: ef63 34bc 36d0 cfbd bc70 7abd 484b 493e
00000260: 7990 413d bb53 56be 4102 903d fcac 3d3e
00000270: 9c37 3fbd 9355 febd 8595 e7bc 9730 2bbd
00000280: 508f ed3d d751 febc c3ab 71bd b1ac 853c
00000290: cab1 a83d c041 b6bd d74b 7a3d 94a1 e9bd
000002a0: cd9c 6dbe 94bb 6a3e a833 41be 585a acbd
000002b0: a720 a1bd 6d5c c83d b86d 57bb 8706 0a3e
000002c0: 19ab 0cbd 53b6 16be fca7 1abd d2db 4cbd
000002d0: d47e 22be a75f 50be 04cc 943d e261 373e
000002e0: 1bee e9ba 4c64 58bc 90eb adbd 01cb 083b
000002f0: f6ce 28bd f944 203d 3747 7b3d bf84 28bd
00000300: 2826 0b3d 508c 283e 6453 9fbd 6493 49be
00000310: 3cc0 fc3a 1f84 46be 1636 58be 72d0 653e
00000320: 953c 573e b7c8 2d3d 4f3a 20be 1be0 cbbd
00000330: 40ec 30bd 2cd6 273e fed6 edbd 394e c33d
00000340: 16a6 bd3d b924 1f3e 5f2c 343e 250f ec3d
00000350: f477 53bd 0c69 07bb 4de5 2d3d 73a4 1abe
00000360: fc91 103e 0f55 40be 8ac5 dbbd 7eb9 45bc
00000370: 8910 fe3d 3b01 ee3d 5ad5 44be b6b0 87bd
00000380: bb98 4bbd a9cb 843d 8586 1cbe eded 3fbe
00000390: cb93 803d 3ebc 48be b9e4 8ebd eddf 163b
000003a0: 5a55 133e 6b15 58be d90b 0f3e 8f3b 1e3e
000003b0: 466b c83d 01ac 4b3d 3be2 c53b 90d8 e03b
000003c0: 7e9b 83bd 990d cf3d 5611 953d d944 843d
000003d0: fa61 11be 5fdc 9fbd e987 073e 8bb7 253e
000003e0: ef51 483e 7f3f d03d c133 6a3d 03db 12bd
000003f0: 6437 c53c d0c4 ff3d 6dbd 843d 5d87 0ebe
-0.2166054 0.027676754 0.0015063978 -0.09483182 0.055324398 -0.08030561 -0.045450192 0.15280616
-0.23046662 0.083982736 0.10541786 0.06679347 -0.08601105 0.07017464 -0.027568063 0.03976066
0.13035728 0.08046515 0.14615703 -0.08311655 -0.045367107 -0.20578022 -0.16642855 0.021874156
-0.018400356 0.21049812 -0.16945659 -0.06401022 0.1670682 -0.14990887 -0.078739606 -0.07264228
-0.08022508 0.2052554 0.20401026 -0.13426049 0.18787073 -0.08019741 -0.09974411 0.062280577
0.1065984 0.16391529 0.07348094 -0.081380054 -0.05997239 0.024297277 0.054422203 -0.09531215
-0.0781472 -0.08139226 -0.016558155 -0.14195807 -0.18054913 -0.011645511 -0.028103502 -0.08609425
0.023331061 -0.035746172 -0.18332252 0.080476634 0.12432816 -0.026790865 -0.047912072 0.118057266
0.18165858 0.038781773 -0.20138073 0.033756282 -0.16097517 -0.15012163 0.07568933 -0.18617314
-0.22511627 -0.012974264 0.10488989 -0.06442047 -0.023118999 0.1299003 0.11836926 0.10540743
-0.16389091 0.023849513 -0.11551935 -0.063186996 -0.1744873 -0.08434988 0.014503774 0.04430055
0.106554784 -0.080937564 -0.009896255 0.010329195 0.20318334 -0.15296856 -0.041452583 -0.22208007
0.19145982 -0.11136727 -0.068517685 0.088810965 0.22433472 0.17535833 0.18120247 -0.094847046
0.04233347 0.15659755 -0.09164637 0.093169495 -0.023091953 -0.22502577 0.1534671 0.13597241
0.2043806 -0.0926369 -0.1974335 -0.11083835 0.002237944 -0.028077161 0.15089552 -0.06105379
-0.12926124 0.09312669 -0.042808417 0.19127032 0.12257098 0.028180625 -0.036592655 0.13320647
-0.08888325 -0.10728252 0.107924856 -0.019475954 -0.02734515 0.11793997 0.061247487 -0.115984544
-0.047579892 -0.14268747 0.18316627 -0.08603398 -0.16168426 -0.027536301 0.20251076 -0.14508665
0.072091945 -0.05759083 -0.15956129 0.110127054 -0.011010154 -0.10147135 -0.061142668 0.19657624
0.04725692 -0.20930378 0.0703168 0.1852302 -0.046683893 -0.12418666 -0.028269539 -0.041794386
0.115996 -0.031044884 -0.059001695 0.016317697 0.082370356 -0.088992596 0.061107483 -0.11407772
-0.23204346 0.22923118 -0.18867362 -0.08415669 -0.07867556 0.09783254 -0.0032871794 0.13479052
-0.03434286 -0.14717989 -0.03775786 -0.050014324 -0.15868694 -0.20348988 0.072654754 0.17908433
-0.001784745 -0.013207506 -0.084921956 0.0020872953 -0.041213 0.039128277 0.061347213 -0.04114222
0.033971936 0.16459775 -0.077795774 -0.19685131 0.0019283365 -0.19386338 -0.21114382 0.22442797
0.21019204 0.042427745 -0.15647243 -0.09954854 -0.043194056 0.16390294 -0.11613272 0.09536404
0.09260194 0.15541352 0.17595051 0.11526326 -0.051628068 -0.0020661978 0.042455006 -0.15101795
0.14118189 -0.18782447 -0.10731037 -0.012068151 0.124054976 0.116213284 -0.19222012 -0.06625502
-0.049706202 0.064841576 -0.1528569 -0.18743105 0.06278189 -0.19603059 -0.06977219 0.0023021654
0.14388028 -0.2110192 0.13969363 0.15452407 0.09786086 0.049724583 0.0060389317 0.0068617538
-0.06426142 0.101100154 0.07278697 0.06458444 -0.14197531 -0.07805704 0.1323544 0.16183297
0.19562505 0.10168361 0.057178263 -0.035853397 0.024074264 0.12488711 0.064814426 -0.13918824

feature_extractor.joint_encoder.2.bias f4 [10]
00000000: 8ea3 3ebe 33d2 083c 74a9 d1bd 3f9e 3abc
00000010: ffec f6bd 5e2e d83b d7e6 e6bd a0e3 13be
00000020: 0e2a efbc fb49 6abd
-0.18617079 0.008350897 -0.10237399 -0.011390268 -0.12056922 0.0065973243 -0.11274498 -0.14442301
-0.029194858 -0.05719946
