generation/invbo_decoder/results/models/decoder.pt (torch, 879070 bytes, 20 tensors)

decoder.0.weight f4 [32, 10]
00000000: ca99 203e ee0e bdbc 1f62 9d3e 3d6d 133d
00000010: 02e1 51be ed5a 923d aefc c53d f1dc 06be
00000020: c45b 3b3d d2a3 533e d5fc 9cbd e920 563e
00000030: 51e4 93be 640a e4bc 730d 8dbe d4ea 053e
00000040: 48e9 53be 4df9 39bd 1506 1b3e 2484 1f3e
00000050: 9b7d 5ebd 4c2b febd 74ee 74be 5c92 103e
00000060: 9dee d8bd efeb 4c3e c5ae 80bd 4925 ea3d
00000070: 8967 bf3d 51d3 533e 10a2 8b3e e881 3cbe
00000080: f6a3 853e 6285 dfbd 595b c53d b964 54be
00000090: 774c d0bc 5833 613e 6cd5 9dbe bca8 38be
000000a0: a71b f83c ebcc 453e d805 3bbe 68b8 2fbd
000000b0: 09f8 1b3e 35cd a93c c32a 90be 298a 85be
000000c0: 4f0e 923e 4dda 943e f58f 9cbe 0034 0abe
000000d0: 106b 9d3e 88cf 87be 9c59 773d 2437 99be
000000e0: f362 a23d 2231 aa3d 9b26 98be 6af7 463e
000000f0: 3a56 ff3d 6fad e53d c563 55bc fddf 4e3e
00000100: 3cf6 af3d fc2f 96bd eb71 43be 95c3 4e3e
00000110: b179 b2bb cec8 2b3e d113 27be feb1 4fbe
00000120: 3bf2 68be ba29 1cbe 3a92 753e b94b 913c
00000130: 1131 5dbe 23cc 4bbe 5155 1b3e 09d9 36be
00000140: d606 583d ce33 753e f7ef 30bd 118e 443c
00000150: 5ef3 f9bd b42e f43d 8f33 583e 7400 09be
00000160: 0be0 413d 3282 8cbd 44d2 5b3d f468 1d3e
00000170: 98c7 91bd ba7f a93d a05f 1f3d 1bab 853e
00000180: 9463 f23d b80d 0ebc 4c04 a03e 9a2c 123e
00000190: 8975 98bc e5ea 863e 5653 b03c 2a58 4a3e
000001a0: 7091 abbe 3fd9 fabd 9986 6b3e b050 e3bd
000001b0: 338d 22be 7d52 20be 059a 0ebe 5d4a 0dbe
000001c0: f46a 6c3e 74b9 8bbd b4d3 ecbd 1bf9 983e
000001d0: f7ba 7dbd 528e 9a3e 422c 9b3e 126c 87bd
000001e0: 616e 93bd 46a6 f0bd 236c bd3d 3b9a 56be
000001f0: a42c 813e 1ab3 8cbe 060b 013d cecc 8ebe
00000200: 66b6 edbd c7b9 623e 5112 683e 1ff0 4bbe
00000210: 9149 b7be 602b 8c3e 7f43 1c3e 9ad6 273d
00000220: c9f8 8d3e 87fa 863e 482d 043d 51c2 2dbe
00000230: 7109 bf3d 9697 7abe 247c 48bc 36e0 eb3d
00000240: cdc2 01be 6284 8b3d c2f6 8c3d 7968 c0bd
00000250: bd8d 13bd 27a5 06be 241d 8bbd a89d 663e
00000260: 6271 b43e f922 70bd f821 a3be 0bc5 953e
00000270: 598a 8fbe 171c 46bd 8f6f 8f3e 30a8 9d3e
00000280: 4ed0 10be f43a 513e cec4 913e 4fa9 b13d
00000290: f0c4 363e be9f 003e 2a8b 06bd dfbd 693e
000002a0: f942 813d 3f91 913e cd4d 00be b34a 52be
000002b0: 74d7 0dbd f334 763e 7f9b 603b ca63 353e
000002c0: b645 e1bb cc1c a7bc 79e5 663e 8f28 e83d
000002d0: 0e7e e3bc ad22 313e 5f2c 7c3e 8bf0 94bd
000002e0: 9615 6f3e b9f3 8f3e f50d 383c 021a f13c
000002f0: d3cf 163e f3b9 9c3e 1af1 98be 2d08 18be
00000300: a00a 883e 8291 9f3d 5cc0 99bd dfe5 1a3e
00000310: ff23 5d3e 1cd4 743e 7668 963e d32c 6e3d
00000320: abc9 453d 6f6d 80be 27ba 513e 6d14 e33d
00000330: c422 9b3d f9cc 0b3e b767 8abe 8111 883d
00000340: e11f fd3b 10ac 7e3b 6ee1 653e bd73 b5bd
00000350: 9629 febd 0191 c63d 4461 10be a01e 103e
00000360: a834 a73e 22ec 963e 90f3 b03e 91b0 39be
00000370: aaad 903d 7318 fc3d 8b23 da3d 0f1f 6e3d
00000380: f16f d5bd cefe 7e3e b229 18be 0c09 8b3e
00000390: 7953 353e 57b3 c43d e6c3 e4bd 7d8c d93d
000003a0: 5141 afbd 776d 30be 68bd 80be 3a28 29be
000003b0: b140 82be d4f2 013b 3c77 97be a340 b1bd
000003c0: 50ba 97be 88b2 003e 8feb 11be 4274 67be
000003d0: 7df1 6cbe 1133 0d3d a294 743e 8dfd 013e
000003e0: 3122 78be 6d9d 0a3c eae6 79be 46ca 543d
000003f0: 74a6 a33e bf15 5e3e 57e7 ba3c 1072 b63c
0.15683666 -0.023078408 0.30738923 0.03599285 -0.2049599 0.07146249 0.096673355 -0.1317022
0.04574181 0.20667961 -0.076654114 0.20910992 -0.2888513 -0.027836986 -0.27549323 0.13077861
-0.20694458 -0.045403767 0.15139039 0.15577751 -0.054319005 -0.12410602 -0.23919088 0.14118332
-0.10592387 0.20011877 -0.06283335 0.11432893 0.0934592 0.2068608 0.2727208 -0.1840893
0.26101655 -0.10914113 0.09636564 -0.20741548 -0.025427086 0.21992242 -0.3082689 -0.18033117
0.030286623 0.19316451 -0.18263948 -0.042900473 0.15231337 0.020727733 -0.28157625 -0.2608197
0.28526542 0.290728 -0.3057858 -0.13496399 0.30745745 -0.2652552 0.060388193 -0.2992488
0.07929029 0.083101526 -0.29716954 0.19430318 0.12467618 0.112147205 -0.013024275 0.20202632
0.08591887 -0.07333371 -0.19086425 0.20191796 -0.0054466357 0.1677582 -0.16316153 -0.20282742
-0.22748654 -0.15250292 0.23981562 0.017736303 -0.21600749 -0.1990209 0.15169264 -0.1785623
0.052740894 0.23945543 -0.0431976 0.011996762 -0.12204622 0.119229704 0.21113418 -0.13379079
0.047332805 -0.0686077 0.05366732 0.15372068 -0.071181476 0.08276315 0.038909554 0.26107106
0.11835399 -0.008670263 0.31253278 0.14274827 -0.018610733 0.26351085 0.021524113 0.19760194
-0.33509398 -0.12248468 0.23000564 -0.11099374 -0.15874176 -0.15656467 -0.13925941 -0.13797899
0.23087674 -0.06822482 -0.11563817 0.29877552 -0.06194588 0.30186707 0.30307204 -0.0661241
-0.071987875 -0.11750464 0.09249141 -0.20957272 0.2522937 -0.27480394 0.031504653 -0.2789063
-0.11607055 0.22141181 0.22663237 -0.19915818 -0.35798314 0.27376842 0.15260123 0.040976144
0.2772887 0.26363012 0.032269746 -0.16968657 0.09327973 -0.24471888 -0.012236629 0.11517374
-0.12671967 0.068123594 0.06883003 -0.093949266 -0.036023844 -0.13148938 -0.067926675 0.22521079
0.35242754 -0.058627103 -0.31861854 0.29251894 -0.28035238 -0.048366632 0.280148 0.3079238
-0.14141962 0.20432645 0.28470463 0.08674871 0.17848563 0.12560937 -0.03284756 0.22826336
0.06311602 0.28431126 -0.12529679 -0.20536308 -0.0346293 0.24043636 0.003427237 0.17713848
-0.0068747653 -0.020399474 0.22548474 0.11335861 -0.027770068 0.17298384 0.24626301 -0.072724424
0.23348078 0.28115633 0.011233796 0.029431347 0.14727716 0.30610618 -0.29871446 -0.14846869
0.26570606 0.07791425 -0.07507393 0.15126751 0.21595763 0.23909038 0.29376572 0.058148216
0.04828803 -0.2508349 0.20481168 0.1108788 0.075749904 0.1365241 -0.27032253 0.066439636
0.0077247475 0.0038859881 0.22449276 -0.08859966 -0.12410276 0.09695626 -0.14099604 0.14074183
0.3265736 0.2947703 0.34560823 -0.18133761 0.07064374 0.12309351 0.106513105 0.05813509
-0.10421742 0.24901888 -0.14859655 0.2715534 0.17707624 0.09604519 -0.11170177 0.10622499
-0.0855738 -0.17229258 -0.25144506 -0.16519251 -0.2543998 0.0019828575 -0.29583156 -0.086549066
-0.29634333 0.12568104 -0.14250015 -0.22602943 -0.23138995 0.03447253 0.23884824 0.12694378
-0.24231793 0.008460385 -0.24404493 0.051950715 0.3196293 0.21687983 0.02281539 0.022271186

decoder.0.bias f4 [32]
00000000: 3e36 aa3e 46a5 88be 8fb0 5abe 4fa7 7c3e
00000010: 3ee5 36be 0c62 cdbd 9448 96be 3ba1 73be
00000020: 9f38 41be 8c9b 5b3e 5fed a13e e717 ccbd
00000030: cd34 7dbe 4627 0f3e f16e fbbc 2aa5 ad3d
00000040: b769 413e 38c1 21be 4824 97be 22f4 c43d
00000050: 4c37 77bc eeb9 013e a3da 2bbc b208 ae3d
00000060: e765 b63c 6f77 663e 63b9 6bbe 0e86 043e
00000070: da63 08be 2247 133d 30a0 87be 36b6 81be
0.33244509 -0.26688594 -0.21356414 0.24673198 -0.17860886 -0.100284666 -0.29352248 -0.23791973
-0.18869255 0.21446055 0.31626412 -0.099654965 -0.24727173 0.13979825 -0.03069255 0.08478768
0.18887983 -0.15796363 -0.29519868 0.09616877 -0.015088867 0.12668583 -0.010489139 0.08497752
0.022265388 0.22506498 -0.23019938 0.12941763 -0.1331934 0.03595651 -0.264894 -0.25334328

decoder.2.weight f4 [32]
00000000: 335d 5d3f 0b9c 7a3f 0b9c 7a3f d0ab 693f
00000010: 66bd 763f 22ff 6b3f 0b9c 7a3f 0b9c 7a3f
00000020: 9ad4 743f fdcb 7a3f 54d7 703f 0b9c 7a3f
00000030: 91e2 603f bdee 743f aea2 6a3f d749 7e3f
00000040: 3c7a 6f3f 0b9c 7a3f 0b9c 7a3f 0b9c 7a3f
00000050: a09b 693f b599 7a3f 7889 813f e41f 843f
00000060: fbfc 733f 297d 723f 0b9c 7a3f 68e1 783f
00000070: 6e3d 773f 577c 7e3f 0b9c 7a3f 0b9c 7a3f
0.86470336 0.9789435 0.9789435 0.9127779 0.9638275 0.92186177 0.9789435 0.9789435
0.95636904 0.9796751 0.94078565 0.9789435 0.8784571 0.95676786 0.9165448 0.9933142
0.9354589 0.9789435 0.9789435 0.9789435 0.9125309 0.9789079 1.0120077 1.0322232
0.9530789 0.9472223 0.9789435 0.9721894 0.9657811 0.9940848 0.9789435 0.9789435

decoder.2.bias f4 [32]
00000000: 7988 7e3d ca73 d6bd e663 aa3d a18b 9d3c
00000010: 82e2 abbd 2c04 5ebd 92c6 033e cfad b33d
00000020: 0ec0 603d e899 713d e194 c3bc 9ddf b03d
00000030: 8246 503d a0ce f5bd 299b 4ebd 92a8 823d
00000040: 4736 913b ed69 35be 32c9 733d 2d04 d53c
00000050: 5fff 85bd 377b 93bd d255 96bd cc12 03bd
00000060: ce02 15bd d87f 71bd 95e8 debd 1f1f dcbd
00000070: 1094 4d3a 029a b63c b43e dbbd ab89 023e
0.06214187 -0.10471304 0.08319835 0.01923162 -0.08392812 -0.054203197 0.12868717 0.08773386
0.054870658 0.058984667 -0.023874702 0.08636401 0.05084849 -0.12002301 -0.05044094 0.063798085
0.004431519 -0.17716189 0.059518047 0.026002968 -0.06542849 -0.07201236 -0.07340588 -0.032000348
-0.036379628 -0.058959812 -0.10884205 -0.107481234 0.00078421924 0.022290234 -0.10705319 0.12747829

decoder.2.running_mean f4 [32]
00000000: 612a 833e 0000 0000 0000 0000 caae e23e
00000010: f6eb 0a39 d8d3 8a39 0000 0000 0000 0000
00000020: f923 ee39 decd b33d f877 b13e 0000 0000
00000030: 3205 2b3a c79c cc3d 3b8a 333a 468d 673b
00000040: 364e c23d 0000 0000 0000 0000 0000 0000
00000050: 8134 8b3a 6fd6 863d 0400 0000 b576 803e
00000060: 2fed 3f39 f737 fd3c 0000 0000 59cb fc3d
00000070: 6818 db3c 480f d93b 0000 0000 0000 0000
0.2561827 0.0 0.0 0.44273978 0.00013248608 0.00026479247 0.0 0.0
0.000454217 0.087795004 0.3466184 0.0 0.00065239065 0.099908404 0.0006848906 0.0035332008
0.09487574 0.0 0.0 0.0 0.0010620506 0.06583869 6e-45 0.25090566
0.00018303537 0.030910475 0.0 0.12343473 0.026745036 0.006624136 0.0 0.0

decoder.2.running_var f4 [32]
00000000: a5a9 053b 0400 0000 0400 0000 b661 0538
00000010: 96e7 4937 a7e3 8837 0400 0000 0400 0000
00000020: 0b53 1439 5721 7338 1a8e 103a 0400 0000
00000030: 10a5 cc38 b732 153a 8107 c838 bf38 c63a
00000040: 6d71 4f38 0400 0000 0400 0000 0400 0000
00000050: f37b 4439 8ca6 7a39 0400 0000 247c 4337
00000060: 24af c037 28f9 0e39 0400 0000 8e8f c638
00000070: f8ae c639 99cc e236 0400 0000 0400 0000
0.0020395305 6e-45 6e-45 3.180067e-05 1.2034454e-05 1.6318472e-05 6e-45 6e-45
0.00014145316 5.7966765e-05 0.0005514339 6e-45 9.758223e-05 0.0005691456 9.538141e-05 0.0015123113
4.9458282e-05 6e-45 6e-45 6e-45 0.00018738191 0.00023903901 6e-45 1.16518095e-05
2.296974e-05 0.00013634993 6e-45 9.468115e-05 0.00037895865 6.759143e-06 6e-45 6e-45

decoder.3.weight f4 [64, 32]
00000000: 008a 0f3d 2268 de3b 2eae 8b3c c2b6 69bc
00000010: fb85 0e3e a8fd 9abd 21a0 2bbe 54a7 7f3d
00000020: 4d0a a4bc 2128 82bd cdb5 da3c 51e7 1bbe
00000030: 517d 0ebe 8026 483d fff3 84bb da05 ab3d
00000040: 0208 f73d 9d7d e9bd 0a28 403d 76c2 e73d
00000050: d512 5e3d 2f70 d43d aefb c7bd b364 eabd
00000060: 184c 123e a5bb eb3d d74e d2bd fc69 5cbe
00000070: 689d 09be dd83 88bd 91fe 3cbd d268 0bbe
00000080: a54a 08be 78fe b1bd 4efa 043e 2b22 8f3d
00000090: fc30 7bbd a3d8 d4bd a709 ff3c c951 a5bd
000000a0: 3a47 e83d 798c 0abc 220b 16be 3550 613e
000000b0: 11b6 1b3d b685 dcbd f817 a73d 5331 babd
000000c0: e77c 04bb c8d9 79be 0d3f 263c a839 c23c
000000d0: ce1b 9f3d 5ea9 fcbd 119b 57bd 54ec ff3c
000000e0: 5409 123e 6995 33be b9bc a2bb b22b 6cbd
000000f0: af4a b5bc 834b 113e df59 3dbd 5b24 1b3e
00000100: 5003 c63d 3643 123d c979 733e ac85 7f3d
00000110: 266e 35be 336e 5cbd 5b94 523c ac8b 7d3c
00000120: bad2 173e 4834 89bd 60d0 adbd 9226 5abd
00000130: c0c5 06be 4932 9abd 2bdb 143e b642 51bd
00000140: 161b d0bd e658 0fbe e12e 9f3c a20d 4b3e
00000150: 9731 a03d d6db 123d 58e0 aeba 24bd 7c3d
00000160: 44c1 02be 3497 60bc 78de 62bd a734 713d
00000170: 9190 123d 4aa6 563d 5893 0dbe b931 893d
00000180: 2e15 8a3d 8e8e 7c3c fb74 1abe b3bd 13bd
00000190: 4969 fabd a10b 4d3d 5941 fbbd bd12 173e
000001a0: 27b6 9f3d 048c efbd 77bb 0e3e f1ae 31be
000001b0: 3acd 3bbe 6cf9 30be 8499 523c 92c3 4fbe
000001c0: edb5 5e3d f030 7c3d 39a9 933d abdc 52bd
000001d0: 41ed 82be e892 d2bd 98d9 873d 8ed0 d4bd
000001e0: ad69 313c 7bbf 04be 08d9 21be 4e9a 02be
000001f0: 5f97 46be 8772 ddbd 2b35 83bd 2c4b 4cbd
00000200: 2a84 38bd a9f0 863d d6f6 05be 7f65 32be
00000210: 081e a63d d1dc be3d 9412 04be 059a 323e
00000220: 05be a93c 3048 4c3e 424c 20be 307e a039
00000230: af3d 71bd 0529 80be a335 58bd c613 273d
00000240: 47a1 97bc d7ea a33c 7082 d1bc 32fa 46bc
00000250: 25be 30be a5e0 52be a67f 17be 0b10 73bd
00000260: 0087 cfbd 95b5 4a3d 2a9b f73c a9f4 0abc
00000270: d75a 473d 70d4 afbd 3f1e f03d af14 8fbd
00000280: 191a 0a3e 089b f4bd 343a 903d 2577 273e
00000290: 9133 323e 9c62 0a37 556d 2cbe efed 17be
000002a0: 738f 03be a6b4 f0bc bb93 aebd e5d1 1dbe
000002b0: 1fff 363c 5346 223d 4b9b 723d 1535 ba3d
000002c0: 68fb 553d 2dfe abbd 00fa 86bd 72b0 573c
000002d0: 7553 6b3c ff6c d93d 890d 40bd 0b92 ee3d
000002e0: 19ed cb3d 3f63 c73c ce4b 2bbd 5cf0 88be
000002f0: 3494 fabd 0260 ca3d ae3a f03d d777 f9bc
00000300: 9bf2 e4bd 642b ef3d d38f 9ebd 99f9 d13d
00000310: 57f0 fbbd de6f 123e 04d2 223e 3330 c5bd
00000320: 6113 ee3d d898 89bd dd4d f2bd fa84 333e
00000330: 0537 12bd f2f2 f6bd 3fb8 a5bd d4b7 3bbd
00000340: 664e d5bc a06c 0cbe 402d 213c ddbf 193e
00000350: fc85 96bc f2e5 6f3e 0229 833d 2c3e 393d
00000360: 96dc ea3d 0f4e 333d 7410 e73d 175a e4bd
00000370: e677 453e dd6b 15bd ff96 733d b266 0abe
00000380: 499e 0bbe 3ce2 d1bd c02c f43c 879c 83bd
00000390: 184c 303d d520 bebc e2c7 c93b 90a8 22bd
000003a0: 7aaa fc3d c792 ecbc 320c f1bd 54c4 4c3d
000003b0: f578 27bc 51f0 83bd aaa6 2f3c 08c3 333d
000003c0: f385 253e b0d1 08be aaf0 d53d 58e4 9dbd
000003d0: 900f f23d 9a25 54bd 3da3 e03d 5082 b33d
000003e0: 481c 1b3e 9036 e13c 3a73 b63d a68e fc3d
000003f0: ae81 1b3d 9c3d 183e a5c0 213e 912f c5bd
0.035043716 0.006787316 0.017050829 -0.014264764 0.13918297 -0.07567912 -0.16760303 0.062415436
-0.020024443 -0.0635531 0.026698017 -0.15224959 -0.13914992 0.04886484 -0.004057407 0.083507255
0.12062074 -0.11400912 0.046913184 0.11316387 0.05421718 0.1037296 -0.09764801 -0.11444988
0.1428684 0.115104 -0.10268944 -0.21524805 -0.13438952 -0.06665776 -0.04614121 -0.13614205
-0.13309725 -0.08691114 0.12986109 0.06988939 -0.061326012 -0.10392883 0.031132532 -0.0807224
0.113417104 -0.008456343 -0.14652684 0.22003253 0.03801543 -0.10767691 0.081588686 -0.09091439
-0.002021605 -0.24399483 0.010146868 0.023709133 0.07768975 -0.12336992 -0.052638117 0.03124062
0.14261371 -0.17537464 -0.004966345 -0.05765886 -0.022130338 0.14188962 -0.046228286 0.15150587
0.096686006 0.03570863 0.23776926 0.06238334 -0.177178 -0.05381603 0.0128527535 0.015475195
0.1482648 -0.06699425 -0.0848701 -0.05325944 -0.13161373 -0.075291224 0.14536731 -0.05108901
-0.10161416 -0.13998756 0.019431533 0.1982942 0.078219585 0.035854183 -0.0013342006 0.061703816
-0.12769037 -0.013707925 -0.055387944 0.058888104 0.0357824 0.05240468 -0.13825738 0.06698937
0.06742321 0.015414847 -0.15083687 -0.036069583 -0.12227113 0.05005992 -0.122683235 0.14753242
0.07798415 -0.11696628 0.139387 -0.17351891 -0.18340006 -0.17282647 0.012853984 -0.20289448
0.054372717 0.061570108 0.07210011 -0.051479977 -0.25571635 -0.102819264 0.066332996 -0.10391341
0.010828418 -0.12963669 -0.15805447 -0.12754175 -0.19393681 -0.1081286 -0.06406625 -0.049876377
-0.045047916 0.06588871 -0.13082442 -0.1742153 0.08111197 0.09319461 -0.12897712 0.17441566
0.020720491 0.19949412 -0.1565409 0.00030611595 -0.058896717 -0.25031295 -0.052785527 0.04079034
-0.01850952 0.020009441 -0.025574893 -0.012144612 -0.17260034 -0.20593508 -0.14794788 -0.05934147
-0.10133171 0.049489576 0.030225355 -0.008481183 0.048670616 -0.08585441 0.11724519 -0.06986367
0.13486518 -0.11943632 0.07042351 0.16354044 0.17402484 8.2484e-06 -0.16838582 -0.14836858
-0.1284769 -0.029383015 -0.08524271 -0.154121 0.011169224 0.039617848 0.05923013 0.09092156
0.052241713 -0.083980896 -0.065906525 0.013164626 0.014363159 0.106164925 -0.046887908 0.11648949
0.09957332 0.024339316 -0.04182034 -0.2674588 -0.12235299 0.09881593 0.11729942 -0.030452652
-0.11179086 0.11678198 -0.07742276 0.10252685 -0.123017006 0.14300486 0.15900427 -0.09628334
0.1162479 -0.06718606 -0.118312575 0.17531195 -0.035697002 -0.12058057 -0.08091783 -0.04582961
-0.02603836 -0.13713312 0.009837449 0.15014596 -0.018374436 0.23427561 0.06404306 0.045225307
0.11467855 0.043775614 0.11282435 -0.11149996 0.19284019 -0.03647982 0.059470173 -0.13515738
-0.136346 -0.10248229 0.029806495 -0.064263396 0.04304132 -0.023209015 0.006157861 -0.039711535
0.12337203 -0.028878583 -0.11769904 0.04999192 -0.0102217095 -0.06442321 0.010720888 0.04388717
0.16164379 -0.1336124 0.10446294 -0.07709569 0.118193746 -0.051793672 0.10968635 0.087650895
0.15147507 0.027491838 0.089086965 0.123318955 0.03796547 0.14867252 0.15796144 -0.09628213

decoder.3.bias f4 [64]
00000000: 0f04 3a3d 5718 fc3d fd79 473e 88b4 c8bc
00000010: 3464 6b3c a993 b43c a587 dc3d 54e4 9c3d
00000020: b23c 56be 04b0 84be e4c6 3cbe 93dd 48be
00000030: ec6a fcbd 0ad7 1f3e 700b 1fbe 2bb9 d6bd
00000040: ac9a 063e 48c3 933d 0f86 83be 1a60 c43c
00000050: 212d 933d b31b b7bc d63e febd a610 353e
00000060: 2b71 07be bae6 563e 3465 e3b9 ba90 283e
00000070: fb08 e6bd c2db 2a3d 4226 56bd dfca 973d
00000080: 47bb 78bd c79d f6bd dbc9 0c3e afc6 223e
00000090: fd36 85bc 63c1 f33d 6bf8 2f3e fdbe 903d
000000a0: f961 ad3d 6435 7bbe 6e0f 61be 8ab2 e9bd
000000b0: a76a 50bd ab5d 003e d727 5e3e e92d 033e
000000c0: fa97 51be 3cda 4bbe 8617 573e 6cfc a4bc
000000d0: 568a 573e ff65 143e 9580 31be e81f ce3c
000000e0: a18e 9ebd 9e40 9f3c 861e 343d fc5b e2bd
000000f0: 5b52 413c 7ae7 163e df39 3bbe 1cc5 4dbe
0.045414027 0.1230933 0.19480129 -0.024500147 0.014367152 0.022043066 0.1076806 0.07660738
-0.20921591 -0.2591554 -0.18435246 -0.19615774 -0.12325081 0.15609375 -0.15531707 -0.10484537
0.1314494 0.07214981 -0.25688216 0.023971606 0.07186342 -0.022352075 -0.12414329 0.17682132
-0.13226764 0.20986453 -0.00043372216 0.16461459 -0.11232182 0.041713484 -0.05228258 0.074117415
-0.060725477 -0.120418124 0.13748877 0.15896104 -0.016261572 0.1190212 0.17184608 0.07067678
0.084659524 -0.24532086 -0.21978542 -0.11411007 -0.05088296 0.12535731 0.21694885 0.12810482
-0.2046813 -0.19907469 0.21005067 -0.020139895 0.21048865 0.14492033 -0.17334206 0.025161698
-0.07742048 0.019439992 0.043974422 -0.11052701 0.01179942 0.14736739 -0.18283795 -0.20094723

decoder.5.weight f4 [64]
00000000: 39ca 6f3f 1a12 633f 259a 653f 9b12 6d3f
00000010: f92a 4d3f bf12 733f 8976 5d3f dc18 6a3f
00000020: 547e 853f 8383 703f 6ce3 803f 899b 5d3f
00000030: cd6e 653f 5c69 6c3f cd09 6e3f 767c 7b3f
00000040: a961 733f af93 783f 1bda 683f 0e2d 683f
00000050: 1940 893f 87ba 6d3f f50e 7b3f 07c5 6d3f
00000060: d660 653f f28b 5e3f 2f94 693f 2c09 6d3f
00000070: ca41 7f3f 53a8 6b3f 1caa 543f 0a60 5d3f
00000080: d6c4 513f 253d 603f 74b0 7b3f 2b8a 5a3f
00000090: 18dc 763f f553 663f ce9c 6b3f 6727 633f
000000a0: e39f 523f 79ac 6a3f 9b8b 683f 3aac 623f
000000b0: 5daa 593f 49b7 503f 08bb 783f 1683 683f
000000c0: ea2e 763f 82e0 7a3f 54d9 613f 15a7 6d3f
000000d0: 266a 643f 4d35 733f 8a88 703f 0813 563f
000000e0: af24 6a3f 9acc 7a3f 0cb1 623f f939 653f
000000f0: cd65 653f b704 693f 6a84 7c3f c965 863f
0.9366794 0.88699496 0.8968833 0.92606515 0.80143696 0.9495048 0.86508995 0.9144418
1.0429177 0.9395067 1.0069404 0.8656545 0.89622194 0.92348266 0.92983705 0.9823679
0.9507089 0.9710035 0.909578 0.9069375 1.0722686 0.92862743 0.980697 0.92878765
0.89600885 0.8693229 0.91241735 0.9259212 0.9970976 0.9205372 0.83072066 0.8647467
0.8194097 0.875933 0.9831612 0.8536708 0.96429586 0.8997186 0.9203614 0.88732
0.8227522 0.9166942 0.9083802 0.88544047 0.8502558 0.8152967 0.9716039 0.9082502
0.96165335 0.9799882 0.8822224 0.9283307 0.8922447 0.95003206 0.9395834 0.8362279
0.91462225 0.9796845 0.885514 0.89541584 0.8960846 0.9102282 0.9863955 1.0499812

decoder.5.bias f4 [64]
00000000: 29dc 203e 48f5 313d 647a f43d d3f8 14be
00000010: 21c7 f33d c45e 863d 3bb1 10bc 38e5 5a3d
00000020: 6852 d0be 9f3d d5be c172 dbbe 8161 04be
00000030: e32b b9be a2f0 f33d 8e32 153e 6438 90bd
00000040: e412 bb3e 0b86 903e 2ef0 b4be 6f5d 1e3d
00000050: 60e9 043e f1af 913e 6437 d6be 9006 92be
00000060: 51ee 76be 4c73 fcbd 7ae7 853e 3cfa 973d
00000070: bc5f af3e 5aaf e53d 4517 29be 67a5 df3c
00000080: 2a25 00be 0174 be3d 301b 28be 3c0f 75be
00000090: 86d4 c93e 6e5a 253e f692 d83d 34b4 5abe
000000a0: 5d59 c8bd 9e11 cabe de0b aabe a037 9abc
000000b0: be23 4dbe 0438 a83d 319c 63be 1a8f b73d
000000c0: 09f3 a3be 8ab0 c6be 4629 52be c0f4 09be
000000d0: 4f4b 283d 01c7 6dbd f352 0f3e 4030 3abe
000000e0: 1d52 1ebe 57b9 a5bd a58e 813e 4174 693e
000000f0: 49ba 1dbc b272 293e eb2e dfbd eb31 e0be
0.15708984 0.04344681 0.11937407 -0.14548044 0.11903215 0.06561044 -0.008831318 0.053441256
-0.4068787 -0.41648576 -0.42860988 -0.1292782 -0.36166295 0.119111314 0.14570066 -0.07042006
0.3653785 0.28227267 -0.35339493 0.038663324 0.1297965 0.28454545 -0.41839135 -0.28520632
-0.24114348 -0.12326679 0.26153165 0.07420775 0.34252727 0.11215086 -0.16512783 0.02730055
-0.12514177 0.0929947 -0.16416621 -0.23931593 0.39419955 0.16147777 0.105749056 -0.21357805
-0.0978267 -0.39466566 -0.3321218 -0.018825352 -0.20033166 0.08213809 -0.22227551 0.08962841
-0.3202136 -0.38806564 -0.20523557 -0.13472271 0.041087445 -0.058051113 0.13996486 -0.18182468
-0.15461011 -0.080919914 0.25304142 0.22798254 -0.009626933 0.16547659 -0.10897621 -0.43788084

decoder.5.running_mean f4 [64]
00000000: a6b4 243e ea82 9f3e 85f8 933e ff3e c93d
00000010: 22d2 f43d 3939 b93d ddee 3a3e ff25 973d
00000020: 4679 553b 1aca dc3a 59a5 ef3a 5685 1f3d
00000030: 0ee1 743b 36ba 7a3e 28f4 b23a 4407 583d
00000040: 4138 0d3e 3984 a63d c142 2e3b 43af df3d
00000050: bab5 673d 442e 2d3d 1199 0c3b 618a d53e
00000060: 7864 db3c f875 cf3e c0a8 043e 9d10 3b3e
00000070: 2475 0b3e 76fd 3c3e d6b8 263d fab7 c03d
00000080: 389c d23d d98e 223d ecb4 043e 2d1d a33e
00000090: ae57 0f3d 30c7 323e d15a 953e 22df b03d
000000a0: f99c 723e f6a9 7e3c bedb 803c 201a ed3c
000000b0: 5185 0b3d c985 0c3e c279 a83e d3ec dd3d
000000c0: f110 103d 0400 0000 3b4b e33e d91e 153e
000000d0: 969a 983e d3a4 263e f055 003d ed54 3c3e
000000e0: 40a7 953d 30d9 9b3d f99b 823e 42c3 8e3d
000000f0: de60 773d e0a2 593e 4f94 143d 0400 0000
0.16084537 0.31154567 0.28900543 0.09826469 0.11954142 0.090441175 0.18255182 0.07380294
0.0032573505 0.0016844899 0.001828353 0.03894552 0.0037365588 0.24485096 0.0013653086 0.052741304
0.1379099 0.08130688 0.0026590081 0.109221004 0.056569792 0.04228045 0.002145354 0.41707137
0.026781306 0.4051969 0.12954998 0.18268056 0.13618904 0.18456063 0.040703617 0.09410091
0.102837026 0.03968701 0.12959641 0.31858197 0.034995727 0.17458797 0.2917085 0.08636309
0.23692693 0.0155434515 0.015729781 0.028943121 0.034062687 0.1372291 0.32905394 0.10836186
0.035172407 6e-45 0.44393334 0.14562549 0.2980544 0.16273813 0.031331956 0.18391772
0.07307291 0.076097846 0.25509623 0.06970836 0.060395114 0.21253538 0.03627425 6e-45

decoder.5.running_var f4 [64]
00000000: eea8 643d c96e 9d3d 0aae f03c 2cba 763c
00000010: a606 923d 20aa b33c d0e4 803d 538b 9f3c
00000020: 6294 c63b 7a19 ff3a b744 163b 732a 253e
00000030: 3d95 ed3b 14e8 6e3d ce48 4e39 5ee6 cf3d
00000040: a389 113c 9cf9 b93d 3961 893b 55b2 113d
00000050: cac7 a03a 9b36 563c f8fa 183b 106c 163c
00000060: 9c60 af3c 4018 5b3d 9f30 663d 83ed c03d
00000070: 0be8 9f3d 295d fc3d fa4b 053e 9eb1 693c
00000080: 158e 823e 3f96 0c3c 5a86 a83d b4e1 f83b
00000090: b191 8f3b b507 513d d184 c13c 75de 783c
000000a0: 7d55 e43d f7e9 0f3d 0d0d 7a3c f069 e53b
000000b0: 0ce4 713d 55bc 553c 58c1 f23c af64 583b
000000c0: 5dab 503d 0400 0000 3e22 2e3d c576 523d
000000d0: 7dc3 c33d 2d20 393d fe2e fb3b 4d54 8d3d
000000e0: 9379 183e f46c 9c3b 51fc 0b3e 9ac5 2a3d
000000f0: 3fb9 dc3d a1e1 503d e0e0 393d 0400 0000
0.055825166 0.07687146 0.029379863 0.015059035 0.07130174 0.021931708 0.062936425 0.019475615
0.006060169 0.0019462549 0.002292914 0.16129474 0.0072504566 0.058326796 0.00019672813 0.10151361
0.008882913 0.09080812 0.004192498 0.03557046 0.0012266573 0.013074542 0.0023342948 0.009181038
0.021408372 0.053489923 0.056198712 0.09420302 0.078079306 0.123224564 0.13017264 0.014263539
0.25499025 0.008580743 0.082287505 0.0075952653 0.0043813814 0.05103274 0.023622902 0.015189757
0.11149118 0.035135236 0.015261901 0.007001154 0.059055373 0.01304539 0.02963321 0.0033018996
0.050944675 6e-45 0.042513125 0.0513828 0.09558771 0.0451967 0.007665514 0.06900845
0.14890127 0.0047737304 0.1367047 0.041692354 0.107775204 0.050996426 0.045380473 6e-45

decoder.6.weight f4 [256, 64]
00000000: 7a87 98bd eab8 463d 8772 99bd 5e64 153d
00000010: a61e 9bbd 68a5 c7bd 2139 ca3d c7ff 8d3d
00000020: 16e1 2e3e f945 573e 4b71 e93d 97bf 8c3d
00000030: 9add 723d 445a 92bc 0542 d4bd ac36 3cbd
00000040: b236 f13a 2d0f 60bc 282c c73b a93c 0dbe
00000050: 0530 be3d 433b a63c eae6 3e3e f73b 47bd
00000060: 9847 5a3d c7d0 7d3d c37f 463d 3985 c53d
00000070: b560 3fbe 7739 26bc 4623 abbd 7a70 133d
00000080: 293a a23b 3aed e03d e7ad 8a3d 700c d93c
00000090: 4c15 c2bd bfb5 553d 4fc4 92bd c4af 07bc
000000a0: 7f9a 31bd 2b6e db3d 3087 d23d e144 d8bd
000000b0: 3c95 7bbd f840 053d 0eb2 c83d 258a 97bc
000000c0: 681f 5ebd 427a 1c3e 685e 283d 8a19 303d
000000d0: 158f b8bd 3f21 44bd 7a01 aebd f8fc 273d
000000e0: fbdf 9ebd 834a eebb f077 30bb 3ef7 d3bd
000000f0: f38a 89bd 0f5c eebc d735 31bc 7d78 a7bc
00000100: 2693 40bc 00ac a9bd e546 6e3c 91fd af3d
00000110: bc14 4bbc c6e9 8bbd af7b 60bc a004 afbd
00000120: 8135 3fbd 8c08 86bc 7a5b 43bd b80c 42bd
00000130: 96ee 87bd 3170 70bd 8098 cebd 4d65 79bd
00000140: 3a40 2d3d a13e d1bc ff1a 293d cd06 c5bc
00000150: 633d 96bd 81df cc3d 8030 b5bd 6529 0c3e
00000160: 0a47 2e3c d13d 59bd e7a4 89bc 4ae4 e2bd
00000170: 32f0 0b3d 5bbb a43c 7ee4 fdbd 307c 2bbe
00000180: 84be 5bbc 07a7 ec3b cbec 95bc 2cfa d73d
00000190: 3291 11bd b120 0f3c 6234 88bd d9b1 803d
000001a0: 199e b53c 0aa6 d63c a476 0cbe bd53 0bbd
000001b0: b30d fb3c 2ad9 853d 4603 65be 4679 263d
000001c0: cadd 05bd e327 a8bd eafb 89bd 929c 89bd
000001d0: 1b1e c83d c9c3 aabd 7ec3 8cbd bae9 91bd
000001e0: db92 2fbd 7a70 e33d 4980 c9bc c4e8 9cbd
000001f0: 6e44 30bc 2ba8 90bd 621e be3c 3859 b93d
00000200: f8d0 aa3d e64b e23d 54c4 703d e347 863d
00000210: a398 0d3b f512 8a3d 3635 0abd 2197 2c3c
00000220: 79ef d03d ee91 0f3e 1044 103e 86ec 6f3c
00000230: 1bf2 633d 7e3b ea3d 289a c53d e0ce b43d
00000240: c9fd d7bd 715f dabc a1a9 083e ef3b ce3c
00000250: 2b82 4d3c e5d8 79bc 71c1 4fbc 1f04 15bd
00000260: cc8e e63d 8090 483d 0138 773d 7e96 443d
00000270: 40d0 2bbe a715 12b8 a64f b83c 682c cf3c
00000280: 155b 37bd 7b04 9e3c c1ee 2e3d daa9 2a3d
00000290: 226a 04bd decd ccbc aa59 53bb 2064 28bd
000002a0: 4c63 7c3d 0478 2f3d 00ee 9ebd 19ac ab3c
000002b0: 6491 c73d c2b8 813d 7b07 c83d 5e79 61bd
000002c0: 131d f03d 20af 643e 9a69 ccbd 3ef3 0c3e
000002d0: cb13 5abd b866 90bd 44ad 2c3e 132d 8c3c
000002e0: 9e55 a53d 9b94 4cbc 5977 1cbc 2b89 8d3b
000002f0: f333 68bd 5f3f cfbd 64dc 62bd 723a 7c3d
00000300: b18a 8f3c f3fa e53d 4c95 3b3d 3b6e 78bc
00000310: bd1d f9bc 451e b13d 80f4 903d 7025 04be
00000320: 63dc a73c 7146 a5bc 0954 273e 3562 95bd
00000330: d6de 763d 1de9 d63b ef87 e53d 564e 83bd
00000340: 64e7 e6bd 81b4 cc3d 66d3 143d 87c6 853c
00000350: 93e5 4cbc c8fa 893c f830 423d 7c01 54ba
00000360: 267b e63d 4450 bc3d ecac 433d 045c de3d
00000370: 1def ddbc dfb3 653d cfae 79bd bb1a 863d
00000380: 8ed2 2ebd 4c0a 3d3d 2e15 64bb edeb e5bb
00000390: 2747 ea3c f424 6b3c ffff c33c a318 db3c
000003a0: 88e4 22bc f913 46bd 36d8 bb3d a1b7 aa3d
000003b0: e95d 44bd 644f 093c 35e5 8f3d fbc9 efbc
000003c0: a04b 303d 0a96 c83d fe01 8dbd 5b01 42bd
000003d0: fdd3 6d3d 1cdb 113e 06d6 e23d d8a6 b0bd
000003e0: 747e d43d bf8f 2bbe fc2c 0abd eaad e4bd
000003f0: 5ad5 863d 15b7 85bd 39f6 c7bd 2202 a43c
-0.07447715 0.04851619 -0.074925475 0.03647267 -0.07574205 -0.097483456 0.09874178 0.06933551
0.17078051 0.21022786 0.11398562 0.0687248 0.059293367 -0.017865308 -0.10364155 -0.045950577
0.0018403141 -0.013675493 0.006078262 -0.13792671 0.09286503 0.02029193 0.18642774 -0.04864117
0.053290933 0.061966684 0.048461687 0.09644551 -0.18689235 -0.010145537 -0.08356337 0.035995938
0.004950781 0.109827474 0.067714505 0.026495188 -0.09476718 0.05217528 -0.07166349 -0.008281652
-0.04336023 0.10714372 0.10279691 -0.105600126 -0.061421618 0.032532662 0.09799586 -0.01849849
-0.05422917 0.15281013 0.041105658 0.042993106 -0.09011666 -0.04788327 -0.084963754 0.041012734
-0.07757565 -0.007272066 -0.0026926957 -0.10349892 -0.067159556 -0.029096631 -0.010816059 -0.020443195
-0.011753833 -0.082847595 0.01454327 0.08593286 -0.01239508 -0.06831698 -0.0137013635 -0.08545804
-0.046681885 -0.016361497 -0.04769466 -0.04737541 -0.066373035 -0.058700744 -0.10087681 -0.060887624
0.04229758 -0.02554256 0.04128551 -0.024051094 -0.07335927 0.100035675 -0.08847141 0.13687666
0.010637054 -0.05303747 -0.016802264 -0.11078699 0.034164615 0.02010887 -0.12397097 -0.16746593
-0.013412122 0.0072220596 -0.018301388 0.105457634 -0.03553886 0.008735822 -0.06650616 0.06283922
0.022170113 0.02620222 -0.13717133 -0.034015406 0.03064618 0.065355614 -0.2236453 0.040643
-0.032682218 -0.08210733 -0.06737502 -0.067193165 0.09771367 -0.08338124 -0.06873225 -0.07124658
-0.04286466 0.111054376 -0.024597304 -0.07661584 -0.010758502 -0.070633255 0.023207847 0.0905022
0.08340639 0.11049633 0.058780983 0.0655668 0.002160587 0.06741897 -0.033742152 0.010534079
0.10201926 0.14020512 0.14088464 0.014643794 0.05565081 0.114371285 0.096485436 0.08828521
-0.105464526 -0.026656838 0.13345958 0.025175063 0.0125432415 -0.015249466 -0.012680397 -0.036380883
0.11257705 0.04896593 0.060356144 0.047995083 -0.1677866 -3.4829278e-05 0.022498917 0.02528973
-0.044764597 0.019289246 0.042708162 0.04166589 -0.03232778 -0.025000509 -0.003224949 -0.04111111
0.061618134 0.042839065 -0.07760239 0.020956086 0.09744528 0.06334068 0.09767052 -0.055047385
0.117242955 0.2233243 -0.099810794 0.13764665 -0.053241532 -0.07050842 0.1686297 0.017111337
0.08072971 -0.012486602 -0.009549939 0.00431933 -0.056690168 -0.10119509 -0.055385962 0.061579175
0.017522188 0.112295054 0.045796677 -0.015163 -0.030409688 0.086483516 0.07077885 -0.12904906
0.02049083 -0.02017519 0.1634065 -0.07294122 0.060271107 0.006558551 0.11207568 -0.06411426
-0.11274603 0.09995366 0.036334418 0.016330017 -0.012505907 0.016843215 0.04740998 -0.00080873794
0.112539575 0.09194997 0.047772333 0.10857394 -0.027091557 0.05607974 -0.060957726 0.06548067
-0.04268127 0.046152398 -0.0034802663 -0.00701665 0.028598381 0.014352072 0.02392578 0.026745146
-0.009942181 -0.04835889 0.09172098 0.08335806 -0.047941122 0.008380745 0.0702614 -0.029271116
0.04304087 0.09794243 -0.068851456 -0.047364574 0.058063496 0.1424374 0.11075978 -0.08625573
0.103756815 -0.16754054 -0.033734307 -0.11165984 0.06583662 -0.06529061 -0.0976376 0.020020548

decoder.6.bias f4 [256]
00000000: 0ea3 24be d648 863d dbe4 90bd 3898 2e3d
00000010: 0782 b8bd f2cd 2abe 9392 81be 7080 03be
00000020: 7a8a 83bd 806a c33d f37c aabd dcbe d6bd
00000030: 8f6e f43d 3ebf ef3c f8ab fdbd 9bed 1dbe
00000040: ce64 50be 1a35 a0bd c9fd 13bd 2ae2 ffbd
00000050: 362e 4abe 1c95 03be fe94 70be d128 27be
00000060: 8cbc 37be 457e 24be 4449 0dbc f6c2 9ebc
00000070: dd49 cabd 4c4d 00bd f2f8 7dbe 2c3a 37be
00000080: 009b 5fbe a83b f73d 2033 163e bfec 4ebc
00000090: 89be 0c3e 002d 133b c2c4 ebbc e8be 1dbe
000000a0: a788 05bd 6eed 28be 8205 debd 26b5 efbc
000000b0: 3fca 56bd eaad 38be 0a4d b53d d15c f1bd
000000c0: ae1d 3abe 0ee7 2bbe bc61 11be 9268 b6bd
000000d0: ee95 febd 3ca8 f5bd e50f 84be 14b6 abbd
000000e0: 4806 66be 96e1 41be 9d64 0bbd a6f2 40be
000000f0: 8613 283e e372 283e fa14 76be 5a1d 013e
00000100: 0070 cabd 6ae8 3dbe cca0 c8bd 8327 09bd
00000110: 8359 45be 5d8c 9e3d a863 c9bd 3db3 23bb
00000120: 1a85 663d 8b54 78be 237b 4cbe 4499 20be
00000130: 3870 21bd 10c7 08be 9ddf 9abd 707d 61be
00000140: 3066 58bd 0ddc 36be cdec 53be 2ce9 67be
00000150: fccf 1e3d e5a5 85be a773 af3d bf95 87be
00000160: 331a 9d3d 2c74 323d 0eee 62be ab59 5fbe
00000170: bf24 a1bc cccc 6fbd 224c 79bd 4426 08be
00000180: ebee 163d 58f5 51bd 580f c3bd 4a94 003e
00000190: 2e93 a73d efa0 993c c08e 86bc 1589 28be
000001a0: deea a0bd 75ce eabd b2e3 bcbd 9ad5 c5bc
000001b0: 9fa4 15be 9df4 98bd 6364 e2bc ac61 1f3d
000001c0: 6b61 423d f25c 13be 0d6c 033c 7741 81bd
000001d0: 19aa e7bd 5cbd e1bd 22aa adbd fcc3 4e3d
000001e0: 4e72 dabd a3b4 3cbe 9f62 05be 18e9 1bbe
000001f0: bd91 11be ed96 343e c937 c0bd 6e6d 383e
00000200: 16d1 0cbe d4d7 4fbd e3b9 ecbd cd63 86be
00000210: 0c07 193e 5007 35be 0882 3abe bde3 acbc
00000220: c244 96be fde5 07bc 60d1 8bbe 8283 6ebc
00000230: 9d93 5fbe fb5c 03be ac7b 3e3c 7d7b 2a3d
00000240: ea3b 2d3e aba8 16be c6b6 523c b2d4 16bd
00000250: ac0a d7bd b3e7 4cbe 074b 863c bb5c 0bbe
00000260: fd8b 1ebc 334d 51bd 7061 50be 922e 64bc
00000270: a9b3 053d 47de 83bd 2b5b 1a3d 64eb d0bd
00000280: ae2e 0cbe 0b81 7dbe 312b a5bc b29b 7fbe
00000290: fba9 68be 19a0 19be bcde c2bd eab4 80be
000002a0: 5c1c 15be c26a 85be d5a2 58be e03a 3ebe
000002b0: a1b5 77be 232a 40be a354 23be eeb1 83bc
000002c0: 1d86 b33c bc38 5dbd 4539 27bd 41e7 27be
000002d0: 70de 233d e1f7 3ebe 5490 b83d 5d29 c3bd
000002e0: b638 32be d55f 2abe ffd0 20be 90e6 81bd
000002f0: 8a14 a63c a849 ef3b cbce 56be 7b26 65be
00000300: 963e 71bd 1165 be3c 04f4 4ebe 82bf a3bd
00000310: 6958 aa3d 4d53 31be be74 6bbe e15d 52bd
00000320: f7fe 56be cd70 b53d 8918 6abe 6567 83bd
00000330: 77e1 32bd ad5e 32be a20f 07be 50c9 48bd
00000340: 3993 5ebd 6c3b db3c a98f 48bc 373f b13d
00000350: 77fb 9e3c ce69 88bd 7c33 e2bd 05cb 1bbe
00000360: 904e 58be 6c62 623d 5ba3 cbbd 0071 7f3d
00000370: 9d70 4bbe 2ef0 93bd d8df f7bd 5450 58be
00000380: dbd8 46be 794e e9bd f294 4abe a49f 78bd
00000390: 7423 2e3d 36b2 30be 5986 38be 181d 1abe
000003a0: 18f5 a7bd 97bc 78be 18cb 65be 2625 b6bd
000003b0: e151 61be 1252 d7bd 0a98 7abd 65bc 2abe
000003c0: 9480 1fbe ba8b 10bd 056d efbd ed77 a1be
000003d0: 6ad1 cfbd eb53 e33d 7c06 613b d646 80be
000003e0: 0b6d 04be b100 6bbd 49ed 003e dbc1 d1bd
000003f0: 755b a43d 9763 c4bd 4871 15be 93f1 46be
-0.16077825 0.06556861 -0.07074901 0.042625636 -0.09009176 -0.16680124 -0.2530714 -0.12841964
-0.06422897 0.09541798 -0.083246134 -0.10485622 0.1193515 0.029265996 -0.12386316 -0.1542267
-0.20350954 -0.07822628 -0.0361307 -0.12494309 -0.1974419 -0.1284985 -0.23494336 -0.16324164
-0.17943019 -0.16063793 -0.008623425 -0.019380074 -0.098773696 -0.031323716 -0.24801996 -0.17893285
-0.21836472 0.120719254 0.1466794 -0.012629687 0.13744558 0.0022457242 -0.028780345 -0.15404856
-0.032601025 -0.16496822 -0.10840894 -0.029261183 -0.05243897 -0.18035093 0.08852585 -0.117852814
-0.18175384 -0.16787359 -0.14197439 -0.08906664 -0.124309406 -0.11994979 -0.25793377 -0.08384338
-0.22463334 -0.1893371 -0.0340315 -0.18842563 0.16413698 0.16450076 -0.2403144 0.12608853
-0.098846436 -0.1854569 -0.097962946 -0.033484947 -0.19272427 0.07741616 -0.09833461 -0.002497866
0.05627928 -0.24251 -0.19968848 -0.15683466 -0.03941366 -0.13357186 -0.07562182 -0.22020507
-0.05283183 -0.1785738 -0.20695801 -0.22647542 0.038772568 -0.2610313 0.08566981 -0.26481435
0.07671013 0.04356782 -0.22161123 -0.2181155 -0.019670842 -0.05854492 -0.06086362 -0.13295847
0.036848944 -0.05125937 -0.09524411 0.12556568 0.08182369 0.018753497 -0.01642549 -0.16458543
-0.07857297 -0.1146516 -0.09223117 -0.024149705 -0.14613579 -0.07468531 -0.027635759 0.038911507
0.047456186 -0.14390925 0.008021367 -0.063113146 -0.113117404 -0.110224456 -0.08479716 0.050479874
-0.10666333 -0.18428282 -0.13025902 -0.15225637 -0.14215751 0.17635699 -0.0938564 0.18010494
-0.13751635 -0.05074294 -0.115588926 -0.26248017 0.14944094 -0.17678571 -0.18213665 -0.021104688
-0.29349333 -0.00829458 -0.27308178 -0.014557721 -0.21833654 -0.12828438 0.011626165 0.041621674
0.16917387 -0.14712779 0.012860959 -0.036823936 -0.105000824 -0.20010261 0.016393198 -0.13609593
-0.0096769305 -0.051099014 -0.2034967 -0.013927119 0.03264204 -0.064388804 0.0376846 -0.10201147
-0.13689682 -0.24756257 -0.020162197 -0.24961737 -0.22721092 -0.15002479 -0.095151395 -0.25138026
-0.145616 -0.26058012 -0.21155865 -0.18577147 -0.2419038 -0.18766074 -0.15950255 -0.016076054
0.021914536 -0.054009184 -0.0408261 -0.1639681 0.040007055 -0.18649246 0.090119034 -0.09529374
-0.17404446 -0.1663812 -0.15704726 -0.063428044 0.020273466 0.0073024817 -0.20977323 -0.2237796
-0.058897577 0.023241552 -0.20210272 -0.079955116 0.08317644 -0.17316933 -0.22993752 -0.05135906
-0.20995699 0.08859406 -0.22860922 -0.06416205 -0.04367205 -0.17418928 -0.13189557 -0.04902011
-0.05433962 0.026761733 -0.0122412825 0.086546354 0.019407017 -0.06660806 -0.11044976 -0.15214165
-0.21123719 0.055269644 -0.09943267 0.062363625 -0.19867177 -0.07223545 -0.12103242 -0.21124393
-0.19418661 -0.113919206 -0.1978338 -0.06069912 0.04251428 -0.17255482 -0.1802 -0.15050161
-0.08201045 -0.24290691 -0.22440755 -0.08893804 -0.2200389 -0.105137005 -0.061180152 -0.1667343
-0.15576392 -0.035289504 -0.11690716 -0.3153681 -0.101473644 0.110999905 0.003433614 -0.25054044
-0.12932222 -0.057373706 0.12590517 -0.10242053 0.080252565 -0.09589308 -0.14593995 -0.19428091

decoder.8.weight f4 [256]
00000000: 0f0f 4d3f 2c21 673f 7284 783f 584c 6d3f
00000010: d56d 5a3f 2321 413f 9295 413f ef5e 5c3f
00000020: a9e0 603f 660b 503f 7797 453f cc10 573f
00000030: 5f31 593f 97e3 623f 5fd8 4b3f 744e 523f
00000040: 73e2 543f 6bec 523f 6836 573f 6449 473f
00000050: b1b7 683f 30d2 5b3f b0e6 823f 0496 413f
00000060: 07ae 3a3f a366 7c3f 2b68 673f 26e5 8e3f
00000070: 77ec 503f 726f 843f 922f 613f b2f7 463f
00000080: bc7d 7b3f 68f7 5d3f eca3 643f 24a2 403f
00000090: 0227 4f3f 90fe 5a3f f5ad 7b3f e52d 833f
000000a0: 3a1c 5b3f 0afd 4e3f 50ce 5a3f 0ffb 6e3f
000000b0: 4669 763f f3fa 6a3f 6e56 6b3f bf5e 3e3f
000000c0: ee27 533f 966d 803f 66c1 863f 8460 6c3f
000000d0: 632b 903f 399b 4e3f 01c5 3c3f 2426 433f
000000e0: b13b 4c3f 65c8 533f cd68 6d3f 64b6 423f
000000f0: 2ca0 443f 8085 4c3f ab8b 593f 57c6 633f
00000100: 9f9c 6c3f 3945 523f 29b2 6f3f ed94 623f
00000110: 17f0 523f 07e5 4a3f b53a 533f e628 413f
00000120: 1fe1 663f ba2c 5a3f 85fa 563f 2a63 483f
00000130: da86 403f 54d5 553f 7a2e 713f 75ab 573f
00000140: 89e9 763f 1223 493f da4a 563f d5f8 833f
00000150: 804c 593f 6880 563f 191d 553f 181c 853f
00000160: 0d83 463f ac34 473f 8c32 3b3f ad33 4e3f
00000170: 6c53 5d3f 53a4 3e3f c4b0 523f d045 703f
00000180: afd8 8b3f 48d4 6e3f 55a7 633f c59b 5a3f
00000190: 620d 463f 597c 6d3f 9e95 433f 2063 3e3f
000001a0: ff04 6b3f 8e17 823f 3dcf 463f 28e5 623f
000001b0: 8781 4e3f 817e 613f 4005 4d3f 1cd0 5c3f
000001c0: 4ee2 493f ad82 743f 80fa 463f 4fbb 403f
000001d0: 989f 353f 1b35 423f 45f6 3b3f a64b 6c3f
000001e0: 1c7c 873f 08b8 4b3f f319 4b3f 7b91 993f
000001f0: 9d48 503f 3b07 5f3f f804 3f3f f6fb 533f
00000200: ca86 533f 6450 533f 8f5f 3a3f 5e43 513f
00000210: f7c5 593f 65a7 583f f0a8 4d3f 5079 803f
00000220: 0f0e 4b3f 92ce 5c3f 07e9 893f 14c9 543f
00000230: 8432 823f af13 623f c434 323f 16b5 4e3f
00000240: a646 7c3f 908c 513f 5dd4 5f3f f45c 813f
00000250: 2ae8 6d3f f09a 843f fc60 403f 0061 563f
00000260: e789 5c3f d965 4e3f 5140 8e3f 86ab 4c3f
00000270: d96c 383f 62a0 3b3f 25eb 7e3f e0e8 2d3f
00000280: a104 703f 4b57 5d3f b981 3e3f 17b7 5e3f
00000290: 8800 613f e502 4b3f 50c5 493f 84d8 5c3f
000002a0: a102 593f 4642 823f 46eb 553f 0268 723f
000002b0: 442b 533f 4ffd 3c3f 74b0 523f 3c02 3b3f
000002c0: 9d60 763f e261 463f 8530 2f3f 4229 3b3f
000002d0: 8f0c 563f 5763 573f 35ac 773f 2ab0 433f
000002e0: feea 423f 5ed8 533f 23f7 473f d91e 633f
000002f0: b41e 343f 8e14 6c3f 8078 563f 41d1 3d3f
00000300: a37f 343f f332 6f3f 21bb 3c3f 81c2 5a3f
00000310: bec7 603f f60b 6f3f 14c4 3f3f cac2 603f
00000320: 40bd 3b3f 28bb 563f 9d02 223f a84a 6f3f
00000330: ad32 893f 9b1d 853f 0efd 443f 11a5 973f
00000340: 5a5c 883f 2f8e 6c3f 238a 3f3f e5c6 533f
00000350: 31eb 3e3f 6a5b 733f bd25 483f bd67 353f
00000360: f03f 3d3f 57fd 573f b6e9 853f ce65 5b3f
00000370: a686 3a3f c230 813f 5233 823f db62 7a3f
00000380: 8f20 613f 1e03 723f b5ef 3c3f 3f2c 743f
00000390: e2de 863f 8891 473f b3c5 7e3f b0b6 3b3f
000003a0: 1f1f 6b3f 07c9 583f 9852 563f a33e 4d3f
000003b0: 0f90 4a3f 920c 453f 32aa 843f 4cc0 323f
000003c0: 007a 803f d912 443f 72cd 373f 5677 563f
000003d0: 1d58 793f 8052 373f 4ad9 583f 77c6 5e3f
000003e0: c5bc 563f 3f33 883f a533 543f f7fd 3f3f
000003f0: 5950 603f 6d2a 443f b00c 4f3f 29d7 413f
0.801011 0.9028499 0.97077096 0.92694616 0.8532384 0.7544119 0.7561885 0.8608236
0.87842804 0.8126739 0.7718424 0.84010005 0.8484096 0.88628525 0.7962703 0.8215096
0.83158034 0.82391995 0.8406739 0.7784636 0.9090529 0.85867596 1.022665 0.7561953
0.72921795 0.9859411 0.9039332 1.116368 0.81610817 1.034651 0.8796321 0.77721703
0.9823873 0.86705637 0.89312625 0.75247407 0.80918896 0.8554468 0.9831231 1.0248381
0.85589945 0.80854857 0.8547106 0.93351835 0.96254385 0.9178917 0.91928756 0.7436332
0.824828 1.0033443 1.052777 0.9233477 1.126324 0.807056 0.73738104 0.7623007
0.7977858 0.8272765 0.9273804 0.76059556 0.768069 0.79891205 0.8497874 0.8897452
0.92426485 0.82136875 0.93631226 0.8850849 0.823976 0.7925572 0.82511455 0.7545303
0.9018726 0.852245 0.8397601 0.7827631 0.7520577 0.8352864 0.9421154 0.84246
0.96450096 0.7856914 0.83707964 1.0310313 0.84882355 0.8378968 0.83247524 1.0399199
0.7754372 0.77814746 0.73124003 0.805476 0.86455417 0.7446949 0.8230097 0.93856525
1.0925502 0.93292665 0.88927203 0.85393935 0.7736417 0.92767864 0.7640017 0.7437
0.918045 1.0163438 0.7765997 0.88630915 0.80666393 0.88083655 0.80086136 0.8625505
0.7886094 0.95511895 0.7772598 0.7528581 0.70946646 0.7586228 0.7342265 0.9230293
1.058475 0.79577684 0.7933647 1.1997522 0.813608 0.8712041 0.74616957 0.82806337
0.82627547 0.8254454 0.7280206 0.8174342 0.85067695 0.84630424 0.80335903 1.0037022
0.79318327 0.862527 1.0774239 0.8311932 1.0171666 0.88311285 0.69611764 0.80745065
0.985453 0.81855106 0.87433416 1.0106492 0.9293238 1.0359783 0.75147986 0.8374176
0.8614792 0.8062416 1.1113378 0.79949224 0.7204109 0.732916 0.9957755 0.67933464
0.93757063 0.86461323 0.7441669 0.8699812 0.87891436 0.7930129 0.788167 0.86267877
0.84769636 1.0176475 0.83562124 0.94689953 0.82487893 0.7382402 0.82300496 0.73050284
0.9624117 0.7749311 0.6843341 0.7310983 0.8361291 0.84135956 0.9674714 0.7644068
0.7613982 0.82752025 0.78111476 0.88718945 0.7035935 0.92218864 0.8377762 0.7414742
0.7050726 0.9343712 0.73723036 0.8545304 0.8780478 0.93377626 0.74908566 0.87797225
0.7333565 0.8387933 0.6328524 0.9347329 1.071859 1.039966 0.7694863 1.1847249
1.0653183 0.92404455 0.74820155 0.82725364 0.74577624 0.9506136 0.78182584 0.7086142
0.73925686 0.8437094 1.0461948 0.85702217 0.7286171 1.0093005 1.0171912 0.9780709
0.87940305 0.94536006 0.73803264 0.95380014 1.0536768 0.7795644 0.99520415 0.73325634
0.9184436 0.84681743 0.8371978 0.801737 0.79126066 0.76972306 1.036444 0.6982467
1.0037231 0.7659126 0.7179786 0.8377584 0.97400075 0.7161026 0.84706557 0.87021583
0.8388179 1.0640639 0.82891303 0.74996895 0.876226 0.76627237 0.80878735 0.75718933

decoder.8.bias f4 [256]
00000000: 9449 13be 9249 88be c6d6 033e bafe f83c
00000010: 60fd 4bbe 8356 9cbe b97d 7bbe 62da 84bd
00000020: 9f4d 6cbb 2114 593e 558c 8d3e 5716 bcbd
00000030: 3d0b 00be 4883 0b3e cdb5 8abe 564a 93bc
00000040: 909b 18be 42f8 c6bd 0087 493e acac 51be
00000050: c5e6 9abb ec0b 3d3d 0383 9b3e 0135 53be
00000060: 0bcb 29be 4ba5 413e 56c9 87be 741e 403e
00000070: 1362 a8bc 7851 d4bd 56d5 00bd 40a1 01be
00000080: b9e3 ef3b 639a 33be 7332 ac3e 0393 7abe
00000090: 658e 51be c86c 8cbe 570a 87bc 983e 9c3e
000000a0: fbdb b9bd 59e5 4bbe 754f 573e eb1e 9f3e
000000b0: 9dcc 823e 558a 06be dbb9 2cbe c452 81be
000000c0: 25be 9fbe ec8f c13d 8a45 613e 5317 923e
000000d0: 5dc8 463e c929 6bbe db99 90be 8edd 50be
000000e0: 4799 b8bd 5cd0 1cbe 4625 9abe f651 43be
000000f0: 11a9 97be b922 67be 1884 18be 72f1 133d
00000100: 1e48 053e ff66 72bd 5b05 9539 47a9 663d
00000110: 547d f9bd f6d0 6dbd bf10 07be 626d 41be
00000120: d5d4 0dbe 783a 2bbe 4aa3 4cbe f25b 10be
00000130: e188 3abe 0e26 34be f017 3f3e d98a 77be
00000140: 7035 1f3e d0c8 76be 2f98 64be d5ac 6f3e
00000150: ed14 99bd 5bc8 4abe 3f52 873d 3339 813e
00000160: d669 26be 3829 93bd 0028 8ebe 3a8d 9fbe
00000170: ed11 0abe 2f23 4abe e2d6 3abd aa79 733c
00000180: 0459 7f3e 6cf3 283e 910a 17bd 8704 8dbe
00000190: 55c1 9a3d fbae 683e d6be 4ebd 27eb 05be
000001a0: 5a0e 833e 6651 ba3d 50b9 0abe 7a9a 7dbe
000001b0: 76a7 213c d054 9c3e d698 2d3d f6b7 7e3e
000001c0: 3f31 43be 4904 593e ccc6 4c3e a7ac 3abe
000001d0: 4136 66be 1aa4 f0bd 396f 5abe 8398 be3e
000001e0: bace c23e d8ce 6bbe cee5 bfbc 0cb1 9a3e
000001f0: 8db1 89be 7949 323e 2d78 6dbe af3b acbd
00000200: 58f6 1dbe 9419 6ebe 86e1 5cbd ba43 89be
00000210: 005c ebbd 7acf bbbd 4bba 64be 58a8 ac3e
00000220: 9585 77be 1c97 4e3e 2912 7d3d a56b 81bd
00000230: 9023 843e 0211 b9bc 75a3 d5bd f04c e8bd
00000240: 32a7 98be ac6c 45be 9bed 26bb 17c6 ed3e
00000250: b8a0 a83e 23e2 dd3e 1281 78be 3859 4abe
00000260: 3fe6 113c 73b6 2dbe 2f0e 973e 9071 2bbe
00000270: b668 36be 4a74 0bbc d3cf c73e 8326 4ebe
00000280: be53 e03d dacc e3bd c72d afbd ea9a 7ebd
00000290: 71e4 a5bd 7c3f dbbd 7ac9 983c c228 86bd
000002a0: 673c 9abe b305 823e f589 47be a363 86be
000002b0: 3d92 abbe d8e1 30be 3245 f8bd d7f8 dabd
000002c0: ea6a bc3e 1acb 82be 872d d3bc 5178 7fbe
000002d0: 82de 67be 12fe 30be 7cf5 9e3e f689 3abe
000002e0: d071 61be a0be b5bd 74a1 7bbe 6414 933b
000002f0: f9a2 fcbd eaa6 b93e 773f 7cbe 25db 8bbe
00000300: 5618 16be 7b61 86be cec4 57be c9ca 8cbe
00000310: 8353 923e f1c8 063e 29ce 81be e9b6 85bb
00000320: 76fd 92be 9a9e 623e dd4a 66be a7ee 93bd
00000330: 35d1 f53d 4ef9 a03e 4595 72be 2765 263e
00000340: a2ef c53e 6a5c c3be 586b 43be ba52 b4be
00000350: caee b2bd f3de b53e c285 6cbe f96d 17be
00000360: 9ed6 49be 7ff2 da3c 4dc1 bf3d 4870 99bd
00000370: b2cf 54be 4ab7 e83e ab34 c53e c935 5ebd
00000380: 896d 35be c56a dabd 9419 76be 6f3f 823e
00000390: da85 c83e 01cd 92be 2966 3a3e c0af 73be
000003a0: 305f 523d a9ac 6abe b65c 60be 02bd 38be
000003b0: b5f4 99be a1da f6bd f2b6 cc3e 343c 3fbe
000003c0: 1856 b63e 952d 4fbe f5b1 3fbe 5511 70be
000003d0: 8da6 903e 0afb 96be ea19 7fbd b7f4 8bbe
000003e0: 67cb eebd b0f7 933e c201 153e e7cf 47be
000003f0: b177 6cbc aaaa 45be 41ca 04be 8f44 80be
-0.14383537 -0.2661863 0.12874898 0.0303949 -0.19920874 -0.30534753 -0.24559678 -0.06486966
-0.0036057008 0.21199085 0.27646127 -0.091839485 -0.12504287 0.13624299 -0.27091828 -0.017979782
-0.14903092 -0.0971532 0.19680405 -0.20476025 -0.004727217 0.046153948 0.30373392 -0.20625688
-0.16581361 0.1891071 -0.26520795 0.18761617 -0.020554578 -0.103671014 -0.031453453 -0.12659168
0.007320848 -0.17539363 0.3363224 -0.24470143 -0.20464475 -0.27426744 -0.016484423 0.30516505
-0.09075161 -0.19911708 0.21026404 0.31078276 0.25546733 -0.13138707 -0.16867773 -0.25258458
-0.31199756 0.09451279 0.21999183 0.2853342 0.1941237 -0.22965159 -0.28242382 -0.20397016
-0.0901361 -0.15313858 -0.30106562 -0.19074234 -0.29621175 -0.2257184 -0.1489414 0.036118932
0.13015792 -0.059180256 0.00028423485 0.05631378 -0.121821076 -0.05806061 -0.13189982 -0.18889382
-0.1385072 -0.16721523 -0.19984165 -0.14097574 -0.18216278 -0.17592642 0.18661475 -0.2417406
0.15547729 -0.24100041 -0.22323678 0.23405774 -0.074746944 -0.19802992 0.06607484 0.25238952
-0.1625131 -0.07185596 -0.27764893 -0.31162435 -0.134834 -0.19739984 -0.045615084 0.01486055
0.249363 0.16499108 -0.03687531 -0.27542517 0.075564064 0.22723 -0.050474964 -0.13077985
0.25596887 0.09097557 -0.13547254 -0.2476596 0.009866586 0.30533457 0.042382084 0.24874863
-0.19061755 0.21193041 0.1999771 -0.18229924 -0.22481634 -0.1175005 -0.2133149 0.37225732
0.38048345 -0.23028123 -0.02342501 0.302132 -0.26893273 0.1741084 -0.23190375 -0.08409821
-0.15426004 -0.23251945 -0.053926013 -0.26809484 -0.11492157 -0.091704324 -0.2233669 0.33722186
-0.24172051 0.20174831 0.061784897 -0.0631936 0.25808382 -0.022591118 -0.104315676 -0.113428
-0.2981506 -0.19279736 -0.0025471214 0.46440193 0.3293512 0.4333659 -0.24267986 -0.19760597
0.008904993 -0.1696413 0.2950301 -0.1674254 -0.17813382 -0.008511612 0.39025745 -0.20131879
0.109534726 -0.11123057 -0.08553653 -0.062159456 -0.08100212 -0.10705468 0.018650759 -0.06550743
-0.30124208 0.25394973 -0.1948622 -0.26247892 -0.33510008 -0.17273653 -0.12122573 -0.10691994
0.3680032 -0.2554558 -0.025778545 -0.24948241 -0.22643474 -0.1728442 0.31046665 -0.1821669
-0.22016072 -0.088742495 -0.24573308 0.0044885147 -0.12335772 0.36260158 -0.24633585 -0.27315632
-0.14657721 -0.26246247 -0.21071169 -0.27498463 0.2857934 0.1316259 -0.253526 -0.0040806425
-0.28709 0.22130814 -0.22489496 -0.07223254 0.12002794 0.31440204 -0.23689754 0.16249524
0.38659388 -0.38156444 -0.19083917 -0.35219365 -0.08736952 0.3552166 -0.230979 -0.14788045
-0.19710776 0.02672696 0.09363041 -0.07492119 -0.20782354 0.45452338 0.38516745 -0.054250512
-0.17717566 -0.10664896 -0.24033195 0.2543902 0.3916462 -0.2867203 0.18203034 -0.23797512
0.05136031 -0.22917427 -0.21910366 -0.18040851 -0.3006951 -0.12053419 0.39983326 -0.1867531
0.3561256 -0.20232232 -0.18720229 -0.23444112 0.28252068 -0.29488403 -0.062280573 -0.2733514
-0.1165989 0.28899908 0.14551452 -0.19512902 -0.0144328335 -0.19303384 -0.12967779 -0.25052306
