generation/invbo_decoder/results/models/gp.pt (torch, 226813 bytes, 31 tensors)

encoder.0.weight f4 [64, 768]
000000 0d cd d8 bc 93 25 1d bc 7b e6 f4 3d ff 0b 3d 3d
       -0.026464963 -0.009591478 0.11958023 0.04615402
000010 97 d5 21 bd dc 9b f5 3d b9 e0 84 3d 44 0c 30 3d
       -0.039510336 0.119926184 0.06488175 0.042980447
000020 24 f8 8e bd 74 50 01 3c 42 86 93 3d e8 d4 35 3d
       -0.06980923 0.007892717 0.07203342 0.044392496
000030 90 c5 73 bd dc 9c 7c 3e 66 40 2b be 70 43 b6 bd
       -0.059514582 0.24669212 -0.16723785 -0.088995814
000040 90 7c 3c 3e 44 69 91 bd cb 20 9f 3c 59 7e cc 3d
       0.18406892 -0.07100156 0.019424817 0.099850364
000050 cc 60 09 3d 78 af f5 bd 34 f0 89 3d 37 46 5c 3d
       0.03353958 -0.11996359 0.06735268 0.0537779
000060 fa 03 a6 3d d1 c9 08 3e 16 1c 77 3d fc 60 94 3d
       0.08106227 0.13358237 0.06032952 0.07245061
000070 0a 80 0f 3d 88 6c 04 bd ac 06 8e 3d d0 30 f4 3c
       0.035034217 -0.032330066 0.06934866 0.029808432
000080 d6 25 8c bc 81 51 9b 3c 11 97 bd 3c b2 0d 8b 3d
       -0.017107885 0.018959763 0.023143323 0.067897215
000090 c5 8f 0e be 18 ce b1 bd 04 7f a1 bd 12 cb a7 bc
       -0.13922031 -0.086818874 -0.078855544 -0.020482574
0000a0 a0 e7 91 3d be 19 92 3d c1 c6 b6 bd 85 e3 56 3e
       0.07124257 0.07133816 -0.08924628 0.2098523
0000b0 57 47 1b 3d 7d 7e 74 bd 26 1e 07 3e 3e 83 90 bd
       0.03790983 -0.05969094 0.13195094 -0.070562825
0000c0 ea 04 e8 3d 14 0e c1 bb 2e 5c 8c 3d 43 87 45 3d
       0.11329062 -0.005891571 0.068535194 0.0482247
0000d0 59 b4 2e 3e 48 1a 0e be d0 65 c3 3d 40 ec 07 be
       0.17060985 -0.13877213 0.095409036 -0.13273716
0000e0 9b 61 a3 bc 05 a9 57 be d0 88 52 3e a9 bd bf bb
       -0.019944003 -0.2106057 0.20560002 -0.0058514667
0000f0 fd 73 75 3c 5b e5 c5 bd 44 fd 12 bc 21 76 d0 3d
       0.014981267 -0.09662887 -0.008971516 0.10178781
000100 d0 ad 6b 3d 44 d7 aa 3d 51 85 94 3d 10 1e 56 3d
       0.057538807 0.0834184 0.072519906 0.052274764
000110 99 8a 24 3c 21 7e 64 bd 20 4d 52 bd 88 2a af 3d
       0.01004281 -0.05578435 -0.051343083 0.08553034
000120 36 91 ff 3d ba f4 18 3d 6b 3a b2 3d 2d 80 e5 3c
       0.12478869 0.037342764 0.087025486 0.02801522
000130 47 af 1c 3e d6 c4 aa 3d 87 8e 09 be 3a 7f 6d 3d
       0.15301238 0.08338325 -0.13433276 0.05798266
000140 38 e5 7a 3d 60 cb 5d bd 5d 8f 03 bc f0 a9 7a 3d
       0.061253756 -0.05414903 -0.008029786 0.06119722
000150 09 a4 a1 bd cb 00 92 3e 93 cd 29 bd 95 b5 a0 bc
       -0.07892615 0.2851623 -0.041455816 -0.019617835
000160 32 ca 37 3d fe 38 10 3e 15 67 d2 3c 53 0c c5 bd
       0.044870563 0.14084241 0.025683919 -0.09621491
000170 51 30 4f bc cc 9d b7 3d a1 da 81 bd 25 36 74 3d
       -0.012645797 0.08965644 -0.06340528 0.05962195
000180 70 ba 46 3d 39 d2 8f 3d cc 8b eb 3d 16 d5 a1 3d
       0.048517644 0.07022519 0.115012735 0.07901971
000190 a5 18 5f 3d cd f0 0e 3e 8f 42 58 bd 1c 90 96 3d
       0.054466862 0.13959046 -0.05279785 0.073517054
0001a0 45 4b 9c 3d 3d b7 c8 bd bd 26 d1 3d 50 06 3b 3e
       0.07631544 -0.09800575 0.10212467 0.18264127
0001b0 30 ec 24 3d 0a ec f8 3d 1b e6 d8 3d 9a c6 82 3d
       0.04026431 0.12154396 0.10590764 0.063855365
0001c0 55 77 11 bc 99 2e e7 3c ad 0a 19 bd ee b6 79 bb
       -0.008878549 0.028220462 -0.037363697 -0.003810342
0001d0 ff 43 d9 3c d9 f8 19 3e f3 8f ee 3d 20 05 8c 3d
       0.02652168 0.15036334 0.1164855 0.06836915
0001e0 5b fb 29 3d 18 57 0b 3d 92 14 9b 3e 4e fc 1a be
       0.041499477 0.034018606 0.3028913 -0.15135309
0001f0 98 a5 82 bd 67 2e 44 3d 4b de 7d bd 4e 97 45 3d
       -0.06379241 0.047895815 -0.061979573 0.04824
000200 68 00 a1 bd 5b 57 b0 3d 3d 63 90 3c dd 53 0e 3c
       -0.078614056 0.08610412 0.017625446 0.008686987
000210 88 ad 6b 3e a5 d5 8c be 0b bb 84 be ce ce ab 3c
       0.23015416 -0.27506748 -0.25923952 0.020972636
000220 da cc 8c bc bf 18 1e 3d 93 cb 45 3e 7f 1f d7 3d
       -0.017187525 0.03859782 0.19315939 0.10504054
000230 f6 0d 22 3d 59 20 54 bc 00 cc b8 3c 35 90 2f bd
       0.039564095 -0.012947165 0.022558212 -0.042862136
000240 96 e6 bf 3d 0b 98 48 bd f7 61 77 bb 0b 05 b8 bc
       0.09370153 -0.048973124 -0.00377476 -0.022463342
000250 98 5c 42 3d 00 88 75 bd e6 90 8a bb 97 6d 98 3d
       0.047451586 -0.059944153 -0.004228699 0.074427776
000260 78 f9 11 3e 37 21 2c 3e a2 b5 f9 3c 40 76 0d 3e
       0.14255321 0.16809545 0.030482117 0.1381464
000270 35 cc 83 3d 5f 98 ae 3c 45 db 7e 3d 2b 14 d1 bc
       0.06435434 0.02131289 0.06222083 -0.025522312
000280 b8 8f c5 bb 6f 19 f8 ba fb 7d fc bd 28 bd a9 3d
       -0.0060290955 -0.0018928478 -0.12328716 0.08288032
000290 28 d0 0a be e0 91 ce 3d 63 2b bf bd 5f 57 14 3e
       -0.13555968 0.10086417 -0.09334447 0.14486454
0002a0 45 f0 0d 3e 86 85 ae 3d a7 6a b4 3d 9e db c2 3c
       0.13861187 0.08521561 0.08809405 0.023786362
0002b0 36 6d 3e 3e b3 b0 e8 3d e7 7d 82 3d 69 2b b9 3d
       0.18596348 0.11361828 0.0637167 0.09041483
0002c0 90 c9 62 bd 59 46 14 3d ee 25 b9 bd 17 f7 ba 3d
       -0.055368006 0.0361999 -0.09040438 0.0912916
0002d0 44 a3 19 3c c2 d5 d5 3d a8 1a 37 be 98 0d 05 be
       0.009377304 0.10441162 -0.17881262 -0.12993467
0002e0 50 f2 a9 3d da b0 04 be a8 3c 31 3e 3b e6 56 be
       0.082981706 -0.12958089 0.17308295 -0.20986263
0002f0 85 fd 4d bd 57 e9 b0 bd be b7 b2 3d 4c ce a5 3d
       -0.050290603 -0.08638256 0.08726452 0.08095989
000300 db ea a0 bd a3 d2 d4 bc 78 28 97 3d 2d f0 3a bc
       -0.07857295 -0.025979346 0.07380766 -0.011409801
000310 3e f3 92 bd bb 42 76 bd 8a b2 7a bc 60 f6 83 3b
       -0.07175301 -0.060122233 -0.015301356 0.004027173
000320 e5 0e 3a 3d 16 db 56 be 2b 75 52 3e 65 fb 8b 3d
       0.04542436 -0.20982012 0.20552509 0.06835059
000330 e4 af 84 bc c3 85 1f bd b2 c1 b6 3d fc c6 f1 3c
       -0.016197152 -0.038945924 0.08923663 0.029513828
000340 53 b5 47 be 77 f7 ec bc 80 c3 e2 3d ba bb 07 bc
       -0.19502763 -0.028926594 0.11072445 -0.008284504
000350 e8 c4 32 3d 14 8c de bd 29 64 b6 3d c3 fc b7 3d
       0.043644816 -0.108665615 0.08905823 0.08983757
000360 ef 8d 1e be 4b 8d 7e 3d 3a c0 90 bd 7c e5 2b 3d
       -0.15483831 0.062146466 -0.07067914 0.0419669
000370 52 c4 5b bd 44 e4 1e bd 64 90 48 bc 96 50 eb 3d
       -0.053654023 -0.03879191 -0.012241457 0.1148998
000380 5c 17 59 3c c7 95 1d bc ce e6 79 3e d1 58 94 bc
       0.013250198 -0.009618229 0.24404451 -0.018108757
000390 f2 af 95 3d 9a 7e 0f 3d 0b 8c 0b 3d 12 e2 d2 3d
       0.073089495 0.035032846 0.034069102 0.10297026
0003a0 70 8f 05 3e 2a 22 48 3d 0a 8a 91 3c c3 b4 0c 3e
       0.13042998 0.048860706 0.017766017 0.1374083
0003b0 ad df 61 3d 70 67 a7 3d d2 57 da 3c 49 ab b0 bd
       0.055144954 0.08174026 0.026653204 -0.0862642
0003c0 36 29 c5 3c e8 20 e9 3c 02 ec 34 3d a1 1c 08 3e
       0.024067502 0.028458074 0.044170387 0.13292171
0003d0 9d 9c 2d 3d 5d f7 3e 3d 3b 4d ef 3d df 4e a9 bd
       0.042385686 0.046622623 0.116846524 -0.082669966
0003e0 8b 13 ee 3d 24 cf 2c 3d 81 07 a4 3d c0 54 51 3e
       0.11624821 0.042189732 0.08009244 0.20442486
0003f0 59 2e e5 3c 46 e1 a3 bc 56 90 06 3e 19 13 e0 bd
       0.027976202 -0.02000488 0.13140997 -0.109411426

encoder.0.bias f4 [64]
000000 fc 88 8b 3d f8 41 1d 3d 24 ac ba 3d be d4 b5 3d
       0.06813237 0.03839299 0.091148645 0.08878468
000010 94 3c 64 bc ae a6 89 3d 11 61 86 3d 1e 7e 3f 3d
       -0.013930459 0.06721245 0.06561483 0.046751134
000020 16 fb 84 bd f1 cf 73 3d aa c5 42 bd 72 40 9e bd
       -0.06493203 0.05952448 -0.04755179 -0.07727136
000030 cf 69 2b 3e ae 0b c1 bc b6 4a 1a 3e 75 bd eb bc
       0.16739582 -0.02356514 0.15067562 -0.028776864
000040 1d 2f 09 3d 2f ce 6f 3c 51 e3 94 bd 37 1f 63 3b
       0.033492196 0.01463656 -0.0726992 0.0034656057
000050 0d 5a ca bc fb 90 c0 3c ef c0 a8 3d 03 29 c1 3c
       -0.024701143 0.023506632 0.08239924 0.023579126
000060 e4 e4 33 3d c3 a4 ea bc b7 52 1b 3c ba 5e 15 3e
       0.04391946 -0.028643018 0.00948017 0.14586917
000070 f9 3e 29 bd cd da 82 bd 8b e3 f2 bc a0 9a c7 3c
       -0.04131982 -0.06389389 -0.029649517 0.024365723
000080 a2 a8 ad bd 18 be 89 3d 00 a2 b6 3d 8d ed a3 3a
       -0.0847943 0.06725711 0.08917618 0.0012506709
000090 72 00 b4 3d 5e c6 35 bd 3c 87 cc 3d 8b f9 be 3c
       0.087891474 -0.04437863 0.099867314 0.02331235
0000a0 a1 7d fc bc 35 a6 84 bd 2b b9 17 3e 52 7f a5 bd
       -0.030821623 -0.06477014 0.1481673 -0.08080925
0000b0 9f 2f c5 bc 41 2e 39 3d 90 c7 e8 3d 1d ec a1 bd
       -0.02407056 0.045210127 0.113661885 -0.07906363
0000c0 f7 7e ae bd 49 19 00 bd 4b c2 9e bd 2c e1 48 be
       -0.0852031 -0.031274114 -0.07751902 -0.19617146
0000d0 9d 71 40 bd 50 f5 d8 bc 54 ac 3d 3d 8d 92 81 bd
       -0.04698335 -0.026484162 0.046306923 -0.063267805
0000e0 06 ec 59 3d 44 6d 81 3d 27 9c f9 3c 78 18 1c 3d
       0.053203605 0.06319669 0.030469967 0.038109273
0000f0 08 5f 8e 3e be 6a 29 bd aa 11 83 3d 11 22 57 bd
       0.27806878 -0.041361563 0.063998535 -0.052522723

encoder.2.weight f4 [64]
000000 a1 01 e1 3e 88 42 62 3f e8 bf 5b 3f 95 f5 e1 3e
       0.43946555 0.8838277 0.858397 0.44132677
000010 1f 83 73 3f bc 82 2e 3f 3e c4 42 3f 02 6c 01 3f
       0.9512195 0.68168235 0.7608069 0.5055543
000020 23 e0 64 3f d2 57 39 3f ed df 64 3f eb df 64 3f
       0.89404505 0.7239963 0.89404184 0.8940417
000030 67 b6 0e 3f f7 df 64 3f d8 18 94 3f 1f 13 81 3f
       0.55747074 0.89404243 1.1570082 1.008396
000040 00 c6 1f 3f 1f 83 73 3f 23 a1 04 3f 1f 83 73 3f
       0.624115 0.9512195 0.51808375 0.9512195
000050 08 1f 28 3f bb e7 27 3f 93 d2 01 3f 1f 83 73 3f
       0.6567235 0.6558797 0.50711936 0.9512195
000060 b5 fa 46 3f fb 73 58 3f 06 fa 18 40 03 cf 7b 3f
       0.777263 0.8455197 2.3902602 0.9836275
000070 eb df 64 3f 22 13 81 3f 1f 13 81 3f 33 3c ad 3e
       0.8940417 1.0083964 1.008396 0.3383499
000080 ea df 64 3f b0 f0 0d 3f 6e 90 f3 3e 1f 83 73 3f
       0.89404166 0.55445385 0.4757113 0.9512195
000090 85 a9 84 3f 3e d5 81 3f 50 36 52 3f 34 31 04 3f
       1.0364233 1.0143201 0.82114124 0.5163758
0000a0 1f 13 81 3f 1f 13 81 3f 4f 15 1f 3f ed df 64 3f
       1.008396 1.008396 0.6214189 0.89404184
0000b0 ed df 64 3f 00 b5 08 3f ae d1 96 3f 13 13 81 3f
       0.89404184 0.53401184 1.1782739 1.0083946
0000c0 eb df 64 3f 1f 83 73 3f 1f 13 81 3f cc fc d4 3f
       0.8940417 0.9512195 1.008396 1.6639647
0000d0 cd 2a 83 3f 1c 13 81 3f 53 2b 2d 3f ea df 64 3f
       1.0247437 1.0083957 0.6764423 0.89404166
0000e0 9d f8 86 3e 77 45 13 3f 1f 83 73 3f 92 96 9a 3f
       0.26361552 0.5752787 0.9512195 1.20772
0000f0 ac 1a 6b 3f ea df 64 3f 95 dc 4b 3f 27 56 73 3f
       0.91837573 0.89404166 0.79633456 0.95053333

encoder.2.bias f4 [64]
000000 2e 9f 04 3e dd 01 e4 3c c0 4f a1 3e 73 0f 0d 3e
       0.12951347 0.02783292 0.31506157 0.13775425
000010 7a 3e c6 3d ee 62 83 3e 41 5f 2d be 39 a8 a5 3d
       0.09679885 0.25661415 -0.16930868 0.080887266
000020 5c 63 c0 3d 01 ee 96 3e 05 ef b5 3c af 60 34 3d
       0.09393951 0.29478458 0.0222087 0.044037517
000030 7b b3 80 3d d2 fe 51 b9 6c 69 90 be 3e 2a a2 3c
       0.06284233 -0.00020026721 -0.2820543 0.019795533
000040 f9 6a 4c 3d f0 21 6f 3d 82 af 13 bd 93 0c ed bd
       0.049906705 0.058381975 -0.03605605 -0.11574664
000050 12 17 0e 3e 21 65 9e 3e da 4d f6 3d 99 42 b1 3d
       0.13875988 0.3093653 0.12026568 0.086552806
000060 4e b0 aa be e0 6a f4 bd 67 5e 1a be f8 80 68 3e
       -0.33337635 -0.11934447 -0.15075074 0.22705448
000070 b1 70 5a 3d 99 c4 38 be 31 9d 06 be fc 31 2f be
       0.053330127 -0.18043746 -0.13145901 -0.17108911
000080 5b e8 b5 bc 11 bb 31 3d da 90 3f bd 80 19 a4 3d
       -0.022205522 0.04339129 -0.046769 0.08012676
000090 46 63 88 be 4e 75 26 be c1 18 3c be 10 68 98 3e
       -0.2663824 -0.16255686 -0.18368818 0.29766893
0000a0 05 28 f0 3d 5b 55 e6 3d b1 e1 99 be 5d a4 e9 bc
       0.11726383 0.11246749 -0.30055 -0.028520757
0000b0 fc b4 16 be d2 1c 0b 3d a2 39 9b 3e 4e f1 37 3e
       -0.14717478 0.033963032 0.30317408 0.17963144
0000c0 8f 5a 8c 3d bd 54 cc bd 4e 5a 1e bc 58 8a 1c be
       0.0685321 -0.099771 -0.009665085 -0.15287149
0000d0 1d 4c e1 3d 01 5c 06 bc 90 c0 28 be 64 3d e1 3b
       0.110008456 -0.008200646 -0.16479707 0.0068737734
0000e0 35 44 4b 3e 14 d0 09 be bb 4d d1 bd c2 bc d0 be
       0.19850238 -0.13458282 -0.10219904 -0.4076901
0000f0 a8 7a f2 bd 51 f4 af 3c e3 a5 a8 be b3 9f f6 3d
       -0.11839801 0.021478804 -0.32939062 0.12042179

encoder.2.running_mean f4 [64]
000000 5e 57 10 41 b1 9d d8 40 20 de a4 41 66 16 9a 40
       9.02133 6.7692494 20.60846 4.815234
000010 00 00 00 00 fe 08 02 41 fa 81 c6 40 9e d3 10 41
       0.0 8.127195 6.2033663 9.051664
000020 f4 d2 ec 11 5a f2 9c 41 1d f1 3e 14 b6 89 24 13
       3.7364245e-28 19.618336 9.6401e-27 2.0767607e-27
000030 e4 32 7d 40 fe f3 0a 12 0b 8a a0 40 79 35 bf 15
       3.956231 4.3845866e-28 5.016851 7.722865e-26
000040 7e c9 97 41 00 00 00 00 d3 58 d5 3c 00 00 00 00
       18.973385 0.0 0.026043331 0.0
000050 fd b2 82 3c 47 fb 9e 41 a1 e5 c5 40 00 00 00 00
       0.015954489 19.872694 6.184281 0.0
000060 0b 28 6f 41 8f 4f 87 3c 77 e5 bc 3c d3 7e bd 40
       14.947276 0.016517429 0.023058636 5.9217315
000070 12 ad 14 15 0f d7 6c 16 96 87 6e 15 7a 4f 88 41
       3.002489e-26 1.9131789e-25 4.8170676e-26 17.038807
000080 ff ba 86 14 50 70 e6 40 94 5e 0b 41 00 00 00 00
       1.3604299e-26 7.20121 8.71059 0.0
000090 d3 0b 69 41 9a 4e d7 16 2a 43 7a 40 6e 1a a1 41
       14.565387 3.4784728e-25 3.9103494 20.137905
0000a0 3e 10 0b 14 d7 7a bb 15 99 95 3e 40 bd 83 19 14
       7.02091e-27 7.5722506e-26 2.9778807 7.750507e-27
0000b0 53 d6 3a 16 2f ae fa 40 02 00 31 41 17 27 8e 13
       1.5092589e-25 7.8337626 11.062502 3.5884385e-27
0000c0 68 08 a5 14 00 00 00 00 1d 04 ca 15 3c 62 b6 28
       1.6664058e-26 0.0 8.159364e-26 2.0248661e-14
0000d0 10 7c d6 16 33 98 af 16 76 f7 4f 41 96 93 06 15
       3.465186e-25 2.8368826e-25 12.997915 2.717751e-26
0000e0 21 0e 2a 41 20 60 1c 41 00 00 00 00 41 eb c2 40
       10.628449 9.773468 0.0 6.0912175
0000f0 a2 c1 d9 40 4e 0d ff 14 16 76 7d 41 d9 5e 53 1a
       6.804887 2.5753668e-26 15.84133 4.3710395e-23

encoder.2.running_var f4 [64]
000000 d4 c8 57 40 bc e6 b3 40 f8 3e 07 40 9d 5d 35 40
       3.3716326 5.621916 2.1132183 2.8338387
000010 ea b8 7f 19 81 46 56 40 ac 31 92 40 3f 17 99 40
       1.3220534e-23 3.3480532 4.5685635 4.7840877
000020 ea b8 7f 19 ff ac f6 3f eb bc 7f 19 2d b9 7f 19
       1.3220534e-23 1.9271544 1.3221343e-23 1.3220587e-23
000030 a2 7b c6 3f ea b8 7f 19 1e 21 71 40 6e dc 7f 19
       1.550648 1.3220534e-23 3.7676463 1.32277064e-23
000040 0b 83 f0 3f ea b8 7f 19 b1 e8 8a 3d ea b8 7f 19
       1.8789991 1.3220534e-23 0.067826636 1.3220534e-23
000050 51 f7 de 3c ca 6d 04 40 c3 a1 32 40 ea b8 7f 19
       0.027217539 2.069201 2.7911232 1.3220534e-23
000060 4d 72 00 40 b9 d9 e5 3c af e1 59 3d 67 cc a6 40
       2.0069764 0.02805792 0.053193744 5.2124515
000070 4a cb 7f 19 8b 04 80 19 15 d5 7f 19 65 42 26 3f
       1.3224245e-23 1.3236725e-23 1.32262226e-23 0.6494506
000080 05 bf 7f 19 a2 9c 10 40 c9 dd f0 3f ea b8 7f 19
       1.3221767e-23 2.25956 1.8817683 1.3220534e-23
000090 fa c7 d3 3f 30 47 80 19 99 12 eb 3f 81 f6 ed 3f
       1.6545403 1.3263642e-23 1.836505 1.8590852
0000a0 33 bc 7f 19 5c e1 7f 19 2a 15 6d 40 d1 be 7f 19
       1.32211975e-23 1.3228702e-23 3.7044168 1.3221726e-23
0000b0 65 f3 7f 19 d6 cb 89 40 43 62 3d 40 19 ba 7f 19
       1.3232344e-23 4.3061323 2.9591224 1.3220773e-23
0000c0 2c c0 7f 19 ea b8 7f 19 47 df 7f 19 cd 8e e8 28
       1.3222e-23 1.3220534e-23 1.32282815e-23 2.5819104e-14
0000d0 e3 22 80 19 2e 0c 80 19 ba 46 4f 40 a1 c4 7f 19
       1.324898e-23 1.3239809e-23 3.2386918 1.32229e-23
0000e0 28 55 43 40 55 a9 26 40 ea b8 7f 19 a4 35 99 40
       3.0520725 2.6040852 1.3220534e-23 4.787798
0000f0 d5 29 92 40 cf c6 7f 19 44 a8 04 40 6b a3 9b 1a
       4.5676064 1.322334e-23 2.07277 6.4370513e-23

encoder.3.weight f4 [32, 64]
000000 de 64 91 bd 15 cc aa 3c 36 d3 79 bd f6 55 52 bd
       -0.07099317 0.020849267 -0.060992442 -0.05135151
000010 95 32 74 bc c9 aa a6 bd 59 9a 1d 3d 69 4d c4 3c
       -0.014904638 -0.081380434 0.038477276 0.023962693
000020 56 76 70 be b1 53 bc 3d 12 ea a3 bd 5e 66 ef bd
       -0.23482642 0.0919565 -0.0800363 -0.11689447
000030 08 d2 b2 bd 8c 3b 7a bd c7 cc e8 3d f7 e7 96 3c
       -0.087314665 -0.061091945 0.11367183 0.018421156
000040 01 82 80 bd 51 0b 41 be f0 6e fb 3c 7c a7 82 3e
       -0.06274796 -0.18851973 0.030692548 0.25518405
000050 be 97 70 bb c5 e0 12 bc 02 90 c9 3c 0a dc d5 be
       -0.003671154 -0.008964722 0.024604801 -0.4176944
000060 43 a4 81 bd 71 95 4b 3d f5 fa f0 3e f0 49 75 bb
       -0.063301586 0.049703065 0.47066465 -0.0037428103
000070 fd c5 a8 bd fa bd 28 3d 1b ee e0 3d 07 1c 72 3d
       -0.08240888 0.0411968 0.10982915 0.05910876
000080 9f 04 73 bc 62 66 4c 3d 19 56 a2 3c 23 29 d1 be
       -0.014832645 0.049902327 0.019816445 -0.40851697
000090 27 62 23 3e 10 b5 c7 3d e9 9f 26 3e 35 17 45 bd
       0.15955411 0.09751332 0.16271938 -0.048117835
0000a0 ba bf 37 be 17 2c 97 bc 80 7e ad bd 04 8c 7b bd
       -0.17944232 -0.01845364 -0.084713936 -0.061412826
0000b0 82 50 14 3e 50 e6 80 3a 1a c1 38 be 5b 6b 7a bd
       0.14483836 0.0009834263 -0.18042412 -0.06113754
0000c0 b2 9f 55 bd 75 08 39 3e 65 df 3e bd 88 6e 00 be
       -0.05215425 0.18069632 -0.046599764 -0.12542164
0000d0 5c 31 e9 3c 63 9f 56 bd ff 72 93 3c 31 b2 a8 3c
       0.02846592 -0.052398097 0.01799917 0.02059278
0000e0 0a 2f 16 bd d4 14 9a 3c 7e 25 cf 3d 47 ad ce 3d
       -0.036665954 0.01880876 0.10114573 0.10091644
0000f0 bc fa ed 3d 5b 00 ed 3b e7 e9 03 3b 5e 6d 12 3d
       0.116200894 0.0072327084 0.002012843 0.035748832
000100 7b 01 3b bd 1b b5 98 bc 17 ea 58 3b a9 44 5c 3c
       -0.04565571 -0.018641045 0.0033098513 0.013444104
000110 da 7a ee bc 3d dd 2d bd be 0d b2 3c f4 b6 be bd
       -0.029111315 -0.042447317 0.021735068 -0.09312239
000120 2b f6 ee bd b8 2c 34 3c 49 1c c1 bd 32 12 1f be
       -0.116680466 0.01099699 -0.09429223 -0.15534285
000130 9e 8a 97 3d d7 d7 47 3e e6 3d 74 3c 75 3b 09 be
       0.07399486 0.1951593 0.014907336 -0.13401587
000140 50 eb 52 bd 8f 07 69 be 72 55 6f bd 44 9b 11 3e
       -0.051493943 -0.2275679 -0.058431096 0.14219385
000150 97 c4 07 3d 13 bc f1 bd ce 19 e6 bd 0d ed bb be
       0.033146467 -0.118034504 -0.112353906 -0.36704293
000160 9e 21 1b 3d 0f 52 2b 3d 06 de 49 3f a0 3a 96 39
       0.037873857 0.041826304 0.78854406 0.00028653909
000170 88 aa 1c bd 1a ca 7d 3e 24 5f a2 3d 6f 58 23 3c
       -0.03824857 0.24784127 0.07928303 0.009969815
000180 7f 5d 8c bd 54 9a 91 bc 90 33 e0 3c f9 95 6b be
       -0.068537705 -0.017773785 0.027368337 -0.23006429
000190 b7 11 6e 3c ba c4 8c 3e af 29 0e bd 2b 0c 28 3d
       0.014530591 0.2749384 -0.03470772 0.04102723
0001a0 7d 08 a9 be b4 76 b1 be 8c 23 8c 3d 19 53 b5 3d
       -0.3301429 -0.34660876 0.068427175 0.0885374
0001b0 79 f1 58 3e fd 92 e9 3d bb 24 a7 bd c3 d0 9b 3c
       0.21185865 0.11404989 -0.08161303 0.019020444
0001c0 91 8b 3b be ca 03 55 3e 53 a2 02 3e ae c2 80 3e
       -0.18314959 0.20802227 0.12757234 0.2514853
0001d0 a8 d9 10 be 2d 04 48 bd 43 79 df 3d 39 e1 fd 3d
       -0.1414553 -0.048832107 0.10911801 0.123964734
0001e0 26 a2 ad 3c 85 61 7a 3d 98 f7 3c 3e ca d8 19 bd
       0.021195482 0.061128158 0.18453825 -0.03756026
0001f0 64 73 33 3d f4 89 7d bd 05 1a 51 3a 80 f4 8e bd
       0.043811217 -0.06189914 0.00079765945 -0.069802284
000200 30 30 3a 3d 3b f1 1f bd c5 e5 ca bd 98 a2 5b 3c
       0.04545611 -0.039048415 -0.09907106 0.013405465
000210 db 32 8f bc c4 e1 32 be 81 0c 69 3c ab 2a 17 bd
       -0.017480304 -0.17468935 0.014224173 -0.036905926
000220 67 18 be be a9 09 64 bd 44 b5 96 bd 07 85 dc be
       -0.37127993 -0.055673275 -0.073587924 -0.43070242
000230 e8 2e 45 3e 5b 35 cd 3d 05 d3 98 3b 37 4b ab bd
       0.19256175 0.100199424 0.0046638274 -0.083639555
000240 7c 80 c4 3d 1b 14 38 bd 0d d0 70 bd 16 cf ec 3e
       0.09594819 -0.04494105 -0.058792163 0.46251744
000250 6b 7c e3 bc c2 dd b4 3d 2d 39 70 bd 0d 9c c1 be
       -0.027769288 0.088313594 -0.058648277 -0.3781437
000260 03 62 40 bd 9f 0d ad b9 8d 8f a7 3d 8e 7f a3 3c
       -0.04696847 -0.0003300728 0.08181677 0.019958284
000270 ba 50 fe bd 43 e3 5d 3e eb e8 0d 3d aa 5c 92 3d
       -0.12417741 0.21668725 0.034645956 0.071465805
000280 84 27 31 3d 4d 6b 13 3e 96 2a 4e bd f0 c7 c4 be
       0.043250576 0.14396401 -0.050333582 -0.3843379
000290 6d c1 ed bd 54 b8 68 3e 1c 90 07 be 34 30 5d bd
       -0.11609159 0.22726566 -0.13238567 -0.05400105
0002a0 af 21 02 bf 9b 21 a5 be 82 1b fe 3d a2 ca 9e 3e
       -0.5083265 -0.322522 0.124075904 0.31013972
0002b0 40 19 b1 3d 9a 51 2c 3c 3f 36 3b 3e 76 3a 46 be
       0.08647394 0.010517502 0.18282412 -0.19358239
0002c0 47 6f b8 bd 3b 3d c7 3e 4e 1d 96 3c 4c 30 e9 3e
       -0.090055995 0.38913903 0.01832452 0.4554466
0002d0 53 87 12 be 08 8c 91 be e5 4f 8e 3d 27 88 35 3e
       -0.14309435 -0.28427148 0.069488324 0.17727719
0002e0 7f 0b a4 bc e6 18 d1 3d ff 44 af 3e 6d b2 8c 3d
       -0.020025013 0.10209827 0.34232327 0.068699695
0002f0 42 51 f5 3d 9e 50 15 3d 0b 8c 3b 3d 4f 42 23 3e
       0.11978389 0.036453836 0.045787852 0.15943263
000300 9b f1 8a bd d0 ea 2a 3d a1 ea ba bc c0 2f 1d bd
       -0.06784364 0.04172784 -0.022816958 -0.038375616
000310 f3 4a 65 bd d4 e8 3e 3a c1 64 90 bd f5 95 2a be
       -0.05597968 0.0007282619 -0.07050467 -0.16658767
000320 e4 55 bf be a3 1b 71 bd eb 4b c7 bd cf aa 5c bd
       -0.37370217 -0.058864247 -0.09731277 -0.053873833
000330 a0 6f 8a bd 51 50 ae bd 74 c5 e6 3c 6b f2 ca bc
       -0.06759572 -0.08511413 0.028170325 -0.024773797
000340 69 59 1e be 7c 62 23 bc ce 76 3b bc c7 75 82 3e
       -0.15463795 -0.009972211 -0.011441899 0.25480482
000350 a8 e1 00 bb 94 7f 8c 3d 85 c4 32 bd 35 07 2e be
       -0.0019665752 0.06860271 -0.043644447 -0.16994937
000360 b9 66 59 bd a5 45 10 be 5b b0 db 3e 0f ab c8 3d
       -0.05307648 -0.14089067 0.42907986 0.09798252
000370 0d b5 86 be 36 18 d0 3e 36 34 0f 3e b9 55 5d 3d
       -0.26310006 0.4064347 0.1398476 0.05403683
000380 f8 c6 d5 bd cf 60 47 3d b4 84 2d 3d 94 0a 32 be
       -0.10438341 0.04867631 0.042362884 -0.17386848
000390 a1 61 97 bb ef 4a 04 3e f7 09 f2 3d dc cd 04 3b
       -0.0046197926 0.1291921 0.11818307 0.0020264303
0003a0 a0 c9 93 be ca 36 1e bd 0b 2e bf bb 95 67 1e 3e
       -0.28864765 -0.03862647 -0.005834346 0.15469201
0003b0 4f d0 45 3e f6 3d f5 3d d7 b5 7f bd 18 53 9b be
       0.19317745 0.11974709 -0.062429275 -0.30336833
0003c0 5c 70 08 bf cf 90 5e 3e 8b 24 b8 bd 5a a1 b5 bd
       -0.53296447 0.21734928 -0.08991345 -0.08868666
0003d0 5e 67 29 be dd 13 2b be e4 df 7a 3b f7 9d 9f bd
       -0.16543338 -0.16706796 0.0038280422 -0.07793801
0003e0 53 53 11 bb 56 89 9f 3c 54 14 0c 3e 41 dd 9c bd
       -0.002217491 0.019474667 0.1367963 -0.07659388
0003f0 16 ca b5 3d 6a 2f 14 bd 90 7d 12 3d e4 16 33 be
       0.088764355 -0.03617803 0.035764277 -0.17489201

encoder.3.bias f4 [32]
000000 f5 24 81 bd d2 04 6f be 20 51 c6 be c1 de d7 bd
       -0.06305877 -0.23341683 -0.38733768 -0.10540534
000010 de 8e b0 be b3 ff 2e be 29 8f 27 be 37 79 5d be
       -0.34484 -0.17089729 -0.16363205 -0.21628271
000020 8f 7d 0d 3e 3c 7a 0c 3b a3 af 48 3e 0f 95 24 be
       0.13817428 0.0021435162 0.1959825 -0.16072486
000030 7e fd 0b be c3 08 ee bd 73 1b fd 3d bd fd ed bd
       -0.13670918 -0.11622765 0.12358751 -0.11620662
000040 1d 7f cf bd 68 18 6f be 91 1c 26 be 32 aa e2 bd
       -0.10131667 -0.23349154 -0.16221835 -0.110676184
000050 34 ed 08 be 29 d6 fc bd 00 89 0c be 63 19 cf 3d
       -0.13371736 -0.12345535 -0.13724136 0.10112264
000060 a4 86 b5 bc dc 05 a5 bd ed 85 57 be fd 75 57 3e
       -0.022158928 -0.08057758 -0.21047182 0.21041103
000070 32 37 4c be eb df 23 3e 03 eb 88 bd 00 a9 23 bd
       -0.1994293 0.16003387 -0.0668545 -0.039956093

encoder.5.weight f4 [32]
000000 22 b3 14 3d 88 10 c0 3e 3d d3 08 bc 55 1b 05 3f
       0.036303647 0.37512612 -0.008351144 0.5199483
000010 d1 e7 1a bd 59 c5 52 3e 3d 82 e9 b9 64 aa ce 3d
       -0.037818734 0.20583095 -0.00044538258 0.10091093
000020 93 9d 54 3e 8f f6 26 3d 3b 53 d3 3b ea 32 c8 3d
       0.20763235 0.04076248 0.006449131 0.09775336
000030 2b 67 92 3d bb e7 d6 3d 5a c1 cb bc a3 66 79 3e
       0.07148584 0.10493418 -0.02487247 0.24355559
000040 32 05 24 bc b1 a3 c5 3d e1 c1 6c 3d f3 9c e8 3d
       -0.010011004 0.09650362 0.057802085 0.11358061
000050 22 4d 2c 3e 6e 5a 00 3e 05 42 ce bd 98 80 27 3e
       0.16826299 0.12534496 -0.10071186 0.16357648
000060 46 85 45 3d 9d f3 09 3f c0 c6 80 3b 46 be 40 3e
       0.048222803 0.5388735 0.003929943 0.18822584
000070 96 b2 36 3d e5 08 10 3d c3 02 10 3f a8 23 21 3c
       0.044603907 0.035164732 0.56254214 0.009835161

encoder.5.bias f4 [32]
000000 80 dd 1b 3d a2 44 09 be 9e d9 64 bd c3 25 3d 3d
       0.038053036 -0.13405088 -0.0558716 0.04617859
000010 22 90 51 bd 83 8e d7 bd 2b 22 38 bd 43 ba d6 bd
       -0.051162846 -0.10525229 -0.04495446 -0.10484745
000020 fd b9 aa 3c 02 4c d1 3c 46 8c f1 3d a1 1e e8 bd
       0.02084064 0.025548939 0.11794333 -0.11333967
000030 ae 91 08 be 1a 99 ca 3d 11 15 a0 3d e1 72 ed 3b
       -0.13336822 0.09892483 0.07816518 0.0072463606
000040 c5 2a 9d 3d df 7f d3 3c 29 17 30 3d 0e cb 1f bb
       0.07674173 0.02581781 0.042990837 -0.0024382505
000050 00 f9 82 3d af 91 c8 3d 42 58 9e 3a cf 46 be bc
       0.06395149 0.09793412 0.0012080746 -0.023227124
000060 6c b7 59 bd ac 9c 69 be 6a 64 ea bc 50 90 64 be
       -0.05315344 -0.22813672 -0.028612334 -0.22320676
000070 06 cc 3f 3d 18 5b 11 bd ac 42 2c bc 50 15 08 bd
       0.04682543 -0.035487264 -0.010513943 -0.03322345

encoder.5.running_mean f4 [32]
000000 12 ce 5b 3e dd 7e 3e 3e b5 c4 14 3c 55 2b ce 3d
       0.21465328 0.18603082 0.009080102 0.10066859
000010 b5 92 21 3c c2 35 c4 3e 0d c2 a1 3e e7 e6 41 3e
       0.009861638 0.38322264 0.31593361 0.18935739
000020 bf 51 89 3f e6 fa b9 3e d3 d0 38 3f 63 ca 02 3f
       1.0728072 0.36324233 0.7219364 0.5109007
000030 78 0c 16 3f 18 0d 08 3f df 9a e8 3e 3e 3e e0 3e
       0.58612776 0.5314498 0.45430657 0.43797487
000040 80 3b e4 3e b6 d8 4a 3c 6f cf da 3e 8c 68 be 3e
       0.44576645 0.0123807695 0.42736384 0.37189138
000050 ff 2d f4 3e 33 77 ce 3e b8 8b d4 3e e4 d5 12 3f
       0.47691342 0.40325317 0.41512847 0.5735762
000060 6a 8e e8 3e fa a4 20 3e 8c 52 ff 3e aa 49 69 3f
       0.45421153 0.15687934 0.49867666 0.9112803
000070 c0 f5 02 3f df 1b 32 3f e2 e1 76 3e 0d 43 db 3e
       0.51156235 0.6957378 0.24109605 0.42824593

encoder.5.running_var f4 [32]
000000 35 cd 18 40 62 70 5a 40 8e eb 07 3c c4 ca 81 3f
       2.3875248 3.4131093 0.008295907 1.0140004
000010 20 1d 20 3c d9 33 8c 40 ae e1 35 40 30 68 1c 40
       0.009772569 4.381329 2.8418994 2.443859
000020 e2 64 18 40 91 0c da 3f 2d dd 34 40 1d 75 d9 40
       2.3811574 1.7035085 2.8259995 6.795546
000030 f5 a1 a0 40 fd 67 a4 40 31 6e 4f 40 20 f5 c5 40
       5.01977 5.137694 3.2411005 6.1861725
000040 4e f6 14 40 4d 27 7c 3c 18 ee 82 40 f8 bc 73 40
       2.3275332 0.015390229 4.091564 3.8084087
000050 af df 35 40 96 23 42 40 1f 76 f3 3f a4 36 87 40
       2.8417776 3.033422 1.9020423 4.22542
000060 ef e1 6a 40 cc ce 12 40 69 b8 fe 40 3c cf 3a 40
       3.67004 2.2938719 7.960011 2.9188986
000070 8f 9e 8f 40 80 f0 03 40 d8 e8 0a 40 5e 3e a2 40
       4.4881053 2.061554 2.1704617 5.070113

encoder.6.weight f4 [10, 32]
000000 4a 93 b5 3c f7 11 6c 3d 5e 9b 32 bd 51 a0 b8 3b
       0.02216496 0.05763432 -0.0436052 0.0056343456
000010 8d a6 7f 3b e3 95 89 bc 2e be 1a 3d dd 51 df 3c
       0.0039009184 -0.016795104 0.037779026 0.027260715
000020 ad b7 c5 bc 82 d0 ef 3c cf 82 85 3b ad e2 02 bd
       -0.024135435 0.029274229 0.0040744315 -0.031954456
000030 00 1f b6 bc fd 25 03 bd ef be ae 3c 6a 8e b5 3d
       -0.022231579 -0.03201865 0.021331279 0.08865054
000040 05 76 dc 3c a3 10 bb b9 a7 2a 02 3c 4d 71 d2 3c
       0.026911745 -0.00035679815 0.007944739 0.025688792
000050 05 c8 44 bd d5 9a 1b bb 25 96 a8 bc 9d 9b 1e 3d
       -0.048042316 -0.002374341 -0.020579407 0.038722623
000060 26 c3 91 bc 0b 71 52 3d c0 ce 11 bd 9e 5c b4 3c
       -0.01779325 0.051377337 -0.035597563 0.02201682
000070 8c b8 ae 3c 58 5a 87 3c 4f f7 dc bb 51 bf 0e bc
       0.021328233 0.016522571 -0.0067433487 -0.008712606
000080 ab 46 81 3d be 1d 73 3d 14 c1 45 3c fa 8d 4b 3d
       0.06312307 0.059354536 0.012069959 0.049695946
000090 27 26 c8 bb 34 d7 15 3e ba 0d 75 3d 49 91 d2 3d
       -0.0061080637 0.14632875 0.059827544 0.10281617
0000a0 6b c3 5b 3d ee d8 d9 bc 89 56 43 3c 1a 4d 78 3d
       0.053653162 -0.026592698 0.011922487 0.060620405
0000b0 55 1e 00 3e e3 f2 73 bd 0f ab c2 bc 07 92 86 3d
       0.12511571 -0.059557807 -0.023763208 0.06570821
0000c0 92 36 aa 3c 59 ad e1 bd 9a 11 f3 3d 5d ca c3 3d
       0.020777974 -0.110193916 0.118685916 0.09560082
0000d0 de 7c c6 bd 39 c8 3a bd 9e 6b 85 bc ef db ab bd
       -0.09691785 -0.045601103 -0.016286667 -0.083915584
0000e0 c7 fa 62 bd d3 6e c9 3d 68 f2 86 3d f5 d2 62 bd
       -0.05541494 0.09835591 0.06589204 -0.055376966
0000f0 ff 60 ad 3d 24 e0 d8 bc ad e7 f1 3c 85 89 14 3d
       0.08465766 -0.026474066 0.029529417 0.03626396
000100 02 d0 ac ba 53 ae 10 3c af 34 b5 3c 58 20 f4 ba
       -0.001318455 0.008830625 0.022119848 -0.0018625362
000110 55 26 b2 bd db 02 3b bd 8c 62 d7 bd 06 14 3b 3d
       -0.086987175 -0.04565702 -0.10516843 0.045673393
000120 c9 9a 6b 3c 3d c1 22 bd 15 4e 77 bc 39 e8 4f 3b
       0.014380165 -0.039735068 -0.0150943 0.003172411
000130 33 11 89 bc e0 0b 46 bd 15 46 f6 bc 1b f6 f5 bd
       -0.016731834 -0.04835117 -0.030062715 -0.120098315
000140 2b 9f 2e 3a 69 f4 58 3d d4 45 30 bd 16 c0 12 be
       0.0006661291 0.052967463 -0.043035343 -0.14331087
000150 1e 76 46 bd b1 6d 56 bd bb 58 08 bd 59 bd 8e bd
       -0.04845249 -0.052350704 -0.033287745 -0.06969709
000160 fc b3 ab 3c 0b c9 71 bb b9 84 a9 3a ed 41 f5 ba
       0.020959847 -0.0036893513 0.0012933231 -0.0018711664
000170 5e 03 2f bd b9 ea 08 bc 17 86 2f 3c 8d 63 6c bc
       -0.04272782 -0.0083567435 0.010713122 -0.014428032
000180 f6 66 30 bc 85 bc 16 bd 15 54 2a bd 2c e4 3d bc
       -0.010766735 -0.03680088 -0.041584093 -0.011590045
000190 01 ee 97 bc 98 42 b6 3c b1 12 a4 3b ca 76 5e bd
       -0.018546106 0.022248551 0.005007111 -0.054312505
0001a0 ea ae 74 b9 52 2f 0b bc 9e 61 7b 3c 69 4f 0f 3d
       -0.00023334814 -0.008495169 0.015343098 0.03498784
0001b0 0e 1a 4a bd aa 63 8e 3c 17 be f3 3b bf 7a 16 bd
       -0.049341254 0.017381508 0.007438432 -0.036738154
0001c0 73 95 ad bc 95 d6 26 bd e1 5f e0 3b b7 4e b6 3c
       -0.021189427 -0.040731985 0.006847367 0.022254331
0001d0 4f ea 74 3d ed f9 3d 3d 53 1e 7a 3c 80 14 c3 3c
       0.059793767 0.046380926 0.015266019 0.023813486
0001e0 5d 31 ca 3c 7e f1 46 bd 91 e7 34 3d dc 50 e2 bb
       0.024681741 -0.04857015 0.04416615 -0.006906612
0001f0 7d ec ea bc b3 42 4d 3b 7a a0 72 bb e2 07 0a 3c
       -0.02867722 0.0031320273 -0.003702192 0.008424731
000200 25 e3 a6 3c 0f 2f 81 bc 60 36 1e 3c d1 ff ec 3c
       0.020371983 -0.01576951 0.009656519 0.028930577
000210 8a f3 06 3d eb d3 9a 3d c0 45 8b 3c 04 eb a3 3c
       0.0329471 0.075599514 0.017001033 0.020009525
000220 10 a4 ae bc 61 41 80 3d 25 fc 10 3c 46 14 17 bc
       -0.021318465 0.0626247 0.008849178 -0.009221142
000230 65 b2 b6 bb df 23 91 bb 4f dd f9 3c 33 c0 95 3d
       -0.0055754655 -0.004429325 0.030501036 0.0731205
000240 1b 72 b5 bb 6c 4c 0c bd 3e 7b 03 3d 80 46 ac 3b
       -0.005537284 -0.03425257 0.032099955 0.0052574277
000250 42 91 27 3c 8d e3 2b 3d a0 ad 03 3d 1a 63 7a 3d
       0.010227503 0.041965056 0.032148004 0.061129667
000260 99 77 01 3d d9 9e 02 3d bf 03 62 bc 3f bf 57 3c
       0.031608198 0.03188977 -0.013794838 0.013168155
000270 1b a3 f3 3c f5 d8 56 3c d1 ee 35 bc 6d f3 ed bb
       0.02974086 0.01311325 -0.011104302 -0.0072616846
000280 1e c4 d6 bc e3 2d 97 3c d2 60 8a 3d d8 6f 5c 3c
       -0.026216563 0.018454498 0.06756748 0.0134544
000290 e5 06 03 bd 38 a3 71 bc 1a 46 22 bd ce 5a 29 bd
       -0.031988997 -0.014748387 -0.039617635 -0.041346364
0002a0 2d c6 9c bd 5f 69 0f bc 46 55 00 3d d3 d2 ec bd
       -0.076549865 -0.00875315 0.031331323 -0.11563649
0002b0 24 fe bb 3b 83 f5 26 bd c6 68 f1 3c 55 3c c9 bd
       0.005737083 -0.040761482 0.029468905 -0.098259605
0002c0 76 5d 87 bc 7b 66 18 3e 38 bf 9f 3c ae 65 93 bc
       -0.016524058 0.14882843 0.01950036 -0.01799282
0002d0 1c e7 d2 bd 18 68 a3 bd 48 dc 2a bd 96 49 a0 3d
       -0.10297987 -0.07978839 -0.041713983 0.078265354
0002e0 1e a4 5f bd 79 29 db bc 4c 5b 42 bc 83 16 a3 3d
       -0.054599874 -0.026753174 -0.011862587 0.07963278
0002f0 98 10 98 bd ff a4 41 3d 50 f5 eb bc 4a 83 5b 3c
       -0.0742504 0.047276493 -0.028803498 0.013398001
000300 49 48 10 3d 2b 96 d2 3d 8f 41 2a bd 75 cf de 3c
       0.035225186 0.102825485 -0.041566428 0.027198533
000310 be aa bb bc 0d 8c 61 3d ac 50 5c 3d 1e fe 4f 3c
       -0.022908565 0.055065203 0.053787872 0.012694864
000320 d7 57 88 3d de 1d 30 bd dc 7f b4 3c bd f6 e0 3d
       0.06657379 -0.042997234 0.022033624 0.109845616
000330 3c 54 1f 3d 65 e6 02 bd a2 05 89 bc 0a 23 93 3d
       0.03889869 -0.031958003 -0.016726319 0.071844175
000340 a0 96 26 3d 1c 0c 3f bd ae bc 4f 3d 3b a0 da 3c
       0.04067099 -0.046642408 0.05071705 0.026687732
000350 bc af ec bd cf a5 c4 bd c3 54 03 bd 89 ca be bd
       -0.11556956 -0.09601938 -0.032063257 -0.09315974
000360 10 ee 77 bd 36 76 99 3d ec 08 c6 3d 29 f5 65 bd
       -0.06052977 0.0749325 0.096696705 -0.056142006
000370 72 5a cb bb 55 f6 09 bd 2b 5c 16 3d e8 5e e9 3c
       -0.0062058503 -0.033682186 0.036708992 0.028487638
000380 fd b0 d2 3b 8a 03 c9 bd 29 88 44 bd a4 8c 23 3d
       0.00642979 -0.09815128 -0.047981415 0.039929047
000390 63 67 90 3d b0 e6 33 3d 94 0d dd bb 8f 3a c9 bd
       0.070509695 0.043921173 -0.0067460034 -0.09825622
0003a0 8d b0 3b 3d 98 2e 49 3d 5a 42 1b 3c 83 d1 c2 bc
       0.04582267 0.0491167 0.009476269 -0.023781544
0003b0 89 c9 b3 3c 79 cc c6 3d e6 2a 9f 3a b3 9e 99 3a
       0.021946685 0.09706969 0.0012143522 0.001172027
0003c0 4a a3 3c bc 66 37 0d be c6 3e 58 3d 36 9b 3e 3d
       -0.0115135405 -0.13790664 0.05279424 0.04653474
0003d0 ae 75 7d 3e 47 52 2c 3e f9 a3 fb 3c 45 b4 ab 3c
       0.24751922 0.16828261 0.030717837 0.020959983
0003e0 a9 2b c3 3d 64 88 0c be 4c 51 e5 3c e9 dd 84 bd
       0.09529812 -0.13723904 0.027992867 -0.064876385
0003f0 59 20 7a bd c4 3d d5 bc d2 fc 0c 3c 20 31 0f 3d
       -0.061066005 -0.026030429 0.008605199 0.03495896

encoder.6.bias f4 [10]
000000 f2 96 bd 3e 8d a5 aa 3e db cf 5f bd 32 58 22 be
       0.37029225 0.3332943 -0.054641586 -0.15853956
000010 ef 93 55 3d d8 93 01 bf 6b 21 6e be 06 8c c2 bc
       0.052143034 -0.50616217 -0.23254935 -0.023748409
000020 7e b5 b9 bb b8 b7 2a be
       -0.0056673875 -0.16671646

covar_module.base_kernel.raw_lengthscale f4 [1, 10]
000000 7a 3e 50 bf ab 78 25 bf dd 39 3a bf c7 b0 43 bf
       -0.8134533 -0.6463725 -0.7274454 -0.76441616
000010 ad ea 47 bf f0 bd 40 bf 51 8e 0e bf 9d 73 07 bf
       -0.7809246 -0.7528982 -0.5568591 -0.52910787
000020 5d 52 2b bf 09 53 36 bf
       -0.6692255 -0.7122045

feature_extractor.encoder.0.weight f4 [64, 768]
000000 0d cd d8 bc 93 25 1d bc 7b e6 f4 3d ff 0b 3d 3d
       -0.026464963 -0.009591478 0.11958023 0.04615402
000010 97 d5 21 bd dc 9b f5 3d b9 e0 84 3d 44 0c 30 3d
       -0.039510336 0.119926184 0.06488175 0.042980447
000020 24 f8 8e bd 74 50 01 3c 42 86 93 3d e8 d4 35 3d
       -0.06980923 0.007892717 0.07203342 0.044392496
000030 90 c5 73 bd dc 9c 7c 3e 66 40 2b be 70 43 b6 bd
       -0.059514582 0.24669212 -0.16723785 -0.088995814
000040 90 7c 3c 3e 44 69 91 bd cb 20 9f 3c 59 7e cc 3d
       0.18406892 -0.07100156 0.019424817 0.099850364
000050 cc 60 09 3d 78 af f5 bd 34 f0 89 3d 37 46 5c 3d
       0.03353958 -0.11996359 0.06735268 0.0537779
000060 fa 03 a6 3d d1 c9 08 3e 16 1c 77 3d fc 60 94 3d
       0.08106227 0.13358237 0.06032952 0.07245061
000070 0a 80 0f 3d 88 6c 04 bd ac 06 8e 3d d0 30 f4 3c
       0.035034217 -0.032330066 0.06934866 0.029808432
000080 d6 25 8c bc 81 51 9b 3c 11 97 bd 3c b2 0d 8b 3d
       -0.017107885 0.018959763 0.023143323 0.067897215
000090 c5 8f 0e be 18 ce b1 bd 04 7f a1 bd 12 cb a7 bc
       -0.13922031 -0.086818874 -0.078855544 -0.020482574
0000a0 a0 e7 91 3d be 19 92 3d c1 c6 b6 bd 85 e3 56 3e
       0.07124257 0.07133816 -0.08924628 0.2098523
0000b0 57 47 1b 3d 7d 7e 74 bd 26 1e 07 3e 3e 83 90 bd
       0.03790983 -0.05969094 0.13195094 -0.070562825
0000c0 ea 04 e8 3d 14 0e c1 bb 2e 5c 8c 3d 43 87 45 3d
       0.11329062 -0.005891571 0.068535194 0.0482247
0000d0 59 b4 2e 3e 48 1a 0e be d0 65 c3 3d 40 ec 07 be
       0.17060985 -0.13877213 0.095409036 -0.13273716
0000e0 9b 61 a3 bc 05 a9 57 be d0 88 52 3e a9 bd bf bb
       -0.019944003 -0.2106057 0.20560002 -0.0058514667
0000f0 fd 73 75 3c 5b e5 c5 bd 44 fd 12 bc 21 76 d0 3d
       0.014981267 -0.09662887 -0.008971516 0.10178781
000100 d0 ad 6b 3d 44 d7 aa 3d 51 85 94 3d 10 1e 56 3d
       0.057538807 0.0834184 0.072519906 0.052274764
000110 99 8a 24 3c 21 7e 64 bd 20 4d 52 bd 88 2a af 3d
       0.01004281 -0.05578435 -0.051343083 0.08553034
000120 36 91 ff 3d ba f4 18 3d 6b 3a b2 3d 2d 80 e5 3c
       0.12478869 0.037342764 0.087025486 0.02801522
000130 47 af 1c 3e d6 c4 aa 3d 87 8e 09 be 3a 7f 6d 3d
       0.15301238 0.08338325 -0.13433276 0.05798266
000140 38 e5 7a 3d 60 cb 5d bd 5d 8f 03 bc f0 a9 7a 3d
       0.061253756 -0.05414903 -0.008029786 0.06119722
000150 09 a4 a1 bd cb 00 92 3e 93 cd 29 bd 95 b5 a0 bc
       -0.07892615 0.2851623 -0.041455816 -0.019617835
000160 32 ca 37 3d fe 38 10 3e 15 67 d2 3c 53 0c c5 bd
       0.044870563 0.14084241 0.025683919 -0.09621491
000170 51 30 4f bc cc 9d b7 3d a1 da 81 bd 25 36 74 3d
       -0.012645797 0.08965644 -0.06340528 0.05962195
000180 70 ba 46 3d 39 d2 8f 3d cc 8b eb 3d 16 d5 a1 3d
       0.048517644 0.07022519 0.115012735 0.07901971
000190 a5 18 5f 3d cd f0 0e 3e 8f 42 58 bd 1c 90 96 3d
       0.054466862 0.13959046 -0.05279785 0.073517054
0001a0 45 4b 9c 3d 3d b7 c8 bd bd 26 d1 3d 50 06 3b 3e
       0.07631544 -0.09800575 0.10212467 0.18264127
0001b0 30 ec 24 3d 0a ec f8 3d 1b e6 d8 3d 9a c6 82 3d
       0.04026431 0.12154396 0.10590764 0.063855365
0001c0 55 77 11 bc 99 2e e7 3c ad 0a 19 bd ee b6 79 bb
       -0.008878549 0.028220462 -0.037363697 -0.003810342
0001d0 ff 43 d9 3c d9 f8 19 3e f3 8f ee 3d 20 05 8c 3d
       0.02652168 0.15036334 0.1164855 0.06836915
0001e0 5b fb 29 3d 18 57 0b 3d 92 14 9b 3e 4e fc 1a be
       0.041499477 0.034018606 0.3028913 -0.15135309
0001f0 98 a5 82 bd 67 2e 44 3d 4b de 7d bd 4e 97 45 3d
       -0.06379241 0.047895815 -0.061979573 0.04824
000200 68 00 a1 bd 5b 57 b0 3d 3d 63 90 3c dd 53 0e 3c
       -0.078614056 0.08610412 0.017625446 0.008686987
000210 88 ad 6b 3e a5 d5 8c be 0b bb 84 be ce ce ab 3c
       0.23015416 -0.27506748 -0.25923952 0.020972636
000220 da cc 8c bc bf 18 1e 3d 93 cb 45 3e 7f 1f d7 3d
       -0.017187525 0.03859782 0.19315939 0.10504054
000230 f6 0d 22 3d 59 20 54 bc 00 cc b8 3c 35 90 2f bd
       0.039564095 -0.012947165 0.022558212 -0.042862136
000240 96 e6 bf 3d 0b 98 48 bd f7 61 77 bb 0b 05 b8 bc
       0.09370153 -0.048973124 -0.00377476 -0.022463342
000250 98 5c 42 3d 00 88 75 bd e6 90 8a bb 97 6d 98 3d
       0.047451586 -0.059944153 -0.004228699 0.074427776
000260 78 f9 11 3e 37 21 2c 3e a2 b5 f9 3c 40 76 0d 3e
       0.14255321 0.16809545 0.030482117 0.1381464
000270 35 cc 83 3d 5f 98 ae 3c 45 db 7e 3d 2b 14 d1 bc
       0.06435434 0.02131289 0.06222083 -0.025522312
000280 b8 8f c5 bb 6f 19 f8 ba fb 7d fc bd 28 bd a9 3d
       -0.0060290955 -0.0018928478 -0.12328716 0.08288032
000290 28 d0 0a be e0 91 ce 3d 63 2b bf bd 5f 57 14 3e
       -0.13555968 0.10086417 -0.09334447 0.14486454
0002a0 45 f0 0d 3e 86 85 ae 3d a7 6a b4 3d 9e db c2 3c
       0.13861187 0.08521561 0.08809405 0.023786362
0002b0 36 6d 3e 3e b3 b0 e8 3d e7 7d 82 3d 69 2b b9 3d
       0.18596348 0.11361828 0.0637167 0.09041483
0002c0 90 c9 62 bd 59 46 14 3d ee 25 b9 bd 17 f7 ba 3d
       -0.055368006 0.0361999 -0.09040438 0.0912916
0002d0 44 a3 19 3c c2 d5 d5 3d a8 1a 37 be 98 0d 05 be
       0.009377304 0.10441162 -0.17881262 -0.12993467
0002e0 50 f2 a9 3d da b0 04 be a8 3c 31 3e 3b e6 56 be
       0.082981706 -0.12958089 0.17308295 -0.20986263
0002f0 85 fd 4d bd 57 e9 b0 bd be b7 b2 3d 4c ce a5 3d
       -0.050290603 -0.08638256 0.08726452 0.08095989
000300 db ea a0 bd a3 d2 d4 bc 78 28 97 3d 2d f0 3a bc
       -0.07857295 -0.025979346 0.07380766 -0.011409801
000310 3e f3 92 bd bb 42 76 bd 8a b2 7a bc 60 f6 83 3b
       -0.07175301 -0.060122233 -0.015301356 0.004027173
000320 e5 0e 3a 3d 16 db 56 be 2b 75 52 3e 65 fb 8b 3d
       0.04542436 -0.20982012 0.20552509 0.06835059
000330 e4 af 84 bc c3 85 1f bd b2 c1 b6 3d fc c6 f1 3c
       -0.016197152 -0.038945924 0.08923663 0.029513828
000340 53 b5 47 be 77 f7 ec bc 80 c3 e2 3d ba bb 07 bc
       -0.19502763 -0.028926594 0.11072445 -0.008284504
000350 e8 c4 32 3d 14 8c de bd 29 64 b6 3d c3 fc b7 3d
       0.043644816 -0.108665615 0.08905823 0.08983757
000360 ef 8d 1e be 4b 8d 7e 3d 3a c0 90 bd 7c e5 2b 3d
       -0.15483831 0.062146466 -0.07067914 0.0419669
000370 52 c4 5b bd 44 e4 1e bd 64 90 48 bc 96 50 eb 3d
       -0.053654023 -0.03879191 -0.012241457 0.1148998
000380 5c 17 59 3c c7 95 1d bc ce e6 79 3e d1 58 94 bc
       0.013250198 -0.009618229 0.24404451 -0.018108757
000390 f2 af 95 3d 9a 7e 0f 3d 0b 8c 0b 3d 12 e2 d2 3d
       0.073089495 0.035032846 0.034069102 0.10297026
0003a0 70 8f 05 3e 2a 22 48 3d 0a 8a 91 3c c3 b4 0c 3e
       0.13042998 0.048860706 0.017766017 0.1374083
0003b0 ad df 61 3d 70 67 a7 3d d2 57 da 3c 49 ab b0 bd
       0.055144954 0.08174026 0.026653204 -0.0862642
0003c0 36 29 c5 3c e8 20 e9 3c 02 ec 34 3d a1 1c 08 3e
       0.024067502 0.028458074 0.044170387 0.13292171
0003d0 9d 9c 2d 3d 5d f7 3e 3d 3b 4d ef 3d df 4e a9 bd
       0.042385686 0.046622623 0.116846524 -0.082669966
0003e0 8b 13 ee 3d 24 cf 2c 3d 81 07 a4 3d c0 54 51 3e
       0.11624821 0.042189732 0.08009244 0.20442486
0003f0 59 2e e5 3c 46 e1 a3 bc 56 90 06 3e 19 13 e0 bd
       0.027976202 -0.02000488 0.13140997 -0.109411426

feature_extractor.encoder.0.bias f4 [64]
000000 fc 88 8b 3d f8 41 1d 3d 24 ac ba 3d be d4 b5 3d
       0.06813237 0.03839299 0.091148645 0.08878468
000010 94 3c 64 bc ae a6 89 3d 11 61 86 3d 1e 7e 3f 3d
       -0.013930459 0.06721245 0.06561483 0.046751134
000020 16 fb 84 bd f1 cf 73 3d aa c5 42 bd 72 40 9e bd
       -0.06493203 0.05952448 -0.04755179 -0.07727136
000030 cf 69 2b 3e ae 0b c1 bc b6 4a 1a 3e 75 bd eb bc
       0.16739582 -0.02356514 0.15067562 -0.028776864
000040 1d 2f 09 3d 2f ce 6f 3c 51 e3 94 bd 37 1f 63 3b
       0.033492196 0.01463656 -0.0726992 0.0034656057
000050 0d 5a ca bc fb 90 c0 3c ef c0 a8 3d 03 29 c1 3c
       -0.024701143 0.023506632 0.08239924 0.023579126
000060 e4 e4 33 3d c3 a4 ea bc b7 52 1b 3c ba 5e 15 3e
       0.04391946 -0.028643018 0.00948017 0.14586917
000070 f9 3e 29 bd cd da 82 bd 8b e3 f2 bc a0 9a c7 3c
       -0.04131982 -0.06389389 -0.029649517 0.024365723
000080 a2 a8 ad bd 18 be 89 3d 00 a2 b6 3d 8d ed a3 3a
       -0.0847943 0.06725711 0.08917618 0.0012506709
000090 72 00 b4 3d 5e c6 35 bd 3c 87 cc 3d 8b f9 be 3c
       0.087891474 -0.04437863 0.099867314 0.02331235
0000a0 a1 7d fc bc 35 a6 84 bd 2b b9 17 3e 52 7f a5 bd
       -0.030821623 -0.06477014 0.1481673 -0.08080925
0000b0 9f 2f c5 bc 41 2e 39 3d 90 c7 e8 3d 1d ec a1 bd
       -0.02407056 0.045210127 0.113661885 -0.07906363
0000c0 f7 7e ae bd 49 19 00 bd 4b c2 9e bd 2c e1 48 be
       -0.0852031 -0.031274114 -0.07751902 -0.19617146
0000d0 9d 71 40 bd 50 f5 d8 bc 54 ac 3d 3d 8d 92 81 bd
       -0.04698335 -0.026484162 0.046306923 -0.063267805
0000e0 06 ec 59 3d 44 6d 81 3d 27 9c f9 3c 78 18 1c 3d
       0.053203605 0.06319669 0.030469967 0.038109273
0000f0 08 5f 8e 3e be 6a 29 bd aa 11 83 3d 11 22 57 bd
       0.27806878 -0.041361563 0.063998535 -0.052522723

feature_extractor.encoder.2.weight f4 [64]
000000 a1 01 e1 3e 88 42 62 3f e8 bf 5b 3f 95 f5 e1 3e
       0.43946555 0.8838277 0.858397 0.44132677
000010 1f 83 73 3f bc 82 2e 3f 3e c4 42 3f 02 6c 01 3f
       0.9512195 0.68168235 0.7608069 0.5055543
000020 23 e0 64 3f d2 57 39 3f ed df 64 3f eb df 64 3f
       0.89404505 0.7239963 0.89404184 0.8940417
000030 67 b6 0e 3f f7 df 64 3f d8 18 94 3f 1f 13 81 3f
       0.55747074 0.89404243 1.1570082 1.008396
000040 00 c6 1f 3f 1f 83 73 3f 23 a1 04 3f 1f 83 73 3f
       0.624115 0.9512195 0.51808375 0.9512195
000050 08 1f 28 3f bb e7 27 3f 93 d2 01 3f 1f 83 73 3f
       0.6567235 0.6558797 0.50711936 0.9512195
000060 b5 fa 46 3f fb 73 58 3f 06 fa 18 40 03 cf 7b 3f
       0.777263 0.8455197 2.3902602 0.9836275
000070 eb df 64 3f 22 13 81 3f 1f 13 81 3f 33 3c ad 3e
       0.8940417 1.0083964 1.008396 0.3383499
000080 ea df 64 3f b0 f0 0d 3f 6e 90 f3 3e 1f 83 73 3f
       0.89404166 0.55445385 0.4757113 0.9512195
000090 85 a9 84 3f 3e d5 81 3f 50 36 52 3f 34 31 04 3f
       1.0364233 1.0143201 0.82114124 0.5163758
0000a0 1f 13 81 3f 1f 13 81 3f 4f 15 1f 3f ed df 64 3f
       1.008396 1.008396 0.6214189 0.89404184
0000b0 ed df 64 3f 00 b5 08 3f ae d1 96 3f 13 13 81 3f
       0.89404184 0.53401184 1.1782739 1.0083946
0000c0 eb df 64 3f 1f 83 73 3f 1f 13 81 3f cc fc d4 3f
       0.8940417 0.9512195 1.008396 1.6639647
0000d0 cd 2a 83 3f 1c 13 81 3f 53 2b 2d 3f ea df 64 3f
       1.0247437 1.0083957 0.6764423 0.89404166
0000e0 9d f8 86 3e 77 45 13 3f 1f 83 73 3f 92 96 9a 3f
       0.26361552 0.5752787 0.9512195 1.20772
0000f0 ac 1a 6b 3f ea df 64 3f 95 dc 4b 3f 27 56 73 3f
       0.91837573 0.89404166 0.79633456 0.95053333

feature_extractor.encoder.2.bias f4 [64]
000000 2e 9f 04 3e dd 01 e4 3c c0 4f a1 3e 73 0f 0d 3e
       0.12951347 0.02783292 0.31506157 0.13775425
000010 7a 3e c6 3d ee 62 83 3e 41 5f 2d be 39 a8 a5 3d
       0.09679885 0.25661415 -0.16930868 0.080887266
000020 5c 63 c0 3d 01 ee 96 3e 05 ef b5 3c af 60 34 3d
       0.09393951 0.29478458 0.0222087 0.044037517
000030 7b b3 80 3d d2 fe 51 b9 6c 69 90 be 3e 2a a2 3c
       0.06284233 -0.00020026721 -0.2820543 0.019795533
000040 f9 6a 4c 3d f0 21 6f 3d 82 af 13 bd 93 0c ed bd
       0.049906705 0.058381975 -0.03605605 -0.11574664
000050 12 17 0e 3e 21 65 9e 3e da 4d f6 3d 99 42 b1 3d
       0.13875988 0.3093653 0.12026568 0.086552806
000060 4e b0 aa be e0 6a f4 bd 67 5e 1a be f8 80 68 3e
       -0.33337635 -0.11934447 -0.15075074 0.22705448
000070 b1 70 5a 3d 99 c4 38 be 31 9d 06 be fc 31 2f be
       0.053330127 -0.18043746 -0.13145901 -0.17108911
000080 5b e8 b5 bc 11 bb 31 3d da 90 3f bd 80 19 a4 3d
       -0.022205522 0.04339129 -0.046769 0.08012676
000090 46 63 88 be 4e 75 26 be c1 18 3c be 10 68 98 3e
       -0.2663824 -0.16255686 -0.18368818 0.29766893
0000a0 05 28 f0 3d 5b 55 e6 3d b1 e1 99 be 5d a4 e9 bc
       0.11726383 0.11246749 -0.30055 -0.028520757
0000b0 fc b4 16 be d2 1c 0b 3d a2 39 9b 3e 4e f1 37 3e
       -0.14717478 0.033963032 0.30317408 0.17963144
0000c0 8f 5a 8c 3d bd 54 cc bd 4e 5a 1e bc 58 8a 1c be
       0.0685321 -0.099771 -0.009665085 -0.15287149
0000d0 1d 4c e1 3d 01 5c 06 bc 90 c0 28 be 64 3d e1 3b
       0.110008456 -0.008200646 -0.16479707 0.0068737734
0000e0 35 44 4b 3e 14 d0 09 be bb 4d d1 bd c2 bc d0 be
       0.19850238 -0.13458282 -0.10219904 -0.4076901
0000f0 a8 7a f2 bd 51 f4 af 3c e3 a5 a8 be b3 9f f6 3d
       -0.11839801 0.021478804 -0.32939062 0.12042179

feature_extractor.encoder.2.running_mean f4 [64]
000000 5e 57 10 41 b1 9d d8 40 20 de a4 41 66 16 9a 40
       9.02133 6.7692494 20.60846 4.815234
000010 00 00 00 00 fe 08 02 41 fa 81 c6 40 9e d3 10 41
       0.0 8.127195 6.2033663 9.051664
000020 f4 d2 ec 11 5a f2 9c 41 1d f1 3e 14 b6 89 24 13
       3.7364245e-28 19.618336 9.6401e-27 2.0767607e-27
000030 e4 32 7d 40 fe f3 0a 12 0b 8a a0 40 79 35 bf 15
       3.956231 4.3845866e-28 5.016851 7.722865e-26
000040 7e c9 97 41 00 00 00 00 d3 58 d5 3c 00 00 00 00
       18.973385 0.0 0.026043331 0.0
000050 fd b2 82 3c 47 fb 9e 41 a1 e5 c5 40 00 00 00 00
       0.015954489 19.872694 6.184281 0.0
000060 0b 28 6f 41 8f 4f 87 3c 77 e5 bc 3c d3 7e bd 40
       14.947276 0.016517429 0.023058636 5.9217315
000070 12 ad 14 15 0f d7 6c 16 96 87 6e 15 7a 4f 88 41
       3.002489e-26 1.9131789e-25 4.8170676e-26 17.038807
000080 ff ba 86 14 50 70 e6 40 94 5e 0b 41 00 00 00 00
       1.3604299e-26 7.20121 8.71059 0.0
000090 d3 0b 69 41 9a 4e d7 16 2a 43 7a 40 6e 1a a1 41
       14.565387 3.4784728e-25 3.9103494 20.137905
0000a0 3e 10 0b 14 d7 7a bb 15 99 95 3e 40 bd 83 19 14
       7.02091e-27 7.5722506e-26 2.9778807 7.750507e-27
0000b0 53 d6 3a 16 2f ae fa 40 02 00 31 41 17 27 8e 13
       1.5092589e-25 7.8337626 11.062502 3.5884385e-27
0000c0 68 08 a5 14 00 00 00 00 1d 04 ca 15 3c 62 b6 28
       1.6664058e-26 0.0 8.159364e-26 2.0248661e-14
0000d0 10 7c d6 16 33 98 af 16 76 f7 4f 41 96 93 06 15
       3.465186e-25 2.8368826e-25 12.997915 2.717751e-26
0000e0 21 0e 2a 41 20 60 1c 41 00 00 00 00 41 eb c2 40
       10.628449 9.773468 0.0 6.0912175
0000f0 a2 c1 d9 40 4e 0d ff 14 16 76 7d 41 d9 5e 53 1a
       6.804887 2.5753668e-26 15.84133 4.3710395e-23

feature_extractor.encoder.2.running_var f4 [64]
000000 d4 c8 57 40 bc e6 b3 40 f8 3e 07 40 9d 5d 35 40
       3.3716326 5.621916 2.1132183 2.8338387
000010 ea b8 7f 19 81 46 56 40 ac 31 92 40 3f 17 99 40
       1.3220534e-23 3.3480532 4.5685635 4.7840877
000020 ea b8 7f 19 ff ac f6 3f eb bc 7f 19 2d b9 7f 19
       1.3220534e-23 1.9271544 1.3221343e-23 1.3220587e-23
000030 a2 7b c6 3f ea b8 7f 19 1e 21 71 40 6e dc 7f 19
       1.550648 1.3220534e-23 3.7676463 1.32277064e-23
000040 0b 83 f0 3f ea b8 7f 19 b1 e8 8a 3d ea b8 7f 19
       1.8789991 1.3220534e-23 0.067826636 1.3220534e-23
000050 51 f7 de 3c ca 6d 04 40 c3 a1 32 40 ea b8 7f 19
       0.027217539 2.069201 2.7911232 1.3220534e-23
000060 4d 72 00 40 b9 d9 e5 3c af e1 59 3d 67 cc a6 40
       2.0069764 0.02805792 0.053193744 5.2124515
000070 4a cb 7f 19 8b 04 80 19 15 d5 7f 19 65 42 26 3f
       1.3224245e-23 1.3236725e-23 1.32262226e-23 0.6494506
000080 05 bf 7f 19 a2 9c 10 40 c9 dd f0 3f ea b8 7f 19
       1.3221767e-23 2.25956 1.8817683 1.3220534e-23
000090 fa c7 d3 3f 30 47 80 19 99 12 eb 3f 81 f6 ed 3f
       1.6545403 1.3263642e-23 1.836505 1.8590852
0000a0 33 bc 7f 19 5c e1 7f 19 2a 15 6d 40 d1 be 7f 19
       1.32211975e-23 1.3228702e-23 3.7044168 1.3221726e-23
0000b0 65 f3 7f 19 d6 cb 89 40 43 62 3d 40 19 ba 7f 19
       1.3232344e-23 4.3061323 2.9591224 1.3220773e-23
0000c0 2c c0 7f 19 ea b8 7f 19 47 df 7f 19 cd 8e e8 28
       1.3222e-23 1.3220534e-23 1.32282815e-23 2.5819104e-14
0000d0 e3 22 80 19 2e 0c 80 19 ba 46 4f 40 a1 c4 7f 19
       1.324898e-23 1.3239809e-23 3.2386918 1.32229e-23
0000e0 28 55 43 40 55 a9 26 40 ea b8 7f 19 a4 35 99 40
       3.0520725 2.6040852 1.3220534e-23 4.787798
0000f0 d5 29 92 40 cf c6 7f 19 44 a8 04 40 6b a3 9b 1a
       4.5676064 1.322334e-23 2.07277 6.4370513e-23
