hbbops_improved_3/results/25x25/gp_model_final.pt (torch, 687741 bytes, 29 tensors)

deep_kernel.base_kernel.raw_lengthscale f4 [1, 10]
-0.29970226 -0.49405736 -0.3791536 -0.30550802 -0.38411486 -0.30980334 -0.33552969 -0.41495404
-0.55050224 -0.44665763
00000000: 9372 99be 16f5 fcbe 6c20 c2be 8c6b 9cbe
00000010: b4aa c4be 8b9e 9ebe 8cca abbe db74 d4be
00000020: b7ed 0cbf 4fb0 e4be

fidelity_kernel.covar_factor f4 [20, 3]
1.0312917 -0.41019988 1.81922 0.8947011 -0.3096762 2.119702 2.1305833 -0.60192454
0.955366 2.0152786 -0.82827926 1.2806351 2.0495973 -0.48168394 0.7510378 1.3194249
-0.3861616 1.7592357 2.1764042 -0.61983156 0.48923254 1.7912579 -0.6282908 1.106911
2.0910153 -0.60753876 0.59124744 1.448717 -0.5532181 1.3096702 0.5740238 -0.2352462
2.4445913 1.4915665 -1.1869465 -0.89420027 0.45913237 -0.30406678 1.9525336 0.41605264
-0.11156308 0.9627631 0.55201656 0.23625393 1.664916 1.4600174 -0.48185274 1.2786387
0.7950105 -0.39911586 1.4520026 0.13287772 -0.07613076 0.77339417 0.4964402 0.2501538
2.0258286 1.5243144 -0.35397297 1.2137679
00000000: 5e01 843f b805 d2be 33dc e83f 220b 653f
00000010: e18d 9ebe 33a9 0740 7a5b 0840 ba17 1abf
00000020: de92 743f 53fa 0040 1c0a 54bf daeb a33f
00000030: 9a2c 0340 479f f6be 0344 403f eae2 a83f
00000040: f9b6 c5be a32e e13f 354a 0b40 48ad 1ebf
00000050: b07c fa3e f047 e53f aad7 20bf 42af 8d3f
00000060: 32d3 0540 a987 1bbf fe5b 173f 8f6f b93f
00000070: b49f 0dbf 46a3 a73f 39f3 123f 61e4 70be
00000080: 2f74 1c40 a7eb be3f dded 97bf 4fea 64bf
00000090: 6613 eb3e a4ae 9bbe 9fec f93f da04 d53e
000000a0: 2f7b e4bd a477 763f f550 0d3f 8dec 713e
000000b0: f81b d53f dae1 ba3f 67b5 f6be 6faa a33f
000000c0: cf85 4b3f ea58 ccbe 39db b93f 1911 083e
000000d0: 72ea 9bbd 29fd 453f 692d fe3e 2914 803e
000000e0: 2da7 0140 bc1c c33f f23b b5be bf5c 9b3f

fidelity_kernel.raw_var f4 [20]
-3.446112 -1.9520452 -2.0749433 -0.50154185 -1.3582753 -2.1838746 -1.3746682 -1.1335703
-1.4468806 -1.6886257 -1.9531572 0.98734754 -2.4404485 -3.5580726 -1.2913483 -1.6779554
-3.1472814 -2.7619538 -0.77004236 -2.3350196
00000000: 198d 5cc0 9edc f9bf dfcb 04c0 0c65 00bf
00000010: f7db adbf 9ac4 0bc0 21f5 afbf d518 91bf
00000020: 6233 b9bf e324 d8bf 0e01 fabf cfc2 7c3f
00000030: 4f30 1cc0 76b7 63c0 e74a a5bf 3ec7 d6bf
00000040: 0f6d 49c0 dac3 30c0 7f21 45bf f670 15c0

feature_extractor.instruction_encoder.0.weight f4 [64, 768]
-0.027929578 0.081653625 -0.054812837 -0.053676814 -0.0644166 0.08652646 0.04802805 -0.07645269
0.0542115 -0.08696077 -0.04949789 -0.054873217 0.072653286 -0.029181197 -0.067132495 0.046557736
-0.0696324 -0.031908307 0.045749262 0.09278431 0.026591355 -0.055635832 0.03363172 0.04169487
-0.039050594 -0.040936083 -0.04436622 0.049357306 -0.034945846 -0.08307906 0.052179452 0.07074006
0.07034773 -0.0724964 -0.0302553 0.06344464 -0.084968746 -0.044670694 0.088115424 -0.08436395
-0.06081024 0.09028891 -0.086546175 -0.06403046 0.05763926 -0.072772056 -0.0332098 -0.028038625
-0.072202794 -0.05827337 -0.056509085 -0.06595961 0.028911049 -0.03402622 -0.024383916 -0.03852213
-0.07209616 -0.04309569 -0.032888472 -0.06086006 -0.03949184 0.023992863 -0.062127247 -0.089608446
-0.06385653 0.030665854 -0.07293842 -0.080600806 0.050360404 0.074284434 -0.056645934 -0.034893114
-0.072208166 0.057198998 -0.029566271 -0.042003967 0.06556337 -0.04879094 -0.039235856 -0.060824145
-0.07489075 -0.059178893 -0.07779733 -0.043188885 -0.084761746 -0.06510862 -0.054892614 -0.07428103
0.0581304 -0.06142918 -0.030164117 -0.045824595 -0.09188636 -0.04347079 -0.03865166 -0.030119555
0.036180336 -0.07233722 -0.04650833 -0.033293195 0.047689293 -0.031202544 -0.028821673 -0.046125896
-0.08307656 0.036099605 0.050833598 -0.084751345 -0.033039574 -0.083543845 -0.09025716 0.028055316
-0.08686327 -0.061548904 -0.03168551 -0.026500586 0.05286658 -0.046455182 -0.04851721 -0.045587253
-0.038614996 -0.061102033 0.07629586 -0.0794646 -0.0627243 -0.050576635 -0.05773443 -0.05274037
-0.08135213 -0.0712137 -0.0738699 -0.03350963 -0.08638147 -0.03846961 0.024281044 -0.076627
-0.06985214 -0.029074593 -0.06953627 0.08133786 -0.07230737 -0.06685859 -0.03893789 -0.087197945
-0.09225743 0.057147015 -0.05927019 -0.038172934 -0.024507467 -0.047117196 -0.03501933 -0.03045346
-0.08325205 -0.0380595 -0.054917134 -0.09245506 -0.042561557 -0.04692839 -0.046181183 0.028168049
-0.058247928 -0.08338642 -0.032920144 -0.025320968 -0.091324754 -0.065860376 0.050894015 -0.042288203
-0.026027521 0.08495817 -0.06139817 -0.07168222 -0.09226454 -0.029031279 -0.032144032 0.06146491
-0.073300414 -0.05841085 -0.057894114 -0.081508294 -0.05470762 -0.03212276 -0.042152803 0.07601158
0.0703275 -0.06490274 -0.028532987 0.026735818 -0.029642643 0.052023407 -0.07650901 -0.09061809
0.08678922 0.04604647 -0.03056428 0.044978525 -0.0705492 -0.07369862 -0.045137104 0.09274309
-0.033361148 -0.04560001 -0.051761214 -0.046676032 -0.053845044 -0.050556824 -0.062393375 0.074950606
-0.07573216 -0.051879942 -0.029551748 -0.028833637 -0.07185708 -0.045472868 -0.026662106 0.048072055
0.09278106 -0.055510946 -0.06841777 -0.030665206 -0.056518327 -0.03354176 0.09204986 -0.08203751
-0.08948636 -0.07630606 -0.053153906 -0.08959886 -0.034227524 -0.087262884 -0.034552317 -0.06342283
0.039339744 -0.027612148 -0.091432355 -0.06817761 -0.031140007 -0.060276087 -0.03800525 0.042611748
0.09282828 -0.08907291 -0.036032107 0.04997235 -0.049340907 0.08822235 -0.036711372 -0.052356347
-0.081301786 -0.060751002 -0.038365413 0.026879407 0.085273296 -0.036563158 -0.04924411 -0.029339533
00000000: 92cc e4bc 043a a73d 6d83 60bd 38dc 5bbd
00000010: daec 83bd c934 b13d 10b9 443d 3a93 9cbd
00000020: e10c 5e3d 7d18 b2bd 4dbe 4abd bdc2 60bd
00000030: 3fcb 943d 680d efbc c37c 89bd 53b3 3e3d
00000040: 6f9b 8ebd 49b2 02bd 9463 3b3d b305 be3d
00000050: 1dd6 d93c 66e2 63bd 6ac1 093d 3dc8 2a3d
00000060: 84f3 1fbd 98ac 27bd 5ab9 35bd e32a 4a3d
00000070: 6023 0fbd 5b25 aabd 1fba 553d 2ae0 903d
00000080: 7812 903d fe78 94bd f7d9 f7bc 43ef 813d
00000090: 1804 aebd 9ef8 36bd dc75 b43d 02c7 acbd
000000a0: 2914 79bd 64e9 b83d 1f3f b1bd 6722 83bd
000000b0: 2517 6c3d 8409 95bd 0007 08bd 42b1 e5bc
000000c0: 0fdf 93bd 0fb0 6ebd 1276 67bd d515 87bd
000000d0: ddd6 ec3c 145f 0bbd c7c0 c7bc 62c9 1dbd
000000e0: 27a7 93bd 1b85 30bd 10b6 06bd 6648 79bd
000000f0: 32c2 21bd ae8c c43c 2479 7ebd a284 b7bd
00000100: 36c7 82bd f536 fb3c bd60 95bd 0912 a5bd
00000110: b646 4e3d 7022 983d 9105 68bd 15ec 0ebd
00000120: e0e1 93bd 7f49 6a3d f734 f2bc 5a0c 2cbd
00000130: 1746 863d 02d9 47bd c7b5 20bd bd22 79bd
00000140: 5260 99bd 9165 72bd 3554 9fbd d4e6 30bd
00000150: 9197 adbd ab57 85bd 14d7 60bd a720 98bd
00000160: 241a 6e3d 2a9d 7bbd bd1a f7bc 92b2 3bbd
00000170: ea2e bcbd 6d0e 32bd 3451 1ebd 49bd f6bc
00000180: d531 143d 8925 94bd 857f 3ebd 725e 08bd
00000190: d955 433d 7a9c ffbc 6e1b ecbc 82ee 3cbd
000001a0: 0b24 aabd 2edd 133d e436 503d 1d92 adbd
000001b0: 8154 07bd 0919 abbd bfd8 b8bd 43d4 e53c
000001c0: 5fe5 b1bd b41a 7cbd aac8 01bd c217 d9bc
000001d0: a18a 583d ca47 3ebd fbb9 46bd b3b9 3abd
000001e0: c22a 1ebd 2046 7abd 0141 9c3d 56be a2bd
000001f0: 9975 80bd 7229 4fbd f07a 6cbd 4906 58bd
00000200: f29b a6bd 7dd8 91bd 1a49 97bd 6541 09bd
00000210: c5e8 b0bd 4f92 1dbd 0ae9 c63c 9eee 9cbd
00000220: a40e 8fbd d72d eebc 0869 8ebd 7794 a63d
00000230: e315 94bd 28ed 88bd 567d 1fbd d694 b2bd
00000240: 77f1 bcbd fd12 6a3d 4cc5 72bd 395b 1cbd
00000250: e2c3 c8bc f6fd 40bd 6e70 0fbd 8979 f9bc
00000260: 0d80 aabd 47e4 1bbd caf0 60bd 1459 bdbd
00000270: 0755 2ebd fc37 40bd 7b28 3dbd aec0 e63c
00000280: 6195 6ebd 80c6 aabd 46d7 06bd eb6d cfbc
00000290: 7908 bbbd cee1 86bd 3e76 503d 6536 2dbd
000002a0: ab37 d5bc 8dfe ad3d a67c 7bbd 21ce 92bd
000002b0: 31f5 bcbd 01d3 edbc 76a9 03bd a1c2 7b3d
000002c0: 871e 96bd 3740 6fbd 6122 6dbd d2ed a6bd
000002d0: 1915 60bd 2893 03bd 6ba8 2cbd f6ab 9b3d
000002e0: dd07 903d baeb 84bd 03be e9bc 1305 db3c
000002f0: 21d5 f2bc 7f16 553d c1b0 9cbd fa95 b9bd
00000300: 8cbe b13d 399b 3c3d f161 fabc 673b 383d
00000310: 197c 90bd 4def 96bd afe1 38bd 17f0 bd3d
00000320: b3a5 08bd 13c7 3abd 9103 54bd 5e2f 3fbd
00000330: 9f8c 5cbd ac14 4fbd 3290 7fbd b47f 993d
00000340: 7619 9bbd 1080 54bd 8216 f2bc 8534 ecbc
00000350: ce29 93bd c241 3abd 7d6a dabc 34e7 443d
00000360: ff03 be3d 725f 63bd 9e1e 8cbd 9935 fbbc
00000370: c37f 67bd 1663 09bd a384 bc3d 4803 a8bd
00000380: a044 b7bd 5a46 9cbd e9b7 59bd 9b7f b7bd
00000390: 2932 0cbd e2b6 b2bd bb86 0dbd d4e3 81bd
000003a0: b622 213d df32 e2bc e340 bbbd b4a0 8bbd
000003b0: 5419 ffbc 0fe4 76bd 65ab 1bbd a889 2e3d
000003c0: c11c be3d dc6b b6bd 6796 13bd cfaf 4c3d
000003d0: b119 4abd ebad b43d aa5e 16bd 9c73 56bd
000003e0: 8d81 a6bd 0bd6 78bd 0d25 1dbd 3432 dc3c
000003f0: c4a3 ae3d 40c3 15bd 31b4 49bd 7659 f0bc

feature_extractor.instruction_encoder.0.bias f4 [64]
-0.09087108 0.07106979 0.06174726 -0.066752516 -0.08369022 -0.034868367 -0.034378026 0.033058643
0.013569317 -0.0295403 -0.048442014 0.041356776 -0.03316839 -0.06848157 -0.03434233 0.06289956
-0.039772097 0.0020969037 -0.057030603 0.039423723 -0.04247864 -0.00478625 0.059438564 0.051228866
0.0825122 -0.0039250157 -0.06596176 -0.02512573 0.07230053 0.06848529 -0.030007133 -0.020905197
-0.07644608 0.083283514 -0.06989938 -0.033576354 -0.0635075 0.07125134 -0.049430173 -0.037415884
-0.070285626 -0.04043553 -0.085265905 -0.047606353 -0.03172482 -0.014394338 -0.07794193 0.03274085
-0.038659398 0.07115295 0.011591413 0.059675623 -0.039988063 0.096085146 0.060335305 -0.063985445
-0.080201894 0.05791102 0.011065969 0.074330084 0.030810378 -0.023886247 -0.070850715 -0.063614465
00000000: 9e1a babd 0a8d 913d b2ea 7c3d 8bb5 88bd
00000010: c765 abbd 22d2 0ebd f9cf 0cbd 8068 073d
00000020: d751 5e3c 80fe f1bc 226b 46bd b965 293d
00000030: 94db 07bd 1140 8cbd 8baa 0cbd 7cd1 803d
00000040: 11e8 22bd 356c 093b ec98 69bd c57a 213d
00000050: 15fe 2dbd fad5 9cbb da75 733d 5cd5 513d
00000060: 28fc a83d 6b9d 80bb f616 87bd 7ad4 cdbc
00000070: 4d12 943d 0442 8c3d 85d1 f5bc 6041 abbc
00000080: c38f 9cbd 8c90 aa3d 6827 8fbd 5c87 09bd
00000090: 3810 82bd 39ec 913d 4b77 4abd 6641 19bd
000000a0: e9f1 8fbd ba9f 25bd e49f aebd e1fe 42bd
000000b0: e3f1 01bd 3bd6 6bbc 05a0 9fbd 451b 063d
000000c0: 5159 1ebd a3b8 913d e9e9 3d3c 6d6e 743d
000000d0: 86ca 23bd 4ac8 c43d 2722 773d cd0a 83bd
000000e0: e440 a4bd 1b34 6d3d 0a4e 353c 5f3a 983d
000000f0: 0c66 fc3c 17ad c3bc 2e1a 91bd 4d48 82bd

feature_extractor.instruction_encoder.2.weight f4 [32, 64]
0.034741763 -0.03455023 0.08360888 -0.040107697 0.12216148 -0.062535085 0.11384996 -0.0067317775
0.0010565543 0.042503685 -0.051507358 0.024041995 0.029763684 0.16665222 -0.022205668 -0.024717147
-0.07643511 -0.060157914 -0.034804717 0.095350236 0.0890989 0.027554212 0.15715751 0.14529744
-0.10053589 -0.103882745 -0.003827124 -0.08700022 0.09413255 -0.030598992 0.0021152226 -0.08264933
-0.07417577 0.10919475 0.11658248 -0.10220424 0.12766612 0.05692806 0.00041260725 0.07056094
-0.039882924 -0.15628357 -0.13119097 0.08677134 0.03178162 0.07020096 -0.046510693 0.122405365
-0.024665073 0.021418018 0.049410354 0.08324934 -0.05583726 -0.011034651 0.054640155 0.037428565
-0.0022974417 0.017669862 0.08799734 0.13970862 -0.04734746 -0.08676147 -0.052237645 0.061031036
0.17729251 0.06872011 0.11043624 -0.08664021 -0.02209855 -0.0058521195 0.08646143 -0.08253961
0.07856482 -0.09151772 -0.087030195 -0.0538901 -0.1310344 -0.060720876 -0.15842143 0.035450406
-0.17780267 -0.13322411 0.1413496 -0.103890054 0.16331707 -0.15912561 -0.05925767 -0.016390434
-0.15248372 -0.0025283918 0.1304008 0.01964008 0.057602257 -0.04320343 -0.12533529 -0.0880323
-0.16759425 -0.16367038 -0.015133037 0.032818038 0.17148069 0.10832401 -0.025643414 0.07107313
-0.0005183091 0.13552901 -0.032735094 0.02943365 -0.12934636 0.09261844 -0.121538535 -0.173774
0.059673082 0.074174695 -0.07632438 0.04609164 -0.043590166 0.09947886 0.10849314 0.10494098
0.10430583 -0.1486858 -0.10046023 0.08485502 -0.06064464 -0.11273841 -0.054084435 -0.028232394
0.060364533 0.102029935 0.14684266 -0.04585354 -0.15401915 -0.07636322 0.10170472 -0.072695926
-0.12371242 0.07017712 -0.02849794 0.042179324 -0.016758267 -0.12477958 0.04534802 -0.0030957197
0.036649995 0.091658466 -0.07193339 0.098956 0.0038452744 -0.18946637 -0.11069371 0.060857352
-0.13916758 0.07187603 0.0004594536 0.07893597 -0.16231717 -0.009467393 0.012673467 -0.09299419
0.022544052 -0.13555731 -0.015404517 -0.06287048 -0.014253374 -0.065423414 0.051248807 0.16574465
0.1336323 -0.060774688 0.15978013 -0.053301062 0.03736955 -0.0039738477 0.023322513 -0.139588
0.082792796 0.010819442 -0.05409951 -0.0514545 -0.075202964 0.07405553 0.030898273 -0.058758482
-0.035383977 -0.13388598 0.036486212 -0.03607811 0.06240146 0.007706019 -0.1200168 0.08885271
-0.09862679 -0.011657326 0.077377304 -0.05568236 0.026854582 0.0730426 0.035729073 0.08051786
-0.06845987 -0.10685018 -0.10103778 0.066279225 -0.072406456 -0.111238144 0.07319062 -0.078364104
-0.03546124 0.08343148 -0.038383458 0.096889965 -0.075509906 -0.059654463 -0.10012377 0.03354008
0.07718359 0.006410146 0.045406632 -0.11371418 -0.053862084 0.020465942 0.02663657 0.018987717
0.052607562 -0.02895667 -0.076177225 0.090306476 -0.04075998 0.08036592 -0.014825623 -0.031137705
-0.08879531 -0.0700835 -0.03780801 0.0059882533 0.09074695 -0.04211144 0.0008737226 0.0904402
-0.071738005 -0.05616448 0.0105679855 -0.02811097 -0.07499408 -0.116865344 -0.09169631 -0.1001972
0.0038653691 0.074618526 -0.050426904 -0.0465772 -0.038095422 -0.016075045 -0.06777382 0.018371757
00000000: 614d 0e3d 8b84 0dbd 223b ab3d f847 24bd
00000010: cc2f fa3d 6512 80bd 2b2a e93d 3e96 dcbb
00000020: 147c 8a3a 5818 2e3d 61f9 52bd b8f3 c43c
00000030: f8d2 f33c e1a6 2a3e a9e8 b5bc 9d7b cabc
00000040: 038a 9cbd 2568 76bd 648f 0ebd fc46 c33d
00000050: 7c79 b63d 5fb9 e13c e6ed 203e dac8 143e
00000060: c3e5 cdbd 7ac0 d4bd 7cd0 7abb 2c2d b2bd
00000070: 91c8 c03d bdaa fabc 8c9f 0a3b 0d44 a9bd
00000080: 77e9 97bd 7fa1 df3d ccc2 ee3d 7550 d1bd
00000090: e8ba 023e 662d 693d 3553 d839 4182 903d
000000a0: 475c 23bd cd08 20be ed56 06be 2cb5 b13d
000000b0: 722d 023d 85c5 8f3d ff81 3ebd aaaf fa3d
000000c0: 680e cabc d774 af3c 8362 4a3d a17e aa3d
000000d0: 9cb5 64bd aeca 34bc 5bce 5f3d b24e 193d
000000e0: ad90 16bb 63c0 903c f337 b43d c70f 0f3e
000000f0: 69ef 41bd ffaf b1bd 24f7 55bd aefb 793d
00000100: 2b8c 353e 21bd 8c3d 652c e23d 6c70 b1bd
00000110: 0508 b5bc 23c3 bfbb b112 b13d 870a a9bd
00000120: 98e6 a03d a46d bbbd e33c b2bd debb 5cbd
00000130: e22d 06be 74b6 78bd 3a39 22be 7234 113d
00000140: e711 36be e76b 08be f3bd 103e 4fc4 d4bd
00000150: 973c 273e d3f1 22be 2cb8 72bd 3b45 86bc
00000160: b124 1cbe 60b3 25bb ca87 053e 3ce4 a03c
00000170: 58f0 6b3d 14f6 30bd e557 00be 474a b4bd
00000180: d49d 2bbe 3599 27be 8ff0 77bc 356c 063d
00000190: a298 2f3e fbd8 dd3d 2312 d2bc ca8e 913d
000001a0: 23df 07ba 1ec8 0a3e 3c15 06bd d71e f13c
000001b0: 5f73 04be bdae bd3d 32e9 f8bd d0f1 31be
000001c0: c36b 743d e7e8 973d f54f 9cbd 96ca 3c3d
000001d0: 9a8b 32bd 93bb cb3d a731 de3d 4ceb d63d
000001e0: 4c9e d53d 1741 18be 18be cdbd 78c8 ad3d
000001f0: 8466 78bd 65e3 e6bd a487 5dbd 9f47 e7bc
00000200: cd40 773d 12f5 d03d ec5d 163e ecd0 3bbd
00000210: 32b7 1dbe 5264 9cbd 904a d03d 9ae1 94bd
00000220: f05c fdbd 06b9 8f3d 8374 e9bc 3ac4 2c3d
00000230: a248 89bc 708c ffbd d8be 393d 8fe1 4abb
00000240: 4e1e 163d 6fb7 bb3d d051 93bd 71a9 ca3d
00000250: 0001 7c3b 7903 42be 62b3 e2bd 8f45 793d
00000260: f281 0ebe bd33 933d d1e2 f039 2fa9 a13d
00000270: 7936 26be 201d 1bbc 60a4 4f3c bd73 bebd
00000280: 4eae b83c 89cf 0abe 3a63 7cbc 3dc2 80bd
00000290: fc86 69bc b6fc 85bd 45ea 513d f7b8 293e
000002a0: e8d6 083e e1ee 78bd 679d 233e 3752 5abd
000002b0: d010 193d 0d37 82bb db0e bf3c 28f0 0ebe
000002c0: 458f a93d 0744 313c 7397 5dbd f4c1 52bd
000002d0: 0304 9abd 6daa 973d 601e fd3c bcac 70bd
000002e0: caee 10bd 6819 09be 9172 153d a4c6 13bd
000002f0: ac98 7f3d c682 fc3b 5ecb f5bd 69f8 b53d
00000300: d8fc c9bd 5efe 3ebc fe77 9e3d 3013 64bd
00000310: 24fe db3c 5c97 953d a658 123d 8ce6 a43d
00000320: b034 8cbd 44d4 dabd e5ec cebd 67bd 873d
00000330: d649 94bd d3d0 e3bd f7e4 953d 5c7d a0bd
00000340: ce3f 11bd 20de aa3d f937 1dbd 3f6e c63d
00000350: f0a4 9abd 3d58 74bd b10d cdbd 5361 093d
00000360: 6e12 9e3d 340c d23b 4efc 393d fbe2 e8bd
00000370: 7d9e 5cbd 31a8 a73c f034 da3c 218c 9b3c
00000380: 077b 573d 8a36 edbc ce02 9cbd 9af2 b83d
00000390: f0f3 26bd e396 a43d 2be7 72bc 8014 ffbc
000003a0: 51da b5bd f087 8fbd 92dc 1abd 1c39 c43b
000003b0: 89d9 b93d 0c7d 2cbd 880a 653a b638 b93d
000003c0: 60eb 92bd ba0c 66bd 5825 2d3c fa48 e6bc
000003d0: 7f96 99bd 1957 efbd 46cb bbbd 3134 cdbd
000003e0: 2252 7d3b 99d1 983d 718c 4ebd bcc7 3ebd
000003f0: f209 1cbd d0af 83bc 00cd 8abd 5e80 963c

feature_extractor.instruction_encoder.2.bias f4 [32]
0.13078976 0.04217821 0.09927048 0.0063881665 -0.033667695 0.02054977 0.04093166 -0.0042594285
0.098297425 -0.029322226 -0.025051255 -0.018260166 0.056621052 0.011511807 0.10051286 0.05785064
0.14783964 0.04715068 0.022850204 -0.069658205 -0.09981664 0.069727786 -0.05907784 -0.0254345
-0.10093569 -0.06966231 -0.044260684 -0.051408373 0.025080746 -0.024527878 -0.0637936 -0.025185645
00000000: c0ed 053e 0fc3 2c3d 524e cb3d d353 d13b
00000010: 23e7 09bd fe57 a83c f5a7 273d ad92 8bbb
00000020: 2950 c93d 2a35 f0bc 4a38 cdbc 5896 95bc
00000030: 7aeb 673d 059c 3c3c b0d9 cd3d cbf4 6c3d
00000040: 4663 173e 1221 413d 5a30 bb3c f6a8 8ebd
00000050: ab6c ccbd 71cd 8e3d 9bfb 71bd 035c d0bc
00000060: 5fb7 cebd 1dab 8ebd b14a 35bd 9691 52bd
00000070: 2376 cd3c b0ee c8bc 38a6 82bd 2052 cebc

feature_extractor.exemplar_encoder.0.weight f4 [64, 768]
-0.07354188 -0.07048405 -0.03874075 -0.046027884 -0.04737621 -0.06058267 -0.09027737 -0.08391544
-0.057734754 -0.027571302 -0.09179498 -0.08998596 -0.08121104 -0.08202163 -0.063349575 -0.034241553
-0.08955211 -0.06875321 -0.035388827 -0.034807194 0.065418035 -0.091444045 0.047901366 -0.03511751
-0.030858023 -0.03736977 -0.0661385 -0.07264923 -0.06269898 -0.086737186 -0.051428266 -0.09235228
-0.0893853 -0.03998906 -0.088662356 -0.047108818 -0.07571107 -0.05136636 -0.02799028 -0.054613307
-0.07175032 -0.0741679 -0.026066871 -0.087838836 -0.024942497 -0.03670413 -0.067569554 0.023953078
-0.08035431 -0.07702992 -0.0733715 -0.046772342 -0.028330518 -0.03686393 -0.091678195 -0.08691698
-0.028004035 -0.04053401 -0.060338758 -0.07492277 -0.0740576 -0.06660185 -0.086471006 -0.028301144
-0.07680502 -0.036046844 -0.082239866 -0.031129785 -0.056294393 -0.09247204 -0.045223124 -0.075850524
-0.070888676 -0.043578554 -0.053282313 0.051253 -0.043149468 -0.051609498 -0.040219583 -0.052636083
-0.070574164 -0.04839319 -0.026444405 -0.02418572 -0.05462925 -0.065276705 -0.08058101 -0.058650322
-0.023292636 -0.02327756 -0.09171728 -0.07701288 -0.052980836 -0.05958842 -0.05778147 -0.026187098
-0.027876014 -0.076926544 -0.08062625 -0.063241936 -0.08601046 -0.072147116 -0.030240519 0.047869172
-0.0721618 -0.032231346 -0.03347415 -0.050575543 -0.040343918 -0.029053053 -0.07168562 -0.0704919
-0.058906395 -0.078433916 -0.05462365 -0.08521665 -0.03618468 -0.080151714 -0.037973188 -0.06669731
-0.04487092 -0.087875 -0.06767944 -0.056907263 -0.06682144 -0.070402786 -0.08716692 -0.038018998
-0.0409995 -0.06988046 -0.07575938 -0.039925274 -0.053054444 -0.04301223 -0.06422604 -0.08089871
-0.0782699 -0.047793884 -0.02982802 0.025031285 -0.08364993 -0.025201598 -0.040447753 -0.090126656
-0.027373623 -0.023377584 -0.052261144 -0.0681629 -0.049609546 -0.056510597 -0.073943764 -0.06307695
-0.073179685 -0.08400524 -0.047100388 -0.08151362 -0.043073807 0.030360645 -0.055515934 -0.0580578
-0.025037916 -0.06954464 -0.031530093 -0.048516344 -0.06132554 -0.08655556 -0.040542215 -0.04549477
-0.029636115 -0.056645744 -0.044887494 -0.088849224 -0.08524854 -0.08060635 -0.05248743 -0.05212776
-0.09050612 -0.086592585 -0.08253247 -0.050523706 -0.059639294 -0.08307816 -0.06414165 -0.08363345
-0.066267036 -0.048156314 -0.07473196 -0.0753237 -0.037829403 -0.082519695 -0.028258113 -0.09097844
-0.053572845 -0.02620002 -0.03405526 -0.05704447 -0.026856743 -0.057552654 -0.086242355 -0.08594007
-0.057179734 -0.023334322 -0.053275026 -0.03978789 -0.04295003 -0.035862863 -0.07182635 -0.08676879
-0.045868874 -0.036393348 -0.053403854 -0.06861266 -0.073625475 -0.0776673 -0.07523809 -0.038792524
-0.035429228 -0.06624046 -0.02489014 -0.03294352 -0.05986058 -0.08329145 -0.073957264 -0.074394345
-0.0284861 -0.029092059 -0.06797411 -0.07984008 -0.057409253 -0.02674953 0.032238815 -0.083232366
-0.06186438 -0.074822046 -0.059576843 -0.073712565 -0.08828473 -0.083261594 -0.059933826 -0.03203008
-0.05981301 -0.023959465 -0.026493654 -0.053203754 -0.03854681 -0.05972312 -0.062932745 -0.0737472
-0.08362174 -0.08525568 -0.02995138 -0.06262751 -0.037309244 -0.04004824 0.061771236 -0.055446774
00000000: 209d 96bd f159 90bd 9fae 1ebd bc87 3cbd
00000010: 8f0d 42bd 8925 78bd 57e3 b8bd dcdb abbd
00000020: 477b 6cbd 36dd e1bc 02ff bbbd 8f4a b8bd
00000030: f951 a6bd f5fa a7bd 6cbd 81bd df40 0cbd
00000040: 1967 b7bd 7cce 8cbd e0f3 10bd fd91 0ebd
00000050: e4f9 853d 0447 bbbd 3934 443d 61d7 0fbd
00000060: f7c9 fcbc 0b11 19bd 9f73 87bd 1fc9 94bd
00000070: 5368 80bd 44a3 b1bd 72a6 52bd 3123 bdbd
00000080: a40f b7bd 92cb 23bd 9c94 b5bd 2df5 40bd
00000090: 680e 9bbd 8865 52bd df4b e5bc 34b2 5fbd
000000a0: d5f1 92bd 57e5 97bd 318a d5bc d9e4 b3bd
000000b0: 3554 ccbc 1257 16bd e861 8abd 3f39 c43c
000000c0: cd90 a4bd ddc1 9dbd cc43 96bd 5b94 3fbd
000000d0: 6715 e8bc a2fe 16bd c7c1 bbbd 8801 b2bd
000000e0: b868 e5bc fd06 26bd c625 77bd 1c71 99bd
000000f0: 83ab 97bd 8d66 88bd b617 b1bd cdd7 e7bc
00000100: f34b 9dbd dba5 13bd 606d a8bd e403 ffbc
00000110: f394 66bd fb61 bdbd e23b 39bd 8557 9bbd
00000120: 152e 91bd 6d7f 32bd 8e3e 5abd aaee 513d
00000130: 7fbd 30bd 7b64 53bd 4abd 24bd ef98 57bd
00000140: 3089 90bd f037 46bd f0a1 d8bc 2221 c6bc
00000150: ecc2 5fbd cbaf 85bd a807 a5bd 523b 70bd
00000160: 33d0 bebc 95b0 bebc 45d6 bbbd eeb8 9dbd
00000170: 6f02 59bd fd12 74bd 43ac 6cbd 5386 d6bc
00000180: 3d5c e4bc aa8b 9dbd 601f a5bd fd84 81bd
00000190: 4126 b0bd dec1 93bd f7ba f7bc 7712 443d
000001a0: 91c9 93bd 0405 04bd 311c 09bd 4d28 4fbd
000001b0: aa3f 25bd ab00 eebc e9cf 92bd 0f5e 90bd
000001c0: d547 71bd f6a1 a0bd 0cbd 5fbd 1186 aebd
000001d0: 6336 14bd 9526 a4bd c689 1bbd 9998 88bd
000001e0: 92ca 37bd cff7 b3bd 859b 8abd 9717 69bd
000001f0: aed9 88bd 562f 90bd 9284 b2bd cfb9 1bbd
00000200: 17ef 27bd 7d1d 8fbd bc27 9bbd af88 23bd
00000210: 9e4f 59bd 982d 30bd f188 83bd 39ae a5bd
00000220: f84b a0bd 85c3 43bd e459 f4bc 690e cd3c
00000230: a850 abbd 9573 cebc 8bac 25bd 5394 b8bd
00000240: a63e e0bc 5982 bfbc c80f 56bd fe98 8bbd
00000250: 6133 4bbd a877 67bd d46f 97bd 7d2e 81bd
00000260: 3bdf 95bd f00a acbd 56ec 40bd 9df0 a6bd
00000270: 296e 30bd e3b6 f83c ad64 63bd 04ce 6dbd
00000280: 511c cdbc 6c6d 8ebd b325 01bd 13b9 46bd
00000290: 7d30 7bbd 0b44 b1bd 980f 26bd b958 3abd
000002a0: 70c7 f2bc 5e05 68bd f3db 37bd 95f6 b5bd
000002b0: c996 aebd f114 a5bd 0ffd 56bd eb83 55bd
000002c0: 465b b9bd 7457 b1bd c906 a9bd f2f1 4ebd
000002d0: 5548 74bd e224 aabd b35c 83bd 0448 abbd
000002e0: 03b7 87bd 8e3f 45bd 120d 99bd 5043 9abd
000002f0: 01f3 1abd 1600 a9bd 8f7d e7bc e852 babd
00000300: 336f 5bbd 6da1 d6bc 877d 0bbd 76a7 69bd
00000310: ac02 dcbc 55bc 6bbd d59f b0bd 5901 b0bd
00000320: 4c35 6abd 9f27 bfbc ea36 5abd a0f8 22bd
00000330: 5fec 2fbd f0e4 12bd b219 93bd d6b3 b1bd
00000340: 00e1 3bbd 3111 15bd 00be 5abd cb84 8cbd
00000350: f4c8 96bd 0910 9fbd 6d16 9abd e9e4 1ebd
00000360: 3d1e 11bd 14a9 87bd 68e6 cbbc c9ef 06bd
00000370: 5e30 75bd b594 aabd e876 97bd 105c 98bd
00000380: ae5b e9bc 7852 eebc 0336 8bbd 3283 a3bd
00000390: f725 6bbd d521 dbbc d90c 043d bb75 aabd
000003a0: 8165 7dbd 4d3c 99bd d906 74bd 9df6 96bd
000003b0: a0ce b4bd 0e85 aabd 2c7d 75bd f931 03bd
000003c0: 7dfe 74bd a446 c4bc 3809 d9bc 2eec 59bd
000003d0: 43e3 1dbd 3ba0 74bd e2e2 80bd c608 97bd
000003e0: e041 abbd 889a aebd 995c f5bc da42 80bd
000003f0: 94d1 18bd a009 24bd d603 7d3d 281c 63bd

feature_extractor.exemplar_encoder.0.bias f4 [64]
-0.0311934 0.053040158 0.025117846 0.06510502 -0.071671106 -0.024652092 -0.04696598 0.04335668
0.091245905 -0.026432741 0.07773476 0.009572418 0.029316418 0.06519497 0.10097501 -0.08763572
-0.023878869 0.08565823 -0.05449813 -0.02151234 -0.08344443 -0.073905855 0.06857732 -0.029488653
0.027514018 0.010713537 -0.061403766 0.06702833 0.09088893 0.02618612 0.0522725 0.052788913
-0.08916793 -0.0072630374 -0.08118328 0.022820085 0.03594524 0.08500857 -0.0504556 0.08275828
-0.0019455783 0.01728006 0.030901926 0.023443928 0.020236187 0.024002545 -0.037151776 0.053815614
-0.023947822 -0.08049568 -0.061298385 -0.05648686 0.004383 0.033941187 0.051598646 0.072796755
0.057371303 -0.014696201 0.008895546 -0.08980398 0.03667811 0.09410108 0.028544309 0.09205305
00000000: 4d89 ffbc a340 593d f1c3 cd3c c855 853d
00000010: 4dc8 92bd 2ff3 c9bc 665f 40bd c696 313d
00000020: 22df ba3d 7a89 d8bc 6733 9f3d a2d5 1c3c
00000030: fc28 f03c f184 853d fccb ce3d 5b7a b3bd
00000040: 9e9d c3bc 956d af3d 6e39 5fbd a63a b0bc
00000050: eae4 aabd f45b 97bd 4472 8c3d 3092 f1bc
00000060: 1465 e13c d587 2f3c 8482 7bbd 2646 893d
00000070: fa23 ba3d 4684 d63c b01b 563d 3039 583d
00000080: ad9d b6bd c6fe edbb 6b43 a6bd 30f1 ba3c
00000090: 513b 133d f918 ae3d 88aa 4ebd 2c7d a93d
000000a0: c602 ffba ea8e 8d3c 0926 fd3c 7b0d c03c
000000b0: 5cc6 a53c fca0 c43c 762c 18bd c36d 5c3d
000000c0: 392e c4bc ebda a4bd 0414 7bbd c45e 67bd
000000d0: 459f 8f3b ea05 0b3d 1a59 533d 7716 953d
000000e0: 2cfe 6a3d 56c8 70bc a0be 113c 26eb b7bd
000000f0: c93b 163d 11b8 c03d c1d5 e93c 4f86 bc3d

feature_extractor.exemplar_encoder.2.weight f4 [32, 64]
0.096356176 -0.0811726 -0.020711886 0.05083856 -0.049907226 0.06279048 0.05388396 0.044137165
-0.060056698 0.04756037 0.0697145 0.07185482 -0.055092998 0.011370504 -0.11566943 -0.073677845
0.045379646 -0.023580864 -0.04108874 -0.005184216 -0.0021835996 0.048181523 -0.040606957 0.1182749
-0.07415127 0.08634261 0.05091134 -0.0749479 -0.085951224 -0.09032976 -0.10097416 0.057579774
0.06490348 -0.120451145 0.053141735 -0.059693392 -0.043806277 0.08795908 0.04796424 -0.08175114
0.055582285 0.021777084 -0.062346354 -0.024167279 -0.11773222 0.05590808 0.023007993 0.10256459
0.09094021 0.012746407 0.06902813 0.05721866 -0.036253627 0.08003014 -0.03795289 0.05520894
-0.05249084 -0.10520969 0.02908945 0.059872128 0.020530237 -0.09218521 -0.11648149 0.017583005
0.011591811 0.10307502 0.01654265 0.088149115 0.00713576 0.034640193 -0.009308857 0.056530118
-0.11585296 -0.06228514 -0.026332432 0.07928026 -0.02007045 -0.02647369 -0.15837118 -0.05287684
-0.06689486 -0.08360975 0.1464754 0.10160143 0.008268838 0.056212362 -0.09081235 -0.0056265863
0.018625362 0.037353013 -0.13011636 -0.14127043 0.028550398 -0.014519491 -0.21211018 -0.015881266
0.15697658 -0.015318488 -0.04817384 -0.02873739 -0.025650108 -0.006173059 -0.017949328 -0.052972175
-0.058064856 -0.00449003 -0.07952729 0.109761424 -0.096396595 -0.019900396 -0.07014895 0.03167592
-0.027272383 0.09066669 0.009297876 0.026674256 -0.020073015 -0.00054665346 -0.05461734 -0.031623155
0.00083079544 -0.10693581 -0.0013085363 0.0012174599 0.01074482 -0.2543237 -0.07770742 0.17476118
-0.0365662 -0.21001004 -0.11822436 -0.11509964 -0.026484694 0.0030610594 -0.046183556 -0.15421274
0.041686825 -0.12085413 -0.14861186 0.017379414 -0.18367487 0.0043639075 -0.07519006 -0.1419867
-0.021947045 0.02396833 -0.07886563 -0.11643795 0.0522386 0.042280186 -0.13451162 -0.108277336
0.113768026 -0.09415283 -0.04447508 -0.030610343 0.017365359 -0.017255155 -0.012443152 -0.15887253
0.005770912 -0.0016956876 -0.16494508 -0.03808069 0.04000907 0.09661769 0.010790127 -0.07897381
-0.0035141432 -0.06593589 0.018443946 -0.08053095 0.037187032 -0.0045117424 0.043790318 0.020284373
-0.024535686 -0.025062783 -0.016434541 0.03467168 0.100476414 0.033641677 -0.1103246 -0.006477781
-0.026694223 -0.08891973 0.082180254 0.063270375 -0.20928997 0.09895562 -0.053695105 0.06620806
-0.04828083 0.10034042 0.002380153 0.06487552 0.040055677 0.112465285 0.054487985 0.032454643
-0.014024615 0.05541956 -0.07056795 -0.031151995 -0.03261982 0.10956645 -0.04468092 -0.07018171
0.09824247 -0.06547456 -0.06443378 -0.044399586 -0.04607922 -0.0078063495 0.047136962 0.06582636
-0.004308705 -0.094201654 0.08066866 -0.019620137 -0.0034289402 0.0747336 0.04156548 -0.08634885
-0.085323706 -0.08665544 0.095236555 0.017113134 -0.079524055 0.014416855 0.05971923 -0.11360439
0.08871752 0.040500112 0.11528268 -0.0035343047 -0.020905465 -0.09867565 -0.06325712 -0.08171805
0.08290924 0.07373292 -0.11624716 0.06547023 0.07636187 -0.05869122 -0.07702535 -0.007968795
-0.051634837 -0.086770356 0.0697604 -0.09300756 -0.07363101 0.076749384 0.017863289 -0.080369316
00000000: 6356 c53d d23d a6bd f9ab a9bc 183c 503d
00000010: 856b 4cbd 4c98 803d 6db5 5c3d 2cc9 343d
00000020: 03fe 75bd aace 423d 7ac6 8e3d 9f28 933d
00000030: 32a9 61bd 5a4b 3a3c 18e4 ecbd 69e4 96bd
00000040: 02e0 393d a82c c1bc ab4c 28bd 5be0 a9bb
00000050: b91a 0fbb fd59 453d 7b53 26bd 1c3a f23d
00000060: 9fdc 97bd 65d4 b03d 6988 503d 497e 99bd
00000070: 3207 b0bd cffe b8bd 8acb cebd c5d8 6b3d
00000080: 1eec 843d 17af f6bd 26ab 593d 0f81 74bd
00000090: 366e 33bd e423 b43d 2776 443d 246d a7bd
000000a0: 40aa 633d db65 b23c e45e 7fbd 75fa c5bc
000000b0: 971d f1bd dfff 643d 427b bc3c 620d d23d
000000c0: dc3e ba3d 4ed6 503c 9f5e 8d3d 1d5e 6a3d
000000d0: af7e 14bd d8e6 a33d 7d74 1bbd c522 623d
000000e0: a300 57bd 2e78 d7bd 004d ee3c 7a3c 753d
000000f0: 072f a83c 99cb bcbd d98d eebd 3c0a 903c
00000100: 94eb 3d3c ff18 d33d 7484 873c 8687 b43d
00000110: 18d3 e93b e0e2 0d3d 2d84 18bc 208c 673d
00000120: 5144 edbd b41e 7fbd 1db7 d7bc b05d a23d
00000130: c96a a4bc 5adf d8bc 0e2c 22be 6395 58bd
00000140: 2c00 89bd 973b abbd a6fd 153e 6914 d03d
00000150: 057a 073c ef3e 663d d3fb b9bd 3a5f b8bb
00000160: 3794 983c 79ff 183d 393d 05be 32a9 10be
00000170: 86e2 e93c 29e3 6dbc 6933 59be 6e19 82bc
00000180: 78be 203e 65fa 7abc ef51 45bd ad6a ebbc
00000190: 2d20 d2bc 5f47 cabb 780a 93bc 5af9 58bd
000001a0: 6ad5 6dbd 1a21 93bb 34df a2bd 99ca e03d
000001b0: 946b c5bd 2806 a3bc 41aa 8fbd 9cbe 013d
000001c0: 556a dfbc 75af b93d 1e56 183c f883 da3c
000001d0: 2a70 a4bc 4b4d 0fba 6fb6 5fbd 4887 01bd
000001e0: bdc9 593a 2901 dbbd 3183 abba 2d93 9f3a
000001f0: 0b0b 303c b736 82be 1125 9fbd 98f4 323e
00000200: 71c6 15bd df0c 57be 9d1f f2bd 5cb9 ebbd
00000210: 6ef6 d8bc 0e9c 483b f82a 3dbd f2e9 1dbe
00000220: cebf 2a3d 5f82 f7bd b52d 18be 465f 8e3c
00000230: 4415 3cbe 1cff 8e3b 3ffd 99bd f664 11be
00000240: 4aca b3bc 3b59 c43c 4e84 a1bd 0577 eebd
00000250: 24f8 553d fd2d 2d3d 6abd 09be 82c0 ddbd
00000260: 36ff e83d 33d3 c0bd 802b 36bd 8bc2 fabc
00000270: cc41 8e3c af5a 8dbc 5dde 4bbc 7baf 22be
00000280: eb19 bd3b d641 deba 5de7 28be 7ffa 1bbd
00000290: 8de0 233d 7fdf c53d 13c9 303c 05bd a1bd
000002a0: 8a4d 66bb 6509 87bd c217 973c 69ed a4bd
000002b0: 6e51 183d 3dd7 93bb 7a5d 333d 6a2b a63c
000002c0: 10ff c8bc 7750 cdbc bba1 86bc e403 0e3d
000002d0: 94c6 cd3d dbcb 093d ddf1 e1bd 9143 d4bb
000002e0: d8ad dabc 8c1b b6bd 1f4e a83d e693 813d
000002f0: 1c50 56be 3ea9 ca3d 66ef 5bbd 1798 873d
00000300: 1fc2 45bd 477f cd3d 57fc 1b3b 75dd 843d
00000310: 6c11 243d 3354 e63d cb2e 5f3d 29ef 043d
00000320: 80c7 65bc 9fff 623d ee85 90bd 7832 ffbc
00000330: 5c9c 05bd 6064 e03d 5703 37bd 6ebb 8fbd
00000340: 5933 c93d 8717 86bd dcf5 83bd 57dc 35bd
00000350: 90bd 3cbd 68cc ffbb b012 413d f8cf 863d
00000360: 0a30 8dbb ccec c0bd 9c35 a53d 69ba a0bc
00000370: 12b8 60bb ee0d 993d 9140 2a3d aad7 b0bd
00000380: 32be aebd 6878 b1bd 620b c33d d830 8c3c
00000390: 82dd a2bd ac34 6c3c 279c 743d 6ba9 e8bd
000003a0: 88b1 b53d 72e3 253d 5319 ec3d cb9f 67bb
000003b0: f041 abbc 7616 cabd f38c 81bd cb5b a7bd
000003c0: 52cc a93d 4901 973d fe12 eebd 4215 863d
000003d0: 9d63 9c3d 3466 70bd 77bf 9dbd 8c8f 02bc
000003e0: 0d7f 53bd a8b4 b1bd 8ade 8e3d bf7a bebd
000003f0: dbcb 96bd c82e 9d3d 0856 923c ab98 a4bd

feature_extractor.exemplar_encoder.2.bias f4 [32]
-0.1116509 0.044757877 0.015663877 -0.094932735 -0.1734453 0.117435105 -0.035221778 0.11428967
-0.097348765 0.06264221 0.015108077 0.046224896 0.02080624 -0.063518725 0.0068573914 0.027527556
0.050888944 0.18031213 -0.016849604 0.16024442 -0.03681447 -0.045646295 -0.11197348 0.069022074
0.07025063 -0.03320736 -0.008485069 0.031949207 -0.0108394 -0.0475422 0.10583686 -0.016773334
00000000: 3aa9 e4bd 0954 373d 8851 803c 186c c2bd
00000010: a59b 31be d181 f03d b644 10bd b410 ea3d
00000020: ca5e c7bd 8f4a 803d de87 773c 5156 3d3d
00000030: d971 aa3c 1b16 82bd f8b3 e03b 7881 e13c
00000040: ed70 503d bea3 383e 2e08 8abc 1d17 243e
00000050: c5ca 16bd 9cf7 3abd 5a52 e5bd 725b 8d3d
00000060: 90df 8f3d 7104 08bd f504 0bbc 2cdd 023d
00000070: bd97 31bc 9cbb 42bd ffc0 d83d 3b68 89bc

feature_extractor.joint_encoder.0.weight f4 [32, 64]
-0.026144959 0.065736555 0.13438441 -0.057813484 -0.03129983 -0.0896132 0.044535514 -0.07157127
-0.05223467 0.02859286 0.0047009885 -0.099442974 0.025204238 -0.16527422 -0.08234065 -0.09611392
-0.09999278 -0.16024679 0.058477066 -0.099874444 0.091215916 -0.021691028 -0.0037038447 -0.058471203
0.15527606 -0.008789227 0.09211426 0.02039486 -0.042484235 -0.0017452098 0.13743001 0.00012461765
0.11623462 0.10835632 -0.014346301 -0.06675438 0.10999901 -0.09320734 -0.067341655 0.06195356
0.046745557 0.16071013 0.08033577 0.063603945 -0.036019307 -0.025248582 0.08371986 -0.03391977
0.08942177 -0.018837182 -0.16976306 0.07797823 0.06521911 0.05442904 0.16281936 0.00018059746
0.047149744 0.12060072 -0.037365705 0.02385488 0.16084337 -0.09673444 -0.13522376 0.0846763
-0.021794636 0.05868177 0.052085355 -0.060073666 0.059621237 0.12642302 0.084759064 -0.08899044
0.026115786 0.107838295 -0.06551674 0.010853913 -0.17231862 -0.016896928 0.023344936 0.044300538
-0.038028367 0.119030796 0.07212774 -0.021309398 -0.08335664 0.061715018 0.105443396 0.10883523
0.17904899 0.08432378 -0.011539345 0.0029785943 -0.07629639 0.053033546 0.009244656 0.073944435
0.10363487 0.028100772 -0.07186866 0.08620404 0.033679757 0.044425167 -0.0581253 0.113834545
-0.099791996 0.0848851 -0.012874069 -0.023435468 0.0332367 0.063359134 -0.16476233 0.04889519
0.11950717 -0.06307746 -0.05869127 -0.05791408 0.06379669 -0.05923472 -0.055108167 0.088475175
-0.009748093 0.081603095 0.06686629 0.02770186 0.06459149 0.006230076 0.08149542 -0.04893873
0.15167321 0.12836735 -0.0506446 0.033505127 0.050051473 0.056589633 -0.05137527 -0.0016831325
-0.053915713 0.024263702 0.05960172 0.018445691 0.04512508 0.02565828 -0.09287342 0.115654394
-0.06047035 0.09875754 -0.109841354 0.05821472 -0.043411836 0.08079515 -0.008369972 0.02005315
0.0003346971 0.12122333 0.03642828 0.0687017 0.04781937 -0.07383906 0.022838674 0.092337534
-0.0045799064 -0.02629897 -0.012150962 0.10861656 -0.045456737 -0.09806925 0.056560688 0.15737714
0.11314605 -0.08304506 0.033801384 -0.02512269 -0.03439721 -0.018748011 -0.066075325 -0.06029066
-0.025478078 -0.05348607 -0.092050426 0.103040494 -0.028998699 0.0145069435 0.047404382 0.10139321
-0.009156123 0.06733946 -0.10268057 0.095185176 -0.03709051 -0.006850914 0.14108966 -0.09598942
-0.062232997 0.1763764 -0.09663557 -0.0282445 0.026406871 -0.11185408 -0.14190905 -0.16230778
-0.045985933 -0.14602818 -0.019856159 0.13307884 -0.055206794 0.03861952 -0.0026984715 -0.053092673
0.060118925 0.12800045 -0.17408143 0.00085582765 0.052185293 -0.0676121 -0.059826497 0.0076765716
0.010451383 0.04453898 -0.004508269 -0.09605285 -0.15917282 -0.045954593 -0.1393833 -0.067178495
-0.042430297 0.04757191 -0.025532875 -0.04116173 0.12537068 -0.018202692 -0.01868711 0.10215622
0.091523744 -0.14109875 -0.031344447 -0.08419005 0.07856962 0.17548238 -0.043654215 -0.06322305
0.056664012 -0.047918867 0.020658825 0.12143113 0.0077795875 0.026143461 -0.060826223 0.14826326
0.002194083 -0.0075783087 0.092524864 0.006559367 -0.026093926 -0.02825745 0.08117379 0.00054859516
00000000: f42d d6bc e3a0 863d 119c 093e d5cd 6cbd
00000010: 4034 00bd 2087 b7bd df6a 363d f593 92bd
00000020: 05f4 55bd 933b ea3c c00a 9a3b c2a8 cbbd
00000030: 1e79 ce3c a53d 29be 37a2 a8bd 60d7 c4bd
00000040: 04c9 ccbd bc17 24be a685 6f3d f98a ccbd
00000050: 69cf ba3d 62b1 b1bc 34bc 72bb 807f 6fbd
00000060: b000 1f3e b100 10bc 67a6 bc3d 1f13 a73c
00000070: f303 2ebd 86bf e4ba 74ba 0c3e ccab 0239
00000080: 6b0c ee3d ebe9 dd3d bf0c 6bbc 85b6 88bd
00000090: 2947 e13d 7de3 bebd 6cea 89bd 04c3 7d3d
000000a0: 4578 3f3d 3291 243e 1587 a43d c942 823d
000000b0: fb88 13bd 1dd6 cebc 5175 ab3d 75ef 0abd
000000c0: c322 b73d 6f50 9abc 5ed6 2dbe 0db3 9f3d
000000d0: 9991 853d fcf0 5e3d 1eba 263e c35e 3d39
000000e0: 1720 413d 83fd f63d c80c 19bd 4f6b c33c
000000f0: 20b4 243e b51c c6bd 1978 0abe c56a ad3d
00000100: aa8a b2bc 4c5c 703d 7457 553d ce0f 76bd
00000110: 6635 743d 0975 013e 2996 ad3d 9f40 b6bd
00000120: c6f0 d53c 53da dc3d a42d 86bd 9cd4 313c
00000130: 4b74 30be 6d6b 8abc e13d bf3c 7b74 353d
00000140: a2c3 1bbd 6bc6 f33d b5b7 933d 0c91 aebc
00000150: e3b6 aabd e3c8 7c3d b5f2 d73d 01e5 de3d
00000160: 9e58 373e f2b1 ac3d 850f 3dbc 8534 433b
00000170: 4841 9cbd b439 593d e676 173c 2e70 973d
00000180: 853e d43d 9733 e63c e02f 93bd be8b b03d
00000190: c9f3 093d 2af7 353d cb14 6ebd 1622 e93d
000001a0: bf5f ccbd 3dd8 ad3d c2ed 52bc bdfb bfbc
000001b0: 3523 083d 6fc2 813d 75b7 28be 5346 483d
000001c0: 2dc0 f43d c12e 81bd 4266 70bd 5037 6dbd
000001d0: d7a7 823d 1ba0 72bd 1ab9 61bd 7932 b53d
000001e0: 77b6 1fbc 861f a73d 32f1 883d 03ef e23c
000001f0: 8b48 843d aa25 cc3b 12e7 a63d fa73 48bd
00000200: 3950 1b3e bb72 033e b670 4fbd ac3c 093d
00000210: c602 4d3d 88ca 673d e06e 52bd 8e9c dcba
00000220: b9d6 5cbd acc4 c63c ef20 743d 6b1b 973c
00000230: 13d5 383d 5031 d23c 6b34 bebd 36dc ec3d
00000240: c2af 77bd 6541 ca3d 81f4 e0bd 8f72 6e3d
00000250: 9cd0 31bd ed77 a53d 3522 09bc 8146 a43c
00000260: 497a af39 f043 f83d d235 153d 7ab3 8c3d
00000270: 3ede 433d ef38 97bd 2c18 bb3c 761b bd3d
00000280: 0a13 96bb f070 d7bc d414 47bc 5c72 de3d
00000290: d830 3abd 88d8 c8bd 2eac 673d 7927 213e
000002a0: 1eb9 e73d 8713 aabd 5273 0a3d 19ce cdbc
000002b0: 17e4 0cbd 6e95 99bc 8052 87bd 57f3 76bd
000002c0: 67b7 d0bc 3614 5bbd ef84 bcbd e506 d33d
000002d0: ae8e edbc 88ae 6d3c 192b 423d 3ea7 cf3d
000002e0: 9003 16bc 45e9 893d 314a d2bd 72f0 c23d
000002f0: 38ec 17bd a27d e0bb cf79 103e 1a96 c4bd
00000300: 07e8 7ebd 049c 343e dfe8 c5bd 0261 e7bc
00000310: 3953 d83c c013 e5bd 9b50 11be 0334 26be
00000320: bf5b 3cbd 6988 15be 62a9 a2bc d245 083e
00000330: 8520 62bd 802f 1e3d d7d8 30bb b477 59bd
00000340: 433f 763d 8d12 033e 6742 32be 9f59 603a
00000350: 3fc0 553d 3678 8abd a10c 75bd c08b fb3b
00000360: 473c 2b3c 816e 363d 1aba 93bb 5bb7 c4bd
00000370: 33fe 22be e23a 3cbd 7fba 0ebe e194 89bd
00000380: 64cb 2dbd c3da 423d 522a d1bc 3499 28bd
00000390: 2c61 003e d01d 95bc b615 99bc 4837 d13d
000003a0: cd70 bb3d 317c 10be 0963 00bd d56b acbd
000003b0: 1ce9 a03d a7b1 333e c3ce 32bd 167b 81bd
000003c0: 8618 683d 9346 44bd b23c a93c e2b0 f83d
000003d0: e9eb fe3b d02a d63c eb24 79bd 53d2 173e
000003e0: 9bca 0f3b 7653 f8bb ad7d bd3d f5ef d63b
000003f0: eec2 d5bc 2b7c e7bc 723e a63d 99cf 0f3a

feature_extractor.joint_encoder.0.bias f4 [32]
0.0062046517 -0.0048660357 -0.011444468 0.098947495 -0.09621629 -0.008168074 -0.06582539 0.06310921
-0.021822078 0.11706069 0.17826726 -0.033343688 0.1442087 0.03460478 -0.101104714 0.05011533
-0.09117489 0.086779565 -0.10636166 0.019855626 0.0252507 -0.03256941 -0.048259705 0.058571674
-0.057479795 0.021478565 -0.04788856 -0.103181854 0.011945951 0.13262048 -0.00044004395 -0.049517885
00000000: 6450 cb3b 4473 9fbb 9481 3bbc fca4 ca3d
00000010: 0c0d c5bd 63d3 05bc 76cf 86bd 673f 813d
00000020: 37c4 b2bc 84bd ef3d b18b 363e 6493 08bd
00000030: 72ab 133e bebd 0d3d fd0f cfbd bb45 4d3d
00000040: e7b9 babd 7cb9 b13d 24d4 d9bd 44a8 a23c
00000050: 8eda ce3c 8067 05bd f8ab 45bd dae8 6f3d
00000060: ef6f 6bbd d1f3 af3c cb26 44bd 0251 d3bd
00000070: f3b8 433c aacd 073e b3b5 e6b9 44d3 4abd

feature_extractor.joint_encoder.2.weight f4 [10, 32]
0.14930275 -0.03619004 0.03511466 0.070328556 -0.116797894 -0.071638525 0.13106257 -0.0651746
-0.08110296 0.041749943 0.016181331 0.10407575 -0.127417 -0.015990885 0.15257819 -0.03562116
0.069225796 -0.0054314053 -0.14561069 -0.03256155 -0.041788604 0.03354744 0.105230525 0.023440447
-0.067859955 -0.03863812 -0.0004604577 -0.044361472 0.19029522 0.0164692 -0.0778599 0.025869744
0.06415455 -0.038109183 0.020505048 -0.010220023 0.1364659 0.02000004 0.021758156 0.0064184875
0.16075486 -0.0068334527 -0.050040573 -0.13245532 -0.05077351 -0.06401392 0.13521518 0.017118018
-0.22965197 0.006273191 0.12047284 0.04184156 -0.15104827 0.08034093 0.09957257 -0.020005075
-0.030841973 0.0530452 0.007810024 0.009959807 -0.22060136 -0.018900625 -0.12705697 0.22333011
-0.15337199 -0.052093435 0.013508063 -0.03825688 -0.10341708 0.03212588 0.014180989 -0.023900827
0.025888763 -0.08256655 0.060712542 0.092675634 -0.14387624 -0.16295017 -0.08415455 0.036468077
-0.06689666 -0.012844406 -0.0047228634 0.061495237 0.19922492 -0.023969771 0.051817197 0.039352607
-0.017993258 -0.014851588 0.044719823 -0.15590185 0.20287305 0.014497583 -0.049604885 -0.121014856
0.11371722 0.036841337 -0.003441563 -0.16558534 -0.13086374 -0.0790058 0.17688979 -0.028648654
-0.042241916 0.095320895 0.02778366 -0.18607904 -0.09025541 0.21346575 -0.025166482 -0.09882416
0.2236846 0.11063429 -0.11122399 -0.044327915 -0.022328122 0.15152434 0.08090164 -0.0351675
0.079174936 0.032689977 -0.07829024 0.102514856 -0.21209243 0.025034556 -0.09920049 0.06284808
0.1679336 0.06651057 0.01120083 -0.15263359 -0.09981608 0.008843861 -0.05573898 0.0056808502
0.08896834 0.0066873278 0.016564084 0.14044659 0.18878195 -0.13105182 -0.10394191 -0.006931303
-0.11518584 0.13025993 0.046530835 -0.07298867 -0.06327768 -0.062080212 0.16833995 -0.038249824
0.02678568 0.016377402 0.002509284 -0.16902609 0.052946057 -0.002356206 0.07558997 -0.013029237
0.034654524 -0.033248913 0.006528577 0.18989527 -0.16648068 0.008489816 -0.08789472 0.011302297
-0.21115567 0.017037846 -0.06595682 0.027906466 -0.19848493 0.21346132 0.11006897 0.013884894
0.22397517 -0.007800002 -0.06847127 0.13801584 0.22319095 0.10431767 -0.094795346 -0.018488284
-0.041451853 -0.0028154138 0.021052768 0.17361441 0.040305413 -0.026579265 -0.10427236 -0.17665102
0.059040055 -0.03114556 0.02500837 0.21235047 -0.058806185 -0.015212921 0.08967742 -0.049399078
0.12579171 -0.03547003 0.08651387 0.14489889 -0.03140519 -0.04099346 -0.037536904 -0.022627065
-0.22904216 -0.22870244 0.06719591 -0.10005708 0.19204508 0.12709622 -0.0023586985 0.022105386
0.027024632 0.044642154 -0.01618998 -0.106587134 -0.024635686 0.037179157 0.13397287 -0.13077655
-0.09688855 -0.014455968 0.0129598165 0.060688503 0.09456426 -0.023960205 0.14643034 -0.02216766
0.112475514 0.018037518 0.0067475657 0.037420418 -0.010975197 -0.01932206 -0.047425516 -0.018094018
-0.085383914 0.0429514 -0.08175141 0.20386451 0.18537383 0.023961896 -0.11587633 0.004990247
-0.0070704557 0.01100554 -0.013259582 -0.013612485 0.060107637 0.008717106 0.043980412 0.085396245
00000000: d2e2 183e 023c 14bd 64d4 0f3d 6b08 903d
00000010: bc33 efbd 38b7 92bd 4435 063e 437a 85bd
00000020: 4f19 a6bd fd01 2b3d b68e 843c ab25 d53d
00000030: 9a79 02be 51ff 82bc 753d 1c3e 7ee7 11bd
00000040: 41c6 8d3d eef9 b1bb f81a 15be 435f 05bd
00000050: 872a 2bbd 0a69 093d 1a83 d73d 2e06 c03c
00000060: 29fa 8abd 0143 1ebd 9669 f1b9 60b4 35bd
00000070: c0dc 423e 6aea 863c 0375 9fbd c9ec d33c
00000080: 7663 833d 6018 1cbd 34fa a73c e271 27bc
00000090: b8bd 0b3e 20d7 a33c 293e b23c 2d52 d23b
000000a0: ec9c 243e 28eb dfbb 58f7 4cbd 5ea2 07be
000000b0: e2f7 4fbd bb19 83bd d975 0a3e 163b 8c3c
000000c0: e329 6bbe 578f cd3b 77ba f63d 0e62 2b3d
000000d0: 66ac 1abe c989 a43d b4ec cb3d afe1 a3bc
000000e0: 4ea8 fcbc ec45 593d 3beb ff3b 752e 233c
000000f0: 53e5 61be 7cd5 9abc 391b 02be a6b0 643e
00000100: 8c0d 1dbe ed5f 55bd ec50 5d3c 3fb3 1cbd
00000110: 56cc d3bd 6d96 033d 6157 683c abcb c3bc
00000120: ac14 d43c a718 a9bd b7ad 783d b9cc bd3d
00000130: 4b54 13be 69dc 26be 3959 acbd 8d5f 153d
00000140: 1e01 89bd 5871 52bc 40c2 9abb 6ee2 7b3d
00000150: 9e01 4c3e 415c c4bc 453e 543d 3330 213d
00000160: 9966 93bc 1354 73bc 222c 373d bca4 1fbe
00000170: f4bd 4f3e 4587 6d3c 7e2e 4bbd a3d6 f7bd
00000180: 93e4 e83d f1e6 163d d98b 61bb 348f 29be
00000190: 2501 06be cbcd a1bd 9922 353e 95b0 eabc
000001a0: dc05 2dbd 9a37 c33d 8f9a e33c 818b 3ebe
000001b0: d4d7 b8bd c496 5a3e f029 cebc 5264 cabd
000001c0: 930d 653e 3b94 e23d 67c9 e3bd 3091 35bd
000001d0: 77e9 b6bc 3229 1b3e c2af a53d cc0b 10bd
000001e0: 7826 a23d ede5 053d a256 a0bd 4ff3 d13d
000001f0: c22e 59be 4515 cd3c a029 cbbd 7fb6 803d
00000200: c9f6 2b3e b236 883d b083 373c fb4b 1cbe
00000210: 5f6c ccbd d7e5 103c 8f4e 64bd 6d26 ba3b
00000220: 0835 b63d 5f21 db3b 67b1 873c 3bd1 0f3e
00000230: 0e50 413e 7332 06be 7fdf d4bd fc1f e3bb
00000240: 8ee6 ebbd dc62 053e 1e97 3e3d 157b 95bd
00000250: ba97 81bd d247 7ebd 4f61 2c3e d9ab 1cbd
00000260: a46d db3c e729 863c cd72 243b 2d15 2dbe
00000270: f7dd 583d 946a 1abb eace 9a3d 9578 55bc
00000280: e7f1 0d3d 0330 08bd aced d53b e873 423e
00000290: e979 2abe df18 0b3c 2602 b4bd 452d 393c
000002a0: 3139 58be f492 8b3c 5f14 87bd 1a9c e43c
000002b0: a23f 4bbe 9b95 5a3e d76b e13d 777d 633c
000002c0: bf59 653e 2997 ffbb aa3a 8cbd 0654 0d3e
000002d0: 2b8c 643e 81a4 d53d 1024 c2bd be74 97bc
000002e0: 6bc9 29bd ce82 38bb db76 ac3c fac7 313e
000002f0: 4a17 253d c2bc d9bc bf8c d5bd 01e4 34be
00000300: fcd3 713d f924 ffbc 5ade cc3c 6772 593e
00000310: c1de 70bd 9e3f 79bc cca8 b73d b056 4abd
00000320: 8bcf 003e 0649 11bd 2f2e b13d 6060 143e
00000330: baa2 00bd c2e8 27bd 4cc0 19bd 655c b9bc
00000340: 078a 6abe f930 6abe 029e 893d baea ccbd
00000350: 77a7 443e 8325 023e 6594 1abb 5b16 b53c
00000360: c362 dd3c b1da 363d d9a0 84bc 5b4a dabd
00000370: c7d0 c9bc 2c49 183d 2f30 093e 4aea 05be
00000380: 816d c6bd b9d8 6cbc 6955 543c 8294 783d
00000390: e8aa c13d 3148 c4bc d6f1 153e f498 b5bc
000003a0: 9059 e63d 6bc3 933c af1a dd3b 2746 193d
000003b0: 50d1 33bc 4c49 9ebc 4241 42bd e839 94bc
000003c0: c3dd aebd cfed 2f3d 496d a7bd dcc1 503e
000003d0: a3d2 3d3e bd4b c43c 9250 edbd 3a85 a33b
000003e0: 48af e7bb 9550 343c b83e 59bc e606 5fbc
000003f0: 6d33 763d 31d2 0e3c ce24 343d 3ae4 ae3d

feature_extractor.joint_encoder.2.bias f4 [10]
-0.042951304 -0.14957553 -0.10644869 -0.14817461 -0.08834084 0.08346212 0.05159166 0.061190087
-0.038759064 -0.07170953
00000000: b5ed 2fbd 542a 19be c501 dabd 16bb 17be
00000010: 0bec b4bd 30ee aa3d c751 533d 75a2 7a3d
00000020: d3c1 1ebd 72dc 92bd
