hbbops_improved_4/results/10x25/gp_model_final.pt (torch, 625981 bytes, 29 tensors)

deep_kernel.base_kernel.raw_lengthscale f4 [1, 10]
00000000: d46d 78bd 6b3c 93bd bf4e 82bd 5255 8ebd
00000010: f3d5 7cbd 2347 96bd 99cb 74bd 8194 85bd
00000020: 58b0 89bd 2e70 8abd
-0.060651615 -0.07189258 -0.06362676 -0.06949867 -0.061727475 -0.07337787 -0.05976448 -0.065224655
-0.06723088 -0.06759678

fidelity_kernel.covar_factor f4 [15, 3]
00000000: 1c52 6e3f 7a67 75bf dafb 9a3e 7cf0 acbe
00000010: 4826 f9bf b3d4 f1bf 7741 b53f f32f 123f
00000020: 3f40 89bf abd2 9f3d 8ead 7f3f 3ef0 a2bd
00000030: 42e8 753f 6065 dc3f 9168 98bf c88f 973e
00000040: 7daa 173f d449 07c0 674f 68be 3d3d a33f
00000050: f04f 243e 91d6 3d3e 7d1c 083f 8817 f7be
00000060: 52e1 64bf d6f1 2140 493f f43e 9968 8b3f
00000070: 9626 933f a9de 5fbe 72e4 28bf d4bd adbe
00000080: 4862 05bf 861b 533f 55cf 363f 8857 13bf
00000090: eb90 583e 8b7f cd3e 456f e6bf d371 173f
000000a0: d53c 833e 9761 25bd 8572 11bf 734c ca3d
000000b0: 9916 97bf
0.9309404 -0.9586102 0.30270272 -0.33777225 -1.9464808 -1.8893036 1.4160603 0.57104415
-1.0722731 0.078038536 0.998742 -0.07955979 0.9605752 1.7218437 -1.1906911 0.29601884
0.5924452 -2.113881 -0.2268654 1.2753063 0.16046119 0.18538882 0.5316847 -0.4826014
-0.8940631 2.5303855 0.47704533 1.0891296 1.149615 -0.21862282 -0.6597358 -0.3393389
-0.5210309 0.8246387 0.71410114 -0.5755544 0.21149032 0.4013637 -1.8002707 0.59158057
0.2563235 -0.040376272 -0.5681537 0.09877863 -1.1803771

fidelity_kernel.raw_var f4 [15]
00000000: a7ee 943f 2548 803f 20c9 89be e256 083f
00000010: 17cb 793e fab3 273f 6e88 88bf 3f00 8ebf
00000020: 9610 f4be d902 88bf 92f7 9bbe b38f 2abf
00000030: dbc4 0bbb 41a2 343f f703 493f
1.1635331 1.0022017 -0.2691126 0.5325757 0.24393879 0.65509 -1.0666635 -1.1093825
-0.47668904 -1.0625869 -0.3046232 -0.6662552 -0.0021327052 0.7056008 0.78521675

feature_extractor.instruction_encoder.0.weight f4 [64, 768]
00000000: fd77 c8bd a4d4 e03c b9ff 4fbc 249b a5bd
00000010: ef08 ea3c 1fd5 ee3c ee7a 7c3d 34d2 103c
00000020: 4675 453d b635 5cbd 8017 023d 8a9e 46bd
00000030: fd86 85bc b41e b33d 3d54 99bc 204c 383c
00000040: 9352 b63d 3c95 573d a901 ad3c 3070 8abd
00000050: 48b0 77bc c9ad 5bbd 60e7 333d 22d2 593d
00000060: 3e93 c03d 9829 f9bb 23d2 493d 1cf2 153d
00000070: a6fd 843d b1aa 063d 02be 89bd 2c11 033d
00000080: f7a4 963c 0fc3 643c 336e b23d 08a3 4d3d
00000090: a994 6a3d 37a7 11bd 1dd0 2c3d fda3 03bd
000000a0: 55cb 7c3d 4b7a a63d 2468 68bd bd31 89bd
000000b0: 2ad0 2abd e0e8 c03d 8195 45bd 3aec 993d
000000c0: b331 733c bb3e b2bd a30a 8e3d 0d3e 3fbd
000000d0: f083 833d c5f5 de3c 0039 e6bc 02bc 74bd
000000e0: d434 06bd d70a bcbc aec1 953d 131f a63d
000000f0: 256f 4b3d 6a30 7d3d 765a ac3d 747a 363d
00000100: 72a7 43bd 87e5 5a3d 56c3 c3bd 0390 a13d
00000110: b4be 8f3d f63a e9bb a100 163d 2cec 073d
00000120: ac71 963d 0318 703c abd6 b73d a5f8 adbd
00000130: 415a 063d 8965 963d 8457 9f3d dc73 cc3c
00000140: 5a77 d43c 2da0 edbc 2917 b9bd d456 283d
00000150: e604 fcbc 0251 9c3b ff76 8a3d e299 493d
00000160: 72ee d43c 120b b7bd 2d65 51bd 36bc 843b
00000170: ce72 a0bd e6dd 00bd 5fec 033d 9681 a13d
00000180: 2b85 ccba 7b83 12bd 5cf2 c43c aa4d 9abd
00000190: 617c 353d 3abb 873d 4cda 15bd 3a0f 603d
000001a0: 0a7f 83bd bf19 113d efda 013d 3355 96bd
000001b0: 1954 823d 0350 023d 7e1d 783d fb56 923b
000001c0: 5713 2a3d 0bed 95bd 236d 0a3d c976 b4bd
000001d0: 9e8c 933d 7235 adbd da4e aa3c ffe8 b0bd
000001e0: f5a3 873d 0336 f73c 973a cf3c f8a5 64bd
000001f0: 2331 d53c 4e9e 253c b9a0 b5bd d7b0 143d
00000200: 2473 99bd 8697 7e3d 2807 0a3d c0d9 43bd
00000210: f1d9 9c3d 148c 5f3d 0fde 05bd 0ed3 b43c
00000220: 23d6 693d 4ccc 3b3d 288a 89bd 8189 f93c
00000230: 817a 8a3d 40e2 963c ef3f 533d 4bd0 883d
00000240: 3cc6 0ebd 0120 71bd 61ef a13d fb31 c73c
00000250: 54c5 94bd 73f3 febb 3be4 4dbd 8a2d 0b3d
00000260: 9929 59bd bd8d 613d fcd5 a0bd d460 883d
00000270: 0d17 aa3d 9873 913d a375 0d3d 2f4f 753d
00000280: bf19 36bd b7f0 b03c a12b a03d 57a5 60bd
00000290: 2e92 b3bc 5ac5 7a3d e1e0 2b3c 39d1 9bbd
000002a0: dd0e 83bd 36f6 833d 8c2c 1cbd a73e a73d
000002b0: cca1 65bd 5b4d f0bc 84a0 cc3c 7805 233d
000002c0: 7f9c a1bc cfea db3c 1be3 12bd 7701 c0bd
000002d0: 43a4 bbbd 4137 8bbc 5ea4 0abd 7964 4b3d
000002e0: 44ed 673b 2666 be3d c477 9abd 7bac 0dbd
000002f0: 5084 703d 044a 023d 5219 3b3d d609 d0bc
00000300: 79e8 ea3c fe46 c83c 9718 823d 127d 33bd
00000310: 8262 79bb 3c78 8d3d 5d58 ca3c 5df8 64bd
00000320: 1038 bebc 7a4a 033d 77c6 833d 3039 cb3c
00000330: 9282 bdbc 01f3 da3c 13d8 8abd c679 b2bd
00000340: 2678 083d 19d5 9fbd 38b0 8b3d 5bb5 6b3d
00000350: 287f 0d3d 457d 95bd 3a0e f93c 7204 4d3d
00000360: 20f5 8e3d e8ce b0bd c07e e6bc d922 9fbc
00000370: 543b 3ebd d038 3cbd e651 673c 3584 c93c
00000380: 600a 123d 559e 8a3d f101 353d 5b96 b7bc
00000390: 1b71 963d 8448 b3bc 81a8 26bd d3a8 52bd
000003a0: f935 2f3d d8fe 733d a6aa af3d ee4b b93c
000003b0: 346b 7a3d 0df2 6fbc a48c ccbc 1cbd cd3c
000003c0: 54e1 913d b740 0f3d ffef 0c3d a0b5 5d3d
000003d0: afef 11bc 5c42 35bd 82cf 8f3d 9814 d1bc
000003e0: 97d9 8dbd 0fd8 22bd 56df 133d 6952 143d
000003f0: 2e1f 2ebc bceb 8d3d d7e6 2fbd 5dc6 adbd
-0.09788511 0.027445145 -0.012695246 -0.08086231 0.028568713 0.029154358 0.061640672 0.008839179
0.048207544 -0.05376216 0.031760693 -0.04849104 -0.016299719 0.087460905 -0.018716926 0.011248618
0.089024685 0.052632555 0.021118956 -0.06759679 -0.015117712 -0.05363253 0.04392183 0.053178914
0.09403084 -0.0076038353 0.049272668 0.036607847 0.06493692 0.032877628 -0.06725694 0.0319988
0.018389208 0.013962521 0.08712425 0.050204307 0.05727068 -0.03555986 0.04219066 -0.032138813
0.06171735 0.08128794 -0.05673994 -0.0669894 -0.041702427 0.094194174 -0.04823828 0.0751576
0.014843392 -0.08703371 0.069356225 -0.046690036 0.064216495 0.027216801 -0.028103352 -0.05974961
-0.032765225 -0.022954388 0.07312332 0.08111396 0.049666543 0.06181375 0.084156916 0.044550374
-0.04776711 0.05344155 -0.09558742 0.07888796 0.070187956 -0.0071176244 0.036621694 0.033184215
0.073459 0.014654162 0.089764915 -0.08494691 0.032800917 0.07343585 0.07780364 0.02495759
0.025935818 -0.029007042 -0.090376206 0.04109843 -0.030764055 0.004770399 0.06760978 0.04921902
0.025992606 -0.08937658 -0.05112188 0.004050757 -0.07834397 -0.03146162 0.032207843 0.07886045
-0.0015603652 -0.03576992 0.024041347 -0.075343445 0.04430807 0.066275075 -0.036585137 0.05470202
-0.06420715 0.035424944 0.031702932 -0.07340469 0.063636966 0.031814586 0.060575 0.0044659353
0.04152235 -0.07320603 0.033795487 -0.08811719 0.07204555 -0.084574595 0.020789552 -0.086381905
0.06623069 0.030177122 0.025296493 -0.055822343 0.026024407 0.010108544 -0.08868546 0.03630146
-0.074926645 0.062156223 0.03369823 -0.047815084 0.076587565 0.05457695 -0.032682475 0.022073295
0.057088982 0.04584913 -0.06715804 0.030461075 0.06761647 0.018418431 0.051574644 0.06680354
-0.03485702 -0.058868412 0.07906986 0.024315825 -0.072642 -0.0077804863 -0.050266486 0.033978976
-0.053018186 0.055066813 -0.07853314 0.066590935 0.08305178 0.07102126 0.034536015 0.05988997
-0.044458147 0.021599157 0.078208216 -0.05484518 -0.02192029 0.061223365 0.010490627 -0.076082654
-0.06399319 0.064434454 -0.03812842 0.08166247 -0.056062505 -0.029333761 0.024978884 0.039800137
-0.019727943 0.026845364 -0.035861116 -0.093752794 -0.0916219 -0.01699412 -0.03384816 0.049656365
0.0035389224 0.09296827 -0.07542375 -0.03458832 0.058719933 0.031808868 0.045678444 -0.025395315
0.028675305 0.024447914 0.063523464 -0.04382045 -0.00380531 0.069076985 0.024700338 -0.05590092
-0.023220092 0.03205345 0.064343385 0.024807543 -0.02313355 0.026727201 -0.06779494 -0.08714633
0.033317707 -0.07804317 0.068207204 0.057546 0.034545094 -0.07299284 0.030402292 0.050053068
0.06980348 -0.08633214 -0.028136611 -0.019425796 -0.0464433 -0.045952618 0.014118647 0.024599174
0.035654426 0.06768481 0.044191305 -0.022410562 0.07345792 -0.021885164 -0.04068804 -0.051430535
0.04277608 0.05956921 0.085774705 0.022619214 0.061137393 -0.014645112 -0.024969406 0.025114588
0.07123056 0.034973826 0.034408566 0.05412829 -0.008907243 -0.04425274 0.07022001 -0.025522515
-0.069262676 -0.03975683 0.03610166 0.036211405 -0.010627551 0.069297284 -0.042944755 -0.084851004

feature_extractor.instruction_encoder.0.bias f4 [64]
00000000: 21b2 343d 28f0 61bd c9ac b93b acc7 993d
00000010: c88c c6bc a5ad a53d 636c 43bd 763c bbbc
00000020: 5d83 30bd edbb 9bbd ae1e ef3c 70d4 573d
00000030: 0f7a 08bd 824e 9cbd 3630 a23d d193 2bbd
00000040: 6e95 82bc be62 8e3d f1e4 ba3c da65 09bd
00000050: 07bd 4a3d c239 ab3c 8003 bf3d f5bd 603c
00000060: 9c35 463d 8c16 1cbd 4a34 853d 7069 09bd
00000070: a42b 7f3c 919a a6bc 2365 ba3c 085c d8bc
00000080: 2623 21bd 70b0 89bc bd08 373d 172b 463c
00000090: 0ccd 6ebc cbd8 623c b16b 1e39 0e6c 3b3d
000000a0: eb58 a13c 9edf 54bd d61e fc3c e058 56bd
000000b0: bbf7 9b3c f642 10bd beb0 993d d8d5 383d
000000c0: f9a2 823d cf8a 84bd 6df7 9abc f08f b03d
000000d0: 7583 5abd 1c10 303d 8214 a4bd 50c3 04bd
000000e0: be51 253c daa7 463d d93a 0ebc 0ff0 82bc
000000f0: 1d3d 353d fd81 90bd 7a40 c9bc 8073 9bbb
0.04411519 -0.05516067 0.0056663495 0.075087875 -0.024237052 0.08089761 -0.047710788 -0.022855978
-0.043094028 -0.076042034 0.029189434 0.05269283 -0.03331953 -0.07632162 0.07919352 -0.041889016
-0.015940394 0.06952427 0.022814246 -0.0335444 0.049496677 0.020901565 0.093268394 0.013717164
0.04839097 -0.03810744 0.06504114 -0.03354782 0.01557437 -0.020337375 0.022753304 -0.026411071
-0.03934016 -0.016807765 0.044686068 0.012095234 -0.014575254 0.013845633 0.00015108172 0.045757346
0.01969572 -0.05197107 0.030776422 -0.05233085 0.019039026 -0.03522011 0.07504414 0.045125812
0.06378741 -0.06471788 -0.01891681 0.08621204 -0.053348023 0.042984113 -0.08011724 -0.032412827
0.01009029 0.04849992 -0.008681023 -0.01598361 0.044247735 -0.07056043 -0.024566878 -0.0047439933

feature_extractor.instruction_encoder.2.weight f4 [32, 64]
00000000: f630 c53d 7f72 e83c 5d57 38be c0e2 b63c
00000010: db71 4f3d 1851 f83d 5bca 813d 6838 193d
00000020: 201f 55ba 68a0 6dbd 20de 983d 125a 913d
00000030: d41b 09bd 2977 2d3e de47 213e ae3e 153e
00000040: 071c 3c3d e585 d03d 9ad5 1abd ab45 75bd
00000050: 4219 d9bc af39 69bd aa93 fb3b f051 4d3d
00000060: 2d1f c03d 9a8f 36bd bbe2 8d3c cdda b8bd
00000070: 8f1c f63d 1ac5 163d 93db 74bd c557 ecbd
00000080: 1d81 ad3d 132c ff3d 123e 33be c587 2bbd
00000090: 8036 c4bd bbe5 bfbc 73d7 903d a873 373e
000000a0: 426c 023e 4cb5 313e e8ac 0a3e b08b 4abc
000000b0: b08c 76bd 6b2e 053d 99cd c03d 9935 e33c
000000c0: 1f2e 8bbd 11ca 62bd 6ec3 91bd e321 e33d
000000d0: 9df4 bcbd 3e35 0e3d d5d7 e3bd 9681 1d3e
000000e0: 30f1 6e3d 246b fe3d 5ccb 35bd 01dc 1a3d
000000f0: d413 063d a004 19bd 3bae c43d 6f1e fcbc
00000100: 682a 903d a6f3 893d c6c1 113d e970 f5bb
00000110: 19c5 a03d aa01 b4bd e389 ddbd ac18 b3bd
00000120: 563f 21bd 0b70 ab3d d63b a53d a29f d3ba
00000130: 1e05 43bd b607 f23d c920 a1bd f03a 1f3d
00000140: d6b1 bb3d 6006 8dbd 1c27 d3bd 621e 2ebd
00000150: c42c eebd 4822 aebc 56db ec3d 8344 803c
00000160: db60 e5bd 1153 f3bd a6c2 003c e617 b8bc
00000170: 1456 fc3c a8b2 41bd 7e1a 41bd 1a6e d73c
00000180: 4629 6e3c 10aa eabd 1af0 123c 6f5b e9bc
00000190: b67a 99bd bb86 afbd 6591 91bd f7b5 c9bc
000001a0: a9de 94bd eded b4bc 2538 043d e91f bb3d
000001b0: cf2e a8bd 6ec2 dbbd 87f8 0dbe f87d d23b
000001c0: 9c18 48bd 1c2b 34bd 95f1 debd 106d f1bd
000001d0: 7e94 d3bd 13b7 00be d1b8 663c 8cc1 c7bd
000001e0: cf88 333d e0b2 88bd 4ff7 763d c40b aebd
000001f0: 292b acbd fbf8 1cbd 0173 843d ff50 e33d
00000200: 7892 943d 588a 5e3c 5431 503c 9cd3 aebc
00000210: 70d6 c2bd bc22 103e d11b bf3d 2b22 c1bd
00000220: 137e 2ebe 1cf7 08bd 1423 ecbc 9417 7fbd
00000230: 3ccd 3d3c aa64 42bd cb6a 6e3d 4d34 8f3d
00000240: 76a4 f83c 3250 f8bd 8680 aebc e617 f53d
00000250: 6003 6c3d 7d43 80bd 07d1 c9bd 1db9 c2bd
00000260: 553f 9d3d bf8d 89bd a994 b33c 455f b23c
00000270: f797 993d 703c 473c 8ada bfbd cde3 af3c
00000280: 9353 753d 9987 e13d 721a dfbd 5caa c2bb
00000290: 7367 de3d 5b5a 84bd 0ec2 f7bc c98e b03d
000002a0: f449 92bd a6ab 0c3e 667d 153d 83bd 2dbd
000002b0: 4284 893d 9b8b 883c 4213 bc3d 39df 9c3c
000002c0: 5721 05be 7983 933d f6cc 463d beb0 1bbe
000002d0: 5a4a 3bbd 99b1 1fbe b02d 053d 439e 6cbd
000002e0: bf23 43bc 5862 c73d 28ae c7bc abff 073c
000002f0: 84e5 a5bd b37c 8b3d 467b 20bd 54f5 c23d
00000300: abdd 8e3d 1342 e7bd ba5b a4bc f7d5 243d
00000310: 5ae7 123d 4097 67bd 4a63 d7bd 68d9 c5bd
00000320: 077b 9f3d ed85 dd3d ddb4 ccbd 6c43 533d
00000330: 283a a1bd f32e b23c fac9 b5bd 2e15 603c
00000340: 912a 5abd 4685 f3bc 7071 3ebd e892 57bd
00000350: 922f 813d f478 df3d 4150 e3bb 9540 9c3d
00000360: b2d5 acbd 32e7 a43d d322 b43d 026a 01bb
00000370: 3867 be3d 48db 2cbd 2969 84bd d80a b83d
00000380: f1fe 83bd fe8f 903c 1640 65bd 6693 13bc
00000390: fd9a f0bd 002c ba3c 44ef 1b3d c8d3 8fbc
000003a0: 036a e9bd 45d7 d1bd c7c4 8bbb fcad 77bd
000003b0: c2d9 d3bd dd28 f83b 46b3 ba3c 8f8b 9eba
000003c0: 4150 23bd 9764 b0bd db89 b43b 76f9 9e3d
000003d0: f1ac 813c 4fc9 c23d 7ec8 ccbd 69f4 ea3d
000003e0: 6aa6 8b3c d25d 21bd 1f94 96bd c44a 023d
000003f0: 01ce d3bd a39c 633c 2e6b e3bc a453 4d3c
0.09628479 0.028374908 -0.18002076 0.02232492 0.05064569 0.121248424 0.06337424 0.03740731
-0.0008129943 -0.058014303 0.07464242 0.07097258 -0.033473805 0.16939987 0.15750071 0.14574692
0.045925166 0.10181788 -0.037801363 -0.059880894 -0.026501302 -0.056939777 0.007677515 0.05012697
0.09380946 -0.044570543 0.017320028 -0.09026108 0.12017166 0.036809064 -0.059779715 -0.11540178
0.08471892 0.12459578 -0.17504147 -0.041877527 -0.095807076 -0.023424974 0.07072344 0.17915213
0.1273661 0.17354316 0.13542521 -0.012362406 -0.060192764 0.03251497 0.09414215 0.027735518
-0.06795906 -0.055368487 -0.071173534 0.11090448 -0.09226344 0.034718744 -0.11125151 0.15381464
0.058335483 0.12422779 -0.04438339 0.03780747 0.032733753 -0.037357926 0.09603544 -0.03077623
0.07039338 0.067359254 0.035585187 -0.0074902666 0.078500934 -0.0878938 -0.108173154 -0.0874494
-0.039367042 0.0837098 0.080680534 -0.0016145597 -0.047612302 0.11817877 -0.078675814 0.038874567
0.09164779 -0.068859816 -0.10310194 -0.042509444 -0.11629632 -0.021256581 0.115652725 0.015657669
-0.11200114 -0.11881078 0.007858908 -0.022472333 0.030802764 -0.04728952 -0.047144406 0.026297618
0.014536208 -0.11458218 0.0089683775 -0.028485982 -0.074941084 -0.0857062 -0.0710781 -0.0246229
-0.072690316 -0.022086108 0.032280106 0.09136946 -0.08212053 -0.10730444 -0.13864337 0.006423708
-0.048851594 -0.043986425 -0.10885922 -0.1178838 -0.10331057 -0.12569837 0.01408215 -0.09753713
0.043831643 -0.06674743 0.060294446 -0.08498338 -0.0840667 -0.038323384 0.06467248 0.11099433
0.07254499 0.013582788 0.012707073 -0.021341138 -0.09513557 0.1407575 0.093314774 -0.09430345
-0.17040281 -0.033438787 -0.02882532 -0.062278345 0.011584576 -0.047459282 0.058207314 0.069923975
0.030351859 -0.12124671 -0.02130152 0.11967449 0.057620406 -0.06262872 -0.09854322 -0.09507964
0.07678095 -0.06716489 0.021921473 0.021773944 0.07499688 0.0121604055 -0.09367855 0.021470929
0.059894156 0.11012191 -0.10893716 -0.0059407186 0.10859575 -0.064625464 -0.0302439 0.08620984
-0.07143012 0.13737354 0.036496542 -0.04241706 0.06714679 0.016668132 0.09183361 0.01914941
-0.13001 0.07202811 0.04853531 -0.1520414 -0.045725204 -0.15595092 0.032514274 -0.057768118
-0.011910378 0.097355545 -0.024375036 0.008300702 -0.08100417 0.06810894 -0.039180063 0.09519449
0.069758736 -0.112918995 -0.02006327 0.040243115 0.035865165 -0.056540728 -0.10516985 -0.096606076
0.077871375 0.1081656 -0.099954344 0.05157797 -0.078724205 0.021750903 -0.088764146 0.013676925
-0.05326325 -0.029726636 -0.0464949 -0.052630335 0.063079014 0.10911742 -0.0069370572 0.076295055
-0.08439197 0.080519095 0.08795705 -0.0019747023 0.09297031 -0.04220131 -0.0646537 0.08986443
-0.064451106 0.017646786 -0.05596932 -0.0090073105 -0.11748312 0.022726059 0.03806998 -0.01755704
-0.11397173 -0.102461375 -0.004265401 -0.06046866 -0.103442684 0.0075732307 0.022790562 -0.0012096035
-0.039871458 -0.08612936 0.0055095977 0.07762425 0.015829535 0.09511053 -0.09999178 0.11472399
0.017047126 -0.039396115 -0.073524706 0.031809583 -0.103420265 0.013892326 -0.027761068 0.0125321485

feature_extractor.instruction_encoder.2.bias f4 [32]
00000000: 62d7 183e 102c 09be 4434 903d c1f7 ebbd
00000010: f7e4 a83d db15 0abe a720 40bc 3d16 0b3d
00000020: ad3b 503d 276c 7d3d 0eb5 033e 4149 db3d
00000030: 5cbd d4bd 59a4 9abd 2bb3 983d 8dde 833d
00000040: 450d 05be 6ef8 99bd 5d9a 283d 0c89 963d
00000050: 5008 353d 6f34 f43d 0dc3 d93a 561a 343c
00000060: 2eeb 973d 468e cebd 2561 ae3d 8641 99bc
00000070: 6e0a cbbc 365c 613d 66e9 bebc efad 09bd
0.14925912 -0.13395715 0.07041219 -0.11521865 0.082467966 -0.134849 -0.011726535 0.033956755
0.05083816 0.06187072 0.12862036 0.107073314 -0.1038768 -0.07550878 0.074560486 0.064389326
-0.12993343 -0.07518087 0.041162837 0.07350358 0.04419738 0.119240634 0.0016613916 0.010992607
0.07417904 -0.1008573 0.085146226 -0.018708002 -0.024785247 0.05501958 -0.023304652 -0.03361314

feature_extractor.exemplar_encoder.0.weight f4 [64, 768]
00000000: 5fe8 91bb 5058 ac3d d965 243d 66d5 b43d
00000010: b9d4 1a3c ee60 8b3c 6e26 033d ee26 803d
00000020: 75f7 373d 46b2 913d e220 863d 47e5 533d
00000030: 8e52 d23c 1c24 7e3d 5328 143d 6145 ae3d
00000040: 784b 753d 7252 383d 254c c53d 4882 903d
00000050: 5024 7a3d 2ba6 a13c 5d7b b5bb bc5e af3d
00000060: 1853 853d 76f6 383d 1aaa 263d d20d d03c
00000070: 0e0e 873d cd1d 6c3d 7e3d 223d cc6f 273d
00000080: 96a8 6e3c c2b6 683d 7436 9b3d 9274 a43d
00000090: 0641 b63d e1a7 093d 2b87 923d 6a44 823d
000000a0: 7f66 ac3d aea1 1a3d b4f5 643d 3a90 c03c
000000b0: 6af9 3c3d 90df 1e3d 9547 643d 6d3d ddbb
000000c0: 36b5 b63d cbba 963d 3524 7f3d 585c 6c3d
000000d0: f50a ac3d 2376 333d 78cf 253d de28 c53c
000000e0: 948c 103d 1fac 0d3d 1e6e 243d 7b68 af3d
000000f0: 0701 f03c b5c4 9d3d b150 443c d18a 4e3d
00000100: a251 9e3d 0abd 963d b8d9 3d3d 97e8 143d
00000110: b77c 2b3d 1ede 253d 7e1e 113d 7b9d a13d
00000120: 7f56 2a3d 247c 2e3d b641 353d 333a 0d3d
00000130: a675 083d 44a0 493d 4387 503d a2fa 143c
00000140: f695 c63d b95d ba3d 48cc b63d 0a69 803d
00000150: 7a96 a93d acd7 a03d bcd9 323d 336c 263d
00000160: ad3e fb3c 4841 5f3d ac53 723d 80a4 503d
00000170: c83d 643d db16 903c 42b2 a43d 001e 763d
00000180: 5cd9 883d 5bb7 9f3d ce2f 0c3d dcc7 8d3d
00000190: f5b8 ae3d fae2 3a3d a9eb 193d 4f27 a63d
000001a0: b823 253d 1186 b03d 2756 773c 9df8 2b3d
000001b0: 5b0e 6e3d 1ecd 9d3c ece2 1b3d 79df 983d
000001c0: 9ace 0c3c c72d 763d 024e fc3a 1783 983d
000001d0: b4dc d13d 483d 9c3d b7a7 903d a06c 19bd
000001e0: 06ff 423d 70a0 1a3d 296b 783d e19e bf3d
000001f0: 8b45 9cbb 9477 5a3d 1130 ab3d 9462 a03c
00000200: ba43 133d b1c6 a93d 3b18 853d fa26 d83c
00000210: ecf7 4d3d d645 a239 d603 2c3d e0e6 a63d
00000220: 135c 4d3d e765 653d 7be3 d93b 95f8 023d
00000230: 335f 353d 1fe3 963d 20f1 783d 6107 803d
00000240: 9a16 8a3d 3ee8 bb3b 9b19 c33d cab2 313d
00000250: 08d7 4dbc 3980 d43d fad8 6a3c e5e9 2fbd
00000260: 04eb b03c 87f5 843d d45f 7f3d 777a 5c3d
00000270: 7d61 273d 710f 8c3d bbeb b63c 39d7 a13d
00000280: 7d0c b43c b03c 8e3d f6d9 813d 266a f1bc
00000290: 8d2a a13d c6e9 af3d 363c 303d b89d ca3c
000002a0: 09ad 1d3d 1053 7e3d 451e a73d c6e3 9a3c
000002b0: d928 253d c2b2 a43d afaf 6e3d d497 553c
000002c0: e19c 8b3d d50b 2a3d 43c5 463d 8451 6c3d
000002d0: cc4b 803d 9cb9 123d 30e1 ff3c bee6 3f3d
000002e0: 69e5 1a3d 38b7 89bb aed1 e03c 7154 f93c
000002f0: f7e0 a63d 98b3 963d b977 793d 583e f03c
00000300: 552e 773d 9806 723d a1ed 4c3d 74f4 3d3d
00000310: 619b 863d f86e 9a3d a121 d93c 3ada 813d
00000320: 8a81 c63d a4ae 6a3d c66b 003d 59cf a83c
00000330: 6e72 953d 3d32 c23d 853a 553c 6776 6d3d
00000340: f26d bb3d 42ae 703d 6f9b a83d 5854 aa3d
00000350: 8281 7c3d 7489 8b3c 8016 a63d 6d6b 603d
00000360: d9fe 533d ed13 5e3d 9928 983d 3407 ea3c
00000370: 1ec3 973d 40cd f83c a587 483d e799 43bb
00000380: 1d31 933d 8f5c 053d 6de7 d93c eac6 4b3d
00000390: 9caa 9a3d 5127 d83c c94e c33d f59b 6c3d
000003a0: 5115 a63d 635f 953d 4e8f 93bb 428f 403d
000003b0: 8a39 e83b 27b2 8f3d 6ffb 1e3d 7bc7 a43d
000003c0: fd32 013d 8205 1a3d fc67 5f3d c506 003d
000003d0: 527c 9e3d 8ae3 5c3d 26c9 233d cc59 753d
000003e0: bf4d 943d 46e1 653d e727 5d3d 9536 f23c
000003f0: 3975 bd3d f776 bb3d fde8 943d 6c2b 453d
-0.0044527496 0.08415282 0.040136192 0.08829765 0.009450131 0.017013993 0.03201907 0.06257425
0.044913728 0.07114081 0.06549241 0.051732328 0.02567413 0.062046155 0.03617127 0.08509327
0.059886426 0.0450005 0.09633664 0.07056099 0.061069787 0.019732555 -0.0055383877 0.08562991
0.065099895 0.04515692 0.040689565 0.025397215 0.065944776 0.057645608 0.039609425 0.040878102
0.014566561 0.056814916 0.075787455 0.080300465 0.08899121 0.033607367 0.071546875 0.06360705
0.08417987 0.037751846 0.055898383 0.023506273 0.046136297 0.038787425 0.05573233 -0.0067517073
0.08921282 0.07359847 0.06229039 0.057705253 0.084005274 0.043813836 0.04048106 0.024067339
0.035290316 0.034587976 0.04014408 0.0856485 0.029297365 0.077035345 0.011982129 0.050425354
0.07730414 0.07360275 0.04635021 0.036354627 0.041866984 0.04049503 0.03542947 0.07891365
0.041586395 0.04259886 0.04425212 0.03447933 0.033315323 0.049225107 0.050910246 0.009092959
0.096965715 0.090999074 0.08925682 0.062700346 0.08280654 0.07853636 0.04366468 0.04063053
0.030669535 0.054505616 0.059161827 0.05093813 0.05572298 0.017589023 0.080418125 0.060087204
0.06682083 0.07798644 0.034225278 0.06922886 0.085313715 0.045626618 0.03757826 0.08112966
0.040317267 0.08619321 0.015096224 0.041985143 0.05811916 0.019262847 0.038058206 0.07464499
0.0085941795 0.06010225 0.0019249322 0.074468784 0.10247174 0.07628876 0.07063239 -0.03745711
0.04760649 0.03775066 0.06064907 0.093564756 -0.0047690324 0.053336695 0.08358777 0.019578256
0.03595326 0.082898505 0.06498762 0.026385773 0.050285265 0.0003095108 0.041995846 0.08149505
0.050136637 0.056005385 0.0066494322 0.031975348 0.044280242 0.07367539 0.06077683 0.062514074
0.06742592 0.0057344725 0.09526368 0.043383397 -0.0125634745 0.10376019 0.014333958 -0.04294767
0.02159644 0.06492143 0.06234725 0.05382773 0.040864456 0.06838883 0.022329202 0.079023786
0.021978611 0.06945169 0.06340401 -0.02946956 0.07869444 0.085895106 0.04302617 0.02473341
0.038495097 0.062090933 0.0816007 0.018907439 0.04032216 0.08041908 0.058273014 0.013036687
0.06817032 0.04151519 0.048527967 0.057694927 0.06264457 0.035821542 0.031235307 0.046850912
0.03781644 -0.0042027496 0.027443733 0.030435773 0.081483774 0.073584735 0.060905192 0.029326603
0.06034692 0.05908832 0.050031308 0.046375707 0.06572605 0.07540697 0.026505293 0.063404515
0.09692676 0.057295457 0.03135278 0.020606684 0.07297216 0.094822384 0.01301444 0.057974245
0.0915183 0.058759935 0.082327716 0.083168685 0.061646946 0.017033316 0.0810976 0.05478995
0.051756714 0.05421822 0.074296184 0.028567888 0.074102625 0.030371308 0.048957486 -0.0029846372
0.07187102 0.032558974 0.02659961 0.049750246 0.075520724 0.026385935 0.095365115 0.05776592
0.081095345 0.07293584 -0.0045031672 0.04701162 0.0070869373 0.07016402 0.038814005 0.080458604
0.031542767 0.03760291 0.054542527 0.031256456 0.07738556 0.053927936 0.039986752 0.05990009
0.072413914 0.05612304 0.053993132 0.029567042 0.09250874 0.0915355 0.072710015 0.048137113

feature_extractor.exemplar_encoder.0.bias f4 [64]
00000000: d042 b43d 9216 bf3c f0a2 1d3c f7ed 6dbd
00000010: 2fcb 9f3d 73a3 e0bc 1be2 d7bc eb5c f5bc
00000020: 2fec 973c cc14 e0bc ad34 0b3d cd6b 92bd
00000030: fdb9 533d aae4 afbc b1ac 5a3d 4ef4 9f3d
00000040: e6b1 273d 9116 f23c ae03 813d 4798 9e3c
00000050: 6293 a43c 0929 80bd f961 dfbc de7c 4bbd
00000060: 5290 7bbd f471 82bc 35e1 e3bc 699d 6bbd
00000070: 1b09 6bbd b77e 023d a25f 07bd 792b 84bc
00000080: a70b 87bc 7be8 80bc 3ef1 07bd abb8 31bd
00000090: 5395 1cbd c82a 5fbd 327a a03d 842f eb3c
000000a0: 58c8 853d e131 33bd b53c aa3d 7822 9ebd
000000b0: 593d 5d3c 9ebb a1bd 0720 05bd dbc9 a13d
000000c0: 55bd ed3c b7dc 71bd 0f63 9e3d 1e8e 3abd
000000d0: 59b4 9d3d 02f3 833c f230 a13d 8bdf 793d
000000e0: 21cb 913c d755 923c 5abd a13d 7079 39bd
000000f0: 3305 8abd 2b8a 603d 5854 fb3c 91d7 9a3d
0.08801806 0.023326192 0.009621367 -0.05808827 0.07802426 -0.027421689 -0.026352933 -0.029951533
0.018545238 -0.027353667 0.033985782 -0.071494676 0.051691044 -0.02147134 0.053387348 0.07810269
0.04094114 0.029551776 0.0629953 0.01935972 0.020089809 -0.06257827 -0.027268397 -0.04967963
-0.06141693 -0.015923478 -0.027817348 -0.057523165 -0.05738173 0.031859126 -0.033050187 -0.01613401
-0.016485048 -0.015735855 -0.03318905 -0.043389004 -0.038228344 -0.05448416 0.07835807 0.02870918
0.06532353 -0.04374874 0.0831236 -0.07721418 0.013503396 -0.07897113 -0.032501247 0.07899829
0.029020945 -0.05904838 0.07733738 -0.04554569 0.07700414 0.016107086 0.07870664 0.061004203
0.017797055 0.017863197 0.07897444 -0.045281827 -0.06739273 0.054819267 0.030679867 0.07560647

feature_extractor.exemplar_encoder.2.weight f4 [32, 64]
00000000: f82e 8bbc 85cf fbbc 7e26 6b3d 7813 f7bc
00000010: ae94 1dbe a726 863c d2fa 84bc e97e 213e
00000020: 9e2e 853d 3a13 dcbd 2695 39bd 2395 f2bc
00000030: 5c97 22be a40d a5bc a415 ebbc 4c81 e23d
00000040: 89b9 5abd be54 1dbe 68f1 c83d ad75 12bd
00000050: d4a4 053e 6d71 babc cea5 8d3d 7786 633d
00000060: de8a 763d 25e2 ff3b bb61 eabd cad8 bf3d
00000070: be5a 1b3e 5c35 133d 8a7f 28be 2d87 47bc
00000080: a59e ce3d 3b98 d7bd caf6 a4bc 30b6 e23c
00000090: 64c9 e5bb e5ef cf3d 0e57 233e 2dd8 2abe
000000a0: 72c0 0bbe 8be1 97bb 2ed6 cabd d826 6dba
000000b0: f267 be3d 257d 2c3d 2769 d7bd ee7c 013c
000000c0: a9f3 e03c f508 23be cc82 e93c 3d62 06bd
000000d0: 0be9 84bd 52fd edbd af88 c2bd a68a 82bd
000000e0: 0319 e7bc 3029 ecbd f698 06be 93c7 90bd
000000f0: 2e77 a3bd 9070 0d3d 1324 853b bbb7 923d
00000100: 4c96 d33d a303 8abc c89e 9e3d 9008 2cbd
00000110: 9fae c4bd 9cfe d93d befe 453d 4ac0 943d
00000120: e347 29bd 85f7 89bd aa01 15bd f98f 8fbd
00000130: ff62 dbbd 196d e4bd bc0d bebc 81e7 b0ba
00000140: ed71 cf3d 54d6 76bd caf8 c43a 7ec1 df3b
00000150: 26c7 b03c 4929 28bd 80b2 c1bd d8a2 c23d
00000160: d1f9 193d 0c11 d13d d760 12bd 3d33 da3d
00000170: e937 90bd 40dd b9bd bdf2 f13d 4ac2 083d
00000180: 3b70 6cbd bf64 30bd a4e1 e23c 74c5 fabd
00000190: 2b2b d3bd 3b1e 813d 7888 68bd 363a ebbc
000001a0: bc60 febd b629 fb3c e161 08bd da97 833d
000001b0: 9acc f53d c80f cd3d 206e 92bc 3c78 efbd
000001c0: 2523 ebbd ae01 a13d 8f0a 77bd 6874 053d
000001d0: e981 bbbd fa2b f5bd 2af3 91bd 9864 e03c
000001e0: b06a 96bd cd01 90bd 5f86 babc ccb4 993d
000001f0: b345 123d 284e eebc 49ae c9bd 2989 513d
00000200: 8e4d a03b ca2d cd3d 4c3b d43c 79f3 05be
00000210: 0efe 483b 20a5 b5bc 69a4 693d d437 603d
00000220: 6571 2abd d3dd 72bd cca9 bdbd 60f1 a33d
00000230: d033 e73b c4f5 663d 48b2 42bd 1029 b13d
00000240: 4e48 95bd 224d e0bc 5194 10bd 5156 a73d
00000250: 60d3 13bd 074f a63d 90ba 22bd 4256 583d
00000260: bfca 2ebd 1c31 b53c 1539 91bd bebe 0cbd
00000270: 638f 5cbd cb03 ce3d cedb 033c 2435 333d
00000280: 5745 ecbd 92e9 d43c 2d74 fe3a b2df 063e
00000290: 3e3f 973c 787e fd3d 3055 c33d fa04 9ebd
000002a0: 2bc1 ad3d b79f ffbd 322e 1b3d 0746 cdbd
000002b0: c9fa 223d 0544 76bd 34e0 193e 9407 2d3c
000002c0: 5a33 ee3d 1052 4b3d 2820 c4bd f77f 973d
000002d0: e15d b53d 5e7a 6dbd 3e15 11be 8258 00bc
000002e0: ad47 b63d 3516 3fbd 89bb f1bd bcb5 65bc
000002f0: 4a88 9cbd 4385 95bd 09b0 43bd 41a3 03bc
00000300: 69e0 aebd b755 663c 4ec6 923c 33c6 143d
00000310: 81a3 94bd bce3 69bd c3f5 9f3b 4bf4 d3bc
00000320: 7872 debc eda1 213c 43c5 84bd 023c 793d
00000330: 58d2 173e afb5 0bbe 1c95 cebd 6e85 bf3d
00000340: 387a c6bd c9d5 ea3d f7a6 a03d f1de 73bc
00000350: c9b4 10be b770 cbbd 7215 80bd d954 7bbd
00000360: a50a 2cbe 770d 233e 6500 acbc 8770 0fbe
00000370: 1028 883d f165 85bc 8c36 2abe 0f68 9c3b
00000380: b866 1bbd 48ca dd3d e09c e93d 258c 6dbd
00000390: 4b42 1a3e aa3f 6c3d 6ef6 5b3d a6db 883d
000003a0: 325e 89bd fe57 103d 05e4 0e3e cd43 453d
000003b0: c88f 8f3d 36a8 1c3e ae48 c53d 2974 323d
000003c0: 4585 933d d7ec 0c3b 8286 7abd 4d54 9a3c
000003d0: 02c3 3dbd 3cef 243d 891f dcbd c158 a6bd
000003e0: b6f8 af3d cf4f 553d 2ebe b33d e612 0bbd
000003f0: 2c87 d1ba ef1d 80bd 1a6c 4a3d 9c32 2cbe
-0.01699017 -0.030738601 0.057409756 -0.03016065 -0.15388748 0.016375853 -0.016232882 0.15771069
0.06503032 -0.10745855 -0.045308255 -0.02961213 -0.15878052 -0.020148106 -0.028696842 0.11059818
-0.053399596 -0.15364358 0.098116696 -0.035756756 0.13051158 -0.022759164 0.0691639 0.055548158
0.060191028 0.007808941 -0.11444422 0.09367521 0.15171334 0.03593956 -0.16454902 -0.0121782245
0.10088853 -0.105270825 -0.02013721 0.027674764 -0.007012533 0.10153178 0.15951177 -0.16684027
-0.13647631 -0.004635041 -0.09904133 -0.00090466207 0.0929717 0.042111535 -0.10518103 0.007903321
0.027459936 -0.15921386 0.028504752 -0.03280853 -0.06489762 -0.11620583 -0.094987266 -0.06374101
-0.028210169 -0.115312934 -0.13144287 -0.07069316 -0.07981716 0.034531176 0.0040631383 0.0716395
0.10331401 -0.016847437 0.07745129 -0.042000353 -0.09603619 0.10644266 0.048338644 0.07263239
-0.041328322 -0.06736664 -0.03637854 -0.070098825 -0.107122414 -0.11153621 -0.023199908 -0.0013496728
0.101291515 -0.060262993 0.0015027758 0.006828486 0.021579336 -0.041054998 -0.09457874 0.09503716
0.03759176 0.102083296 -0.035736885 0.10654304 -0.07041914 -0.09075403 0.11813877 0.033388413
-0.05772422 -0.04306483 0.027695484 -0.122446924 -0.10310968 0.06304594 -0.05677077 -0.02871428
-0.12420794 0.030659538 -0.03329647 0.06425448 0.12001915 0.10012776 -0.017874777 -0.11692855
-0.11481313 0.078616485 -0.060312804 0.032581717 -0.09155638 -0.119712785 -0.07126458 0.027391717
-0.07344568 -0.070315935 -0.022769151 0.075051874 0.035711 -0.029090002 -0.098476954 0.051156197
0.0048920577 0.10018499 0.025907181 -0.13081159 0.0030669007 -0.022173464 0.05704156 0.05474074
-0.041612048 -0.05929358 -0.09260902 0.08005023 0.007055737 0.056386724 -0.047533303 0.0865041
-0.07289182 -0.02738053 -0.035297696 0.081707604 -0.036090255 0.08120542 -0.0397287 0.052816637
-0.042673822 0.022118144 -0.07090966 -0.034361593 -0.05384768 0.10059317 0.008048011 0.04375185
-0.11536663 0.025990281 0.0019413285 0.1317127 0.018462773 0.123776376 0.095377326 -0.07715793
0.084841095 -0.12481635 0.037885852 -0.10023122 0.03978995 -0.060123462 0.15026933 0.010560889
0.11630888 0.049638808 -0.09576446 0.07397454 0.088557966 -0.057978027 -0.1416826 -0.007833602
0.0890039 -0.046652038 -0.118033476 -0.01402038 -0.076431826 -0.07300808 -0.047775302 -0.008034528
-0.085388966 0.014058522 0.017916825 0.03632183 -0.072577484 -0.05710195 0.004881592 -0.025873324
-0.027154192 0.009865266 -0.06482937 0.060848244 0.14826334 -0.13643526 -0.10087034 0.093516216
-0.0969128 0.114665575 0.07844346 -0.014884696 -0.14131464 -0.09933608 -0.0625409 -0.061360214
-0.16800936 0.15923105 -0.020996282 -0.1400777 0.06648266 -0.016283961 -0.1662237 0.004773147
-0.037939757 0.10829598 0.11406875 -0.05799498 0.15064351 0.057677902 0.05370181 0.066825196
-0.067074195 0.035240166 0.1395417 0.048160363 0.07009846 0.15298542 0.09633003 0.04356781
0.072031535 0.0021503472 -0.061163433 0.018839026 -0.046328552 0.040267214 -0.10748202 -0.08122397
0.0859236 0.052078065 0.08776508 -0.03395357 -0.0015985719 -0.062557094 0.0494195 -0.16816181

feature_extractor.exemplar_encoder.2.bias f4 [32]
00000000: 8e4e 913b fd77 d0bd 6b8f 76bc bd35 8b3d
00000010: 2953 143e 7df5 e13d c236 b03c 53c9 86bc
00000020: 770a 99bd bb3b c1bc 6393 b3bc 2301 7cbd
00000030: 4ff6 ce3d b774 113c fd95 563d acd0 c13d
00000040: a59c bb3b 7ae4 f8bc fe0f a7bd 5bca d6bc
00000050: d57b 173e 5d73 f0bc a1db 27bd 7ed6 cdbd
00000060: 9215 d63c 512a 0abe 6d5d ccbd 181a b6bd
00000070: b66f 393c 31e5 6e3d af44 903d 2b83 d53d
0.0044344133 -0.10179136 -0.015048842 0.06797359 0.14484848 0.11033151 0.021510486 -0.01645342
-0.07472699 -0.023588052 -0.021920865 -0.06152452 0.101055734 0.008877925 0.052389134 0.09463629
0.0057254606 -0.030382384 -0.08157347 -0.026219537 0.14793332 -0.029351884 -0.04098094 -0.10050677
0.026133332 -0.13492705 -0.09978757 -0.08891696 0.011318138 0.058324043 0.0704435 0.10425409

feature_extractor.joint_encoder.0.weight f4 [32, 64]
00000000: cdff 46bd 7029 3b3b 9af2 193d 1ee3 d7bc
00000010: 8b39 553d 5ec9 353d a0d7 bcbd 1be0 32bd
00000020: 2bf5 143d 5768 2abe 0dd8 acbd 0828 a3bd
00000030: ba2a 3d3d 2ffb ed3d 4ec0 173d 7c2e 153e
00000040: 4f21 35bc f6a0 cfbd 46ac b3bc d400 b5bd
00000050: 3b87 65bb dad5 5c3d bfd8 b93d 14d7 91bd
00000060: 2151 23bd 8794 51bd e159 ccbd e70b a13d
00000070: 9f9c fd3d f2b3 563d d63e 85bd 33ff f33d
00000080: bbf0 1d3e 3c56 c33d 7cee 803c 84a2 123e
00000090: 05fc 0abd 0c12 5c3d a287 d73d 596c babd
000000a0: 3dac 8a3d 9fd3 32bd e25a 0abd d8ce 493e
000000b0: 8739 623d 4c23 f83d d7ae d7bd 421d 273e
000000c0: 3c2c 6b3d 5a48 943d b072 99bd 8669 133d
000000d0: 7fdf f6bd bbba bb3d 22d9 25bd ee04 303e
000000e0: ec19 a23d deb0 b5bc 9515 d33d 61ab acbd
000000f0: b884 d5bc aa86 8abc 78b5 84bd 0880 5fbc
00000100: b18b 863c ef46 ce3d 99c6 86bd f28d 523d
00000110: 83aa 2a3d 87f8 293d 92f2 cbbd 2697 d6bd
00000120: 8133 84bd d9a9 1f3d 89ea 6bbd ed1b 72bd
00000130: 57d8 e23d 20a5 edbc 673b fe3b 6f98 a4bd
00000140: 8348 febd 044e ddbd f798 c93d 76dc b33d
00000150: 598a 713d 1634 f9bc f38d 30bc 1d83 223d
00000160: 9eb3 88bd 15c7 003d 5268 e23d 197e 373d
00000170: 7c39 a33d 6d0c b43d adf0 1fbd d136 fbbd
00000180: c075 80bc 4711 f9bd 7929 b7bd fd19 54bd
00000190: f834 39bd d9db fb3c b0ac 7cbc 1d1a 893c
000001a0: 29bd f63d 9edf e13c 8246 163d dd9a 7b3d
000001b0: 9317 f23c ed91 f8bd 73ba dbbd 93ff 73bd
000001c0: 44c5 e6bd da0f 6dbd 7f78 9a3d 5341 00bc
000001d0: f9a1 2abd 1fb1 fdbd 22c6 80bc fb6c ccbd
000001e0: 6f4c d6bd 4be2 083d 82a7 5d3d 6038 24bc
000001f0: e601 ddbd a34f fe3d 0a36 a53d 6c8f f9bd
00000200: 5ad5 aa3d 0c09 e4bd 396f 75bd c275 7d3d
00000210: a3e7 22bd 449f f3bc 31fa 463d 76bb 853d
00000220: d12d 30be 0980 b13d 0cfe 1abe 1025 923b
00000230: ca45 23bd 6aaa 9e3d 8e08 a53d 2dfe c63d
00000240: 0da5 393d 9cce debc 778d cfbd 8a70 053e
00000250: c5a9 60bd f717 39bd d422 943d 9acf 0a3d
00000260: 688b ce3d a6dd a03d bc98 0cbe 2cb4 0e3d
00000270: f86d 1abe 24e7 de3c 7314 3d3c b2c9 eebd
00000280: 1e1a 003d ca83 c63d 91ac 87bd 2e58 7fbd
00000290: bea7 423c 85a9 d23d 226f 593d 1508 90bd
000002a0: c7a7 92bd e3c2 da3d bb4c 73bb 2608 6abb
000002b0: 9dca 01bc 9c6b 403e 0b05 f53d b240 b93d
000002c0: 8600 d93d e068 e2bd 9644 88ba 3dcb 7f3d
000002d0: 34f7 ca3d 7eef 243e 30e8 08bd 3398 743c
000002e0: fe6b 373d 6517 60bc 4492 3c3c 22b3 093d
000002f0: b5c4 b73c 260c 53bd f5df fd3c 20c1 dcbd
00000300: e6b8 6a3d 68b3 25be ae65 753d b0e9 44bc
00000310: 543d 9abd e096 7bbd f9dc e13d c162 f8bd
00000320: 81ad f6bc 8e02 a8bd ba56 053e 6ebc 133d
00000330: 1fec db3c 4fb1 bb3d 16aa d8bd da60 4a3d
00000340: f8ab b0bc 2aaa d63d f248 ea3d 7074 34bc
00000350: 4ce5 103e c55a 863d a068 63bd 632f 7f3d
00000360: 9672 09bd 7bd7 0abe 1fa1 b83d 0de9 fa3d
00000370: d6e2 b4bd ae79 b1bd 14d8 f33d ab4a 973d
00000380: 9282 8fbd f593 6abc 190f d43d 30aa 0c3d
00000390: ba53 673d 00ca 003e 00ed 773d 861b 2c3e
000003a0: c056 55bc f559 8b3d 3824 6c3d d35b 7ebc
000003b0: 088d 78bd 7036 fe3d 7cb0 c83c 5df7 bd3d
000003c0: c36d 3a3e 4556 213e 1b01 24bc bc35 52bd
000003d0: cc3d 313c b9be fd3d 2ca6 53bd 50da 5bbd
000003e0: 1375 143e 1667 ea3c d5a6 90bd 8782 a5bd
000003f0: 9a6f 8bbd 5231 8c3d 0f94 373e 7664 d93d
-0.048583794 0.0028558634 0.03758488 -0.026353415 0.05205683 0.04438149 -0.09220815 -0.043670755
0.036366623 -0.16641365 -0.08439646 -0.0796662 0.046183325 0.11620175 0.03704863 0.14568514
-0.011055305 -0.10138123 -0.021932732 -0.088380486 -0.003502323 0.053914882 0.09074544 -0.07121101
-0.039872292 -0.051167037 -0.099780805 0.07863598 0.12383389 0.052417703 -0.06506126 0.1191391
0.15423863 0.09537932 0.015738718 0.14319807 -0.03393175 0.05372815 0.10523917 -0.09102697
0.06771133 -0.04365885 -0.03377808 0.19707811 0.055230644 0.12116107 -0.10531395 0.16319755
0.057415232 0.072403625 -0.07492578 0.035989307 -0.12054347 0.091664754 -0.040490277 0.1718938
0.079151005 -0.022179063 0.10306851 -0.084311254 -0.026064262 -0.016909916 -0.06479925 -0.013641365
0.016424032 0.10072123 -0.06580848 0.0514049 0.04166652 0.04149678 -0.09958376 -0.10478048
-0.06455136 0.03898034 -0.057596717 -0.059108663 0.1107642 -0.029009402 0.007758546 -0.08036887
-0.12416174 -0.10805896 0.09843629 0.08782284 0.05896983 -0.030420344 -0.010776031 0.03967582
-0.06674884 0.03143986 0.11055054 0.04479799 0.07969949 0.087914325 -0.039047886 -0.12266315
-0.015681148 -0.121614985 -0.08943457 -0.051782597 -0.04521653 0.03074448 -0.015422031 0.016736085
0.12047798 0.02757245 0.036688335 0.061426986 0.029552257 -0.12137208 -0.10728922 -0.059569906
-0.11268094 -0.057876445 0.07542514 -0.0078280745 -0.041658375 -0.12387299 -0.015719477 -0.09981724
-0.10463797 0.033418935 0.054114826 -0.0100232065 -0.10791378 0.12417533 0.08066948 -0.12185559
0.08341475 -0.11134538 -0.059920523 0.06187988 -0.039771687 -0.02973903 0.048578445 0.06529896
-0.17204978 0.08666999 -0.15135974 0.0044599846 -0.039861478 0.07747348 0.08058272 0.09716449
0.04532342 -0.027198128 -0.10134404 0.13031211 -0.054849405 -0.04518887 0.072332054 0.03388939
0.100851834 0.07854776 -0.13730139 0.034839794 -0.15081012 0.027209826 0.01154052 -0.11659564
0.031274907 0.096931055 -0.06624711 -0.062339954 0.011880813 0.102862395 0.0530845 -0.070327915
-0.07160907 0.10681703 -0.0037124592 -0.0035710423 -0.007921842 0.1879105 0.119638525 0.09045543
0.10595803 -0.110551596 -0.0010396417 0.062449683 0.099104315 0.16106984 -0.033424556 0.014928865
0.044780724 -0.013677453 0.011509482 0.0336181 0.022432664 -0.051525258 0.03099058 -0.10779023
0.05730524 -0.1618172 0.059911422 -0.012018606 -0.07531229 -0.061423182 0.11028475 -0.12128211
-0.03011203 -0.08203612 0.13021365 0.036068372 0.02684599 0.09164678 -0.10579316 0.04940877
-0.021566376 0.10481675 0.114396945 -0.011014089 0.1414997 0.06560282 -0.0555197 0.06230105
-0.033556543 -0.13558762 0.090151064 0.12251482 -0.08832328 -0.08665787 0.11906448 0.07387289
-0.07007326 -0.014317502 0.10354442 0.03434199 0.056476332 0.12577057 0.060528755 0.16807374
-0.013021171 0.06804267 0.05765173 -0.015524822 -0.060681373 0.12412727 0.024498217 0.092756964
0.18205933 0.15755565 -0.010010029 -0.051320776 0.010817956 0.12389893 -0.051672146 -0.053674996
0.14497785 0.028613608 -0.07063071 -0.08081537 -0.06808396 0.068453446 0.17927574 0.106148645

feature_extractor.joint_encoder.0.bias f4 [32]
00000000: fd03 3e3d 2cd2 e6bd d039 9a3c 0245 12bd
00000010: 1490 feba 89a4 10bd 037d 0b3e 5753 a33c
00000020: 0763 3fbd 4fe2 95bd 417e 383e 907a 9e3d
00000030: 36ad 0cbb 1b27 ba3d 6cd1 883d d35e abbd
00000040: 47fd 9abd ea59 d3bd a22e a03d 23a0 773c
00000050: d4a6 8ebc 9916 7bbd c0c1 c7bd ccc6 f2bc
00000060: b832 663d ac90 adbd 333c 513c 92f3 ffbd
00000070: a4dd bdbb 2cbf 0abc a647 1ebd 7c14 053e
0.046390522 -0.11270556 0.018826395 -0.035710342 -0.0019421601 -0.035313163 0.13621907 0.0199372
-0.0467253 -0.073185556 0.18016912 0.07738221 -0.0021465546 0.0908949 0.06680569 -0.08367696
-0.0756784 -0.10319884 0.078213945 0.015113863 -0.017413534 -0.061300848 -0.09753752 -0.02963581
0.056200713 -0.084748596 0.0127707 -0.12497629 -0.005794244 -0.0084684305 -0.038642548 0.12996095

feature_extractor.joint_encoder.2.weight f4 [10, 32]
00000000: ca1d 68be a2bd 9abd 2559 103e 4561 e3bd
00000010: e3e3 afbc 9bc6 023e c238 553d 8c7e 8ebd
00000020: b0fc ae3d b507 e63d b7c1 523d c9d2 373d
00000030: e09e e43d 083f 183e a7a0 af3c df04 5e3d
00000040: 47c6 bb3c 2d06 e9bd cf6e be3d a60d a93d
00000050: b142 843c 80b3 3d3d d38b 02be 3ae3 bb3d
00000060: fc73 353c 140a af3d 9aa0 6f3d bfec 5f3b
00000070: d2e8 32be 69f9 3e3c 51a7 febd 9c02 583e
00000080: 8965 193e 5fdb bd3c 4075 713d 504d fcbd
00000090: b7a5 9a3d bb8a febc 89d6 b63d bfe7 9d3d
000000a0: 2f87 4fbd 9e50 69be 569a 4c3e 33c5 5f3e
000000b0: 0846 11be fa7a 05bd 81e5 0dbe f8f7 4a3e
000000c0: 039c 12bd 2f0e 48be f8b5 96bd 9f59 133d
000000d0: 62f2 8fbd 9af0 9c3c 49a5 e03d e19d b4bd
000000e0: c4ab 21be 5e8a 13be a52b bd3d 7152 ce3d
000000f0: d94d 0dbe 3682 243d 3e11 4cbc b61f fe3c
00000100: 71fa 163e 6458 f43d 9ff3 45be 86b9 06be
00000110: 78b8 cdbd 0547 233e 99c9 593e cb5a 6bb8
00000120: 519f 283d 9164 5ebe ce37 1b3e d15a b83d
00000130: f6f4 7c3d d147 d2bd 49c2 ef3d e171 093e
00000140: e112 2ebe fb21 7e3d 43ac 8dbd 24ee 33bc
00000150: 3202 0a3d ebbe dabc bd0c 103e 4673 1d3e
00000160: dbcc babd e977 1b3e 41fa 34bd a541 edbd
00000170: 5899 113e f92d ce3d c87a 903d 1227 dd3d
00000180: 4c98 5dbd 1619 dfbc 041d 2bbe fb13 bbbd
00000190: af19 d53b 3f7f 2bbe 4abf 11be eda7 9bbd
000001a0: cff4 d73b 5468 523e df2c 0bbe 2ab7 5a3e
000001b0: aaad 2bbe 154c 013e a68e 4cbd 0b8a b7bd
000001c0: c881 87ba 0c50 d6bd cad8 11bd e68c f8bb
000001d0: 9a3b 73bd 84a7 b93d bb6d e8bb 18a1 b9bd
000001e0: 15af 033e b528 313e aace d93c 1078 f8bd
000001f0: e169 8bbd 454e af3c b08c 54be d152 f8b7
00000200: 2799 08bd 77af 10be 97e5 b13c 9c75 f73d
00000210: bd7a de3d dd50 57bc 7272 29be 2d94 2bbe
00000220: 3413 e33d e60e 5d3e 51e5 e23d 6c7d 30bd
00000230: 2c04 a53b 6078 59be 2494 8dbd e65a 5e3d
00000240: 3266 02be 4e79 2a3e d822 123d 0c51 2f3e
00000250: 7bdc 1cbe 7634 0ebe f599 b3bd 4141 34be
00000260: 8a45 1ebe d00d bd3d e308 98bd 0392 85bc
00000270: 4575 933d 99f2 fabd 0a5f 0c3d cc3f dbbd
00000280: 5c45 df3d 3f69 d6bd 170c 063d bdd9 093d
00000290: 665f 0abe 3ff4 d0bd 4af2 5bbe 4b62 1bbe
000002a0: 2fe8 7abd 24bd c23d 4a7d b0bd 8547 503e
000002b0: 0a7a bebc 0f3f f03c ef37 7f3d 664a 8d3c
000002c0: b4c4 3ebd 2476 543e 495b 04be e6ee 393e
000002d0: 1970 4b3d 2a21 e0bd 0101 0bbe 404f 503e
000002e0: a4cf 2d3e 55c5 08be f956 0a3e f5b5 a4bd
000002f0: 0943 58bc e662 a7bd f819 2dbc 8e6f 6d3d
00000300: 2bae aabd f8fd 813d 83cd 0bbe b9bb 91bd
00000310: 7ada a1bd 38d2 1f3e e129 c53d fb1f b9bc
00000320: c5c6 ef3d 163e f53c fb37 e3bd ac2a 0dbe
00000330: 02d1 353d db1b 3c3d 6c0f 373e bfe3 c63d
00000340: 4101 423d 2813 babd 79dd 1c3e b57a f73c
00000350: e142 0b3d 60b8 093e daf1 ef3d 0ffa 323e
00000360: c624 21be 608e 56bc bbd4 89bd 95a9 b13d
00000370: cbbd abbd 1138 163e b0b5 793c d00b e23d
00000380: fb34 703e 8ba8 c6bb 190b ebbd 4e18 6bbd
00000390: c97b 993d 3dc2 4fbe bcf0 a0bd 3587 763d
000003a0: 7bf9 dabc 94e9 e33b e267 323d 6bc2 80bd
000003b0: 63cf e9bd 96f2 85bd cd13 ecbd 5ed9 d53d
000003c0: 7855 d9bc 9283 efbd b98e c0bd ff2b 943a
000003d0: 855e d73d ecc1 343e 06ea eebd c986 f23d
000003e0: 22a8 913c 76fe 24be 0695 bbbd 38c9 4d3e
000003f0: 335e 723e 910a c03d 4708 00be 1139 f9b9
-0.22667614 -0.07555701 0.14096506 -0.11102537 -0.02147097 0.12771074 0.05205608 -0.06957731
0.0854429 0.11231939 0.051454272 0.044878755 0.111631155 0.14867795 0.02143891 0.054203864
0.022921694 -0.11378131 0.09298479 0.08254556 0.016145082 0.046313763 -0.12748651 0.091741994
0.011075016 0.08546844 0.05850277 0.0034168211 -0.17471626 0.011656144 -0.12434257 0.21094745
0.14980139 0.023175893 0.05894971 -0.12319434 0.07551139 -0.031072011 0.08927638 0.07710218
-0.05066603 -0.2278466 0.1998075 0.2185257 -0.14186871 -0.032587983 -0.1385708 0.19821155
-0.035793316 -0.1953666 -0.073589265 0.03597414 -0.07028653 0.019157697 0.10969026 -0.088191755
-0.1578818 -0.14408252 0.0923684 0.10074318 -0.13799228 0.04016324 -0.012455283 0.03102098
0.14743973 0.11930922 -0.19331215 -0.13156709 -0.1004495 0.1594506 0.2126831 -5.6112924e-05
0.04116756 -0.2171805 0.15158007 0.09001697 0.06175705 -0.10267604 0.11706979 0.13422348
-0.16999389 0.062044125 -0.06917622 -0.01098207 0.0336935 -0.026702365 0.1406736 0.15376005
-0.09121104 0.15182461 -0.044183973 -0.11584786 0.14218652 0.10067362 0.07054669 0.10798468
-0.05410032 -0.027233642 -0.16710287 -0.0913467 0.006503306 -0.1674776 -0.14233127 -0.07600389
0.0065904628 0.2054761 -0.13591336 0.21358934 -0.16765466 0.12626679 -0.049940728 -0.089618765
-0.001033836 -0.104644865 -0.035607137 -0.007585156 -0.059383012 0.09065154 -0.007093159 -0.09063929
0.12859757 0.17300685 0.026587803 -0.12132275 -0.06807304 0.021399627 -0.20756793 -2.9602468e-05
-0.033349182 -0.14129435 0.021715922 0.12082979 0.10863254 -0.013141838 -0.16547564 -0.16755743
0.11087647 0.21587715 0.11078895 -0.04308836 0.0050358977 -0.21237326 -0.06913021 0.054285906
-0.12734297 0.16647837 0.03567776 0.1712076 -0.15318482 -0.138872 -0.08769599 -0.17603017
-0.15456215 0.0923115 -0.0742357 -0.016304975 0.07200102 -0.12253303 0.034270324 -0.10705528
0.10901901 -0.10469293 0.032726374 0.033654917 -0.13512954 -0.10202836 -0.21479145 -0.15174215
-0.061256584 0.09508732 -0.08617647 0.20339783 -0.023251552 0.029326944 0.0623092 0.01724739
-0.04657431 0.20748192 -0.12925448 0.18157539 0.04966745 -0.109438255 -0.13574602 0.20342731
0.1697374 -0.13356526 0.1350974 -0.08042518 -0.013199576 -0.0817316 -0.010565273 0.057967715
-0.08334001 0.06347269 -0.13652615 -0.071158834 -0.07902999 0.15607536 0.096271284 -0.022598257
0.11707834 0.029936831 -0.11094662 -0.1378581 0.04438878 0.045925003 0.17876977 0.09711408
0.047364477 -0.09085685 0.1531886 0.030209878 0.033999328 0.1344924 0.117160514 0.17478202
-0.15736684 -0.013095468 -0.06730028 0.08674923 -0.083858095 0.14669825 0.015241072 0.11037409
0.2345771 -0.0060625724 -0.11476726 -0.057396226 0.07494313 -0.2028894 -0.078584164 0.060187537
-0.02673029 0.006955335 0.0435561 -0.06287082 -0.11416509 -0.0654041 -0.11527214 0.1044185
-0.026530012 -0.11695017 -0.09402222 0.0011304616 0.10516075 0.176521 -0.1166573 0.118421145
0.017780367 -0.16112694 -0.09159283 0.2009629 0.23668747 0.093770154 -0.12503158 -0.000475355

feature_extractor.joint_encoder.2.bias f4 [10]
00000000: 65eb 043e 66f4 11be 24ac ac3d c960 12be
00000010: 2163 39be 59de 2dbe c258 82bd 16b6 313d
00000020: d8da 833c 0eea 73bc
0.12980421 -0.14253387 0.08431271 -0.14294733 -0.18104221 -0.1697935 -0.063645855 0.04338654
0.016095564 -0.014887346
