generation/invbo_decoder/results_vae_long/gp.pt (torch, 224829 bytes, 17 tensors)

covar_module.base_kernel.raw_lengthscale f4 [1, 10]
00000000: cb7d 5fbf 3260 64bf cd9e 5bbf 47f4 30bf
00000010: a268 3abf 694f 67bf 4b0e 41bf e7af 56bf
00000020: 4dc0 5cbf dfbf 3abf
-0.8730132 -0.8920928 -0.85789186 -0.6912274 -0.72815907 -0.90355545 -0.75412434 -0.83862156
-0.8623093 -0.7294902

feature_extractor.encoder.0.weight f4 [64, 768]
00000000: 98c4 92bc 9649 3a3c b8af e63d 1274 96bd
00000010: 4462 edbc e4ea 58bd 0de1 bc3b ccaa ca3d
00000020: 581e 643b 1e0e a23d 722b 483d 3cc9 cf3b
00000030: 0557 93bc be82 343e 9a45 c4bd 80a1 2abe
00000040: cafb e13d 6e3e 893d 7540 3f3c c1d9 e03d
00000050: 3bfe 41bd 67cd 34bd 66e5 253e d38c 153d
00000060: 402d c63d f479 933d c698 2ebd 8461 023b
00000070: 7f3c c33c 32d8 d9bd 4cc4 f73d d705 4d3c
00000080: e9ca a2bd 04c1 0c3e 696b 31bc 592c 313c
00000090: f513 26bd 8df4 bebc 228a 03bd c97b c53d
000000a0: 7264 62bd 7593 a53d 1607 503d 5c08 023e
000000b0: 8d35 babb 14dd 073e f426 943c 0dd5 db3d
000000c0: 62a0 003e 6d9d c73c 3d2b c8bb 0314 be3c
000000d0: 3b0e 083d a240 98bd dd90 d23d 6510 433c
000000e0: e0f9 a7bb cd4f 7b3d f1fa 1e3e e431 143d
000000f0: 4cd5 c03d 3701 a5bd 9687 f4bc efe4 143e
00000100: 0ae0 23bc 75df 5dbc e7e9 6e3d ba0c fb3b
00000110: a959 473c ea13 3bbe f8cb 1abe 3af2 23bd
00000120: c4b0 423d 7af7 3d3d 2716 e13d a92d 9f3d
00000130: 51fa 9f3d 9882 283e ac35 c23a d865 c13d
00000140: 2f7e a9bd b55c f53d 901d 843d d8ae d53d
00000150: 5b77 ba3c 90f5 073e 3d4a 7a3d 8fd5 083d
00000160: f343 853d 8c1f 723d 27d3 aa3d 19bb a1bd
00000170: ffc9 6b3d 93ea acbc 071c c13d 99fe 753c
00000180: 3c1c 0f3d ad2e 223e 72e7 ba3d 1658 9dbc
00000190: a2b4 973d a24e 043e 69b5 6dbd a820 973d
000001a0: db2f a43d 7480 4dbd d8f8 ac3d 7ec6 4a3e
000001b0: 201f ba3c cbdc a83d afb5 b63d 9ecc 3bbd
000001c0: f262 a73d 8189 1a3d 42a2 703d 8351 1dbd
000001d0: f844 1dbd 593c 023e 283f 143e 2790 733d
000001e0: 7e0b 173d f613 d5bc 912e 653e 4d7a fcbd
000001f0: a390 a83c 26ba 033d bb88 99bd d3fe 123d
00000200: 82ac a4bd 5695 173e 07fd d3b9 e342 c13c
00000210: a92f 883d 6173 10be 7bb3 62bd e7f1 a43c
00000220: 5f78 25be c8a5 b33d 3540 db3d 4535 2a3d
00000230: 0e98 283d fd16 96bc aac5 733c 42e9 903c
00000240: 048b 223e 0931 8ebc 6e91 8dbe be8b 913d
00000250: 222f af3d d59a b6bb 097d c2ba 6994 f53d
00000260: 9995 903d 3edf 243d a0f5 743d d73b fe3d
00000270: 3fa5 8f3d f629 de3d 0721 9fbc aafc 02be
00000280: 7439 89bc 0fa5 9e3c dfd1 993d 3ec6 b23d
00000290: 0ad7 d8bc 94a3 afbc 0955 e4bd a841 cfbc
000002a0: 3564 f33d b271 703d d114 0b3e 43a8 58bc
000002b0: cde8 643e c309 843d a75c 303d fafc 1bbb
000002c0: 01f3 ccbd 3eb6 093d 8e51 f5bd e4d8 403d
000002d0: 7dea d13d 0d02 8b3d 80b0 f5bc 0d11 61bd
000002e0: 7199 c93c 0f2b 8fbd 32e8 90bc 68a8 7abd
000002f0: 385e 343d 9b70 7f3d 9df1 f83d d2e8 5a3c
00000300: b0a8 0cbc 56dd ccbd 42d0 4b3d 5ebb 2dbe
00000310: 21ab d43c f338 98bd 33cf 02bd 08a5 40bd
00000320: 14c6 bc3d ab72 dfbd e73f aa3e 24d5 b83d
00000330: 5cef 09bd 7c80 75bc 4409 cebd fcd9 133e
00000340: 5b5b 3e3d c932 903d de48 df3d 84ec 593d
00000350: c16d a53d 2cee aa3c d121 8cbc 4cce c03d
00000360: d720 c9bd 955f 333c 8917 ee3c 308c 6d3d
00000370: 18a2 c03c 1dfb 6d3d 8446 1fbe ff25 443d
00000380: 44c2 4dbd 3e16 d43d 23b9 0b3e a44a 93bc
00000390: a599 2c3e 7d3d 98bd d7bb 3c3d 3421 54bc
000003a0: 439a dd3d 8ec6 12bd 65d5 9dbd d965 cc3b
000003b0: 3025 38bc f773 e03d 1df5 06bd 9fd0 813c
000003c0: 1031 8fbc cf40 763d 1b4c 2e3d c85d df3d
000003d0: a471 cb3c 368b a53d 3de7 8e3d 72f0 673d
000003e0: 08c0 2e3d 7d5b c73d f72c 5ebc ec6c a43d
000003f0: c306 11be 2619 afbd 9a13 a03d 8a55 aabd
-0.017916009 0.011370083 0.112639844 -0.073463574 -0.02897752 -0.052958384 0.005764133 0.09895858
0.0034808125 0.07912849 0.048869558 0.0063411277 -0.01798583 0.17627999 -0.09583588 -0.1666317
0.11034353 0.06701361 0.011673083 0.10979033 -0.047361594 -0.0441412 0.1620079 0.036511254
0.096765995 0.07200995 -0.042626165 0.001989455 0.023832558 -0.10636939 0.120979875 0.012513599
-0.07948858 0.13745505 -0.010828831 0.010813796 -0.040546376 -0.02330997 -0.032114156 0.09642751
-0.055271573 0.08084766 0.050788008 0.12698501 -0.0056826533 0.13267928 0.01808498 0.107339956
0.12561181 0.024367059 -0.00610867 0.023202902 0.033216696 -0.07434203 0.10281537 0.011905764
-0.005126223 0.0613554 0.15525414 0.036180392 0.09415683 -0.08056872 -0.029849809 0.14540456
-0.010002146 -0.013542046 0.058328535 0.0076614292 0.012167373 -0.18269315 -0.1511687 -0.040025927
0.047531858 0.04637859 0.10990553 0.07772381 0.07811416 0.16456068 0.0014817021 0.09443253
-0.08276021 0.11980573 0.06450951 0.104337394 0.022761991 0.13277268 0.061105955 0.03340679
0.06507101 0.059112117 0.08341055 -0.07897014 0.057565685 -0.021107947 0.09429174 0.015014314
0.034939036 0.15838118 0.09126176 -0.019207042 0.074075 0.12920621 -0.058034334 0.073792756
0.0801694 -0.05017133 0.08445901 0.19802281 0.02271992 0.08245238 0.08921372 -0.045849435
0.08173169 0.03772879 0.05874849 -0.038407814 -0.03839585 0.12718333 0.14477217 0.059463646
0.036876194 -0.026010495 0.22381045 -0.123280145 0.02057678 0.032159947 -0.074967824 0.03588755
-0.08040716 0.14803061 -0.00040433576 0.023591464 0.066497155 -0.14106514 -0.055346947 0.02013488
-0.16159199 0.08771855 0.10705606 0.041554708 0.041160636 -0.018321509 0.01487867 0.017689351
0.15873343 -0.017357366 -0.27650017 0.07106732 0.08553912 -0.0055726566 -0.0014838289 0.119911976
0.070597835 0.040251963 0.05980456 0.12413757 0.0701394 0.10847847 -0.019424928 -0.12791696
-0.016751029 0.019365815 0.07510733 0.08729218 -0.026469726 -0.021440305 -0.11149032 -0.025299862
0.11884347 0.05870218 0.1358216 -0.0132237105 0.22354431 0.064471744 0.04305711 -0.0023801909
-0.10007287 0.033621065 -0.11978446 0.047081843 0.10249803 0.067875005 -0.029991388 -0.0549479
0.0246093 -0.06990635 -0.017688844 -0.06119576 0.044035167 0.06236325 0.12155459 0.013361173
-0.00858514 -0.10003154 0.049759157 -0.16966006 0.025960507 -0.07432737 -0.03193588 -0.047032386
0.09217468 -0.10910543 0.3325188 0.09025028 -0.033675537 -0.014984246 -0.10060361 0.14438623
0.046473842 0.070409365 0.1090257 0.053204075 0.080775745 0.020865522 -0.017105969 0.09414348
-0.09820717 0.0109480815 0.029063957 0.05799502 0.023514792 0.05810081 -0.15554243 0.0478878
-0.050234094 0.10355805 0.13644843 -0.017979927 0.16855486 -0.07433603 0.046077576 -0.012947369
0.10820439 -0.035833888 -0.077067174 0.006237727 -0.011239335 0.109596185 -0.032948602 0.015846549
-0.01747945 0.0601204 0.04255305 0.10906559 0.024834462 0.08083193 0.06977699 0.05662579
0.042663604 0.09734247 -0.013560525 0.08028588 -0.14162736 -0.085497186 0.07816239 -0.083170965

feature_extractor.encoder.0.bias f4 [64]
00000000: abe5 0b3d 5acb 65bd 27f3 9ebd 79c3 983d
00000010: 7631 5f3d 07d7 a33d b2a6 6e3c 9f52 0a3d
00000020: e214 5fbb 6543 963d 9015 a33c 836b 53bd
00000030: d3d2 223e 2fde 843d 7f7a 923d 4db9 9b3d
00000040: ea3e 98bd 526f 71bc 63eb 513d 2567 1fbc
00000050: ef73 31bd d144 b1bd 0d20 9ebd d607 423e
00000060: c73b 88bd 093f 5d3d 0395 37bd b3f0 a03d
00000070: 1380 1cbd b9c0 833d c389 9b3d 96be b0bc
00000080: 82ac 023d 054e b0ba 37fc 563e a733 94bd
00000090: 8904 993c f3d3 303d 42a1 913d 7651 f5bc
000000a0: d0d6 0f3d 7143 3f3d 6a79 2f3c 0d46 793c
000000b0: 433a 893c cab0 433d 373a cd3d 0e67 a0bd
000000c0: 8fee 1bbd 5eee d7bc 4c2f 1b3d 33a3 6ebd
000000d0: 8032 93bd fb42 2abd 1709 e8bc b615 99bd
000000e0: 9414 fcbc 0b56 b3bc 4774 c7bb bca4 96bd
000000f0: 1c1c 45bc ae66 c83d d004 313d 032d 8d3d
0.034154575 -0.056102134 -0.077612214 0.074591585 0.05449053 0.079999976 0.01456611 0.0337702
-0.0034039547 0.07337073 0.019907743 -0.051616203 0.15900736 0.06487691 0.071522705 0.07603703
-0.07433875 -0.0147360135 0.051249873 -0.009729181 -0.043323454 -0.08655704 -0.07720957 0.18948302
-0.066520266 0.054015193 -0.044819843 0.0785841 -0.03820808 0.06433243 0.07594635 -0.021575253
0.031902798 -0.0013450986 0.2099465 -0.072364144 0.01867892 0.04317088 0.071108356 -0.02994607
0.03511697 0.046695177 0.0107101 0.015214455 0.016751414 0.04777602 0.10020869 -0.07832156
-0.038069304 -0.02635878 0.037886903 -0.058261108 -0.071873665 -0.041567784 -0.028324647 -0.07474844
-0.030771531 -0.021891614 -0.0060868594 -0.07355639 -0.012030628 0.097852096 0.04321748 0.06893351

feature_extractor.encoder.2.weight f4 [64]
00000000: fb2e 3d3f 1820 683f 6be8 823f 0c90 5b3f
00000010: e1e2 3a3f b630 443f 86f8 763f 2e61 313f
00000020: 86f8 763f 4e3e 683f 86f8 763f 4be8 823f
00000030: 2b0c 5c3f 908d 923f 7bab 8f3f 320b 493f
00000040: 6fe8 823f 86f8 763f aef2 2d3f 86f8 763f
00000050: 8e20 683f 3d20 683f 2720 683f e00c 4e3f
00000060: 2320 683f 8abe 603f 6fe8 823f 904b 3c3f
00000070: 5ce8 823f 06e4 7c3f e9c5 f33e 86f8 763f
00000080: 86f8 763f 86f8 763f 3ae1 593f 1c20 683f
00000090: dbd7 2c3f 5c30 123f c11e 673f 66e8 823f
000000a0: cc1a 393f b40d 3e3f ec6b 4d3f 86f8 763f
000000b0: 86f8 763f 6ca9 183f d106 663f 2320 683f
000000c0: a020 683f 71e8 823f 853a 333f 1c20 683f
000000d0: 72e8 823f 55e8 823f 86f8 763f 2920 683f
000000e0: 1e20 683f 86f8 763f 1e97 f53f 1820 683f
000000f0: 435c ea3f fa00 483f 8822 5e3f 58fd b93e
0.7389981 0.9067397 1.0227178 0.85766673 0.7300244 0.76636827 0.96472967 0.6928891
0.96472967 0.9072007 0.96472967 1.022714 0.85956067 1.1449451 1.1224207 0.7853271
1.0227183 0.96472967 0.67948425 0.96472967 0.90674675 0.9067419 0.9067406 0.80488396
0.90674037 0.8779074 1.0227183 0.735528 1.022716 0.98785436 0.4761193 0.96472967
0.96472967 0.96472967 0.85109293 0.90673995 0.6751687 0.5710504 0.902813 1.0227172
0.72306514 0.7423966 0.802428 0.96472967 0.96472967 0.5963352 0.8985415 0.90674037
0.9067478 1.0227185 0.7001117 0.90673995 1.0227187 1.0227152 0.96472967 0.9067407
0.90674007 0.96472967 1.9186742 0.9067397 1.8309406 0.7812649 0.8677144 0.36326098

feature_extractor.encoder.2.bias f4 [64]
00000000: a5a8 6f3d f76a 963d 219c d23d 7e43 9c3c
00000010: 53b3 513e 0185 77bb f77e 8fbc d89a 9f3e
00000020: 38d5 24bd 09fe f73c 9f5a abbc 92f2 3f3c
00000030: a25b 9cbb 9ed5 c2bc 8bd5 89bc 7bb5 9cbd
00000040: 69f2 203c 95be 673b b002 e13a 6332 74bc
00000050: db49 2d3c c08f 443d a5af 7c3d 1f5a 6d3d
00000060: 2f4b 02bc 8c45 803d 18d5 2c3d 9b05 9fbe
00000070: 6120 583d 451b 59be 669e 7e3d 823c f13c
00000080: e502 6b3b 5720 8a3c e06f 203e 7ccd af3a
00000090: 255d 873d a93b 32bd 4fc8 c53e 81fb 4ebd
000000a0: 700f 6dbe 89e2 d73d 0b9e 0d3c f6a2 563d
000000b0: d392 b2bc 3584 253e 59d8 a43c ac3c 863c
000000c0: 47f6 15bd c993 033d 686b b03e bf4c 923d
000000d0: cac9 3fbd af5e 2d3d ce56 693c 05aa 9fba
000000e0: 4886 423a 9a9a 74bd f1d8 42be eebf 883b
000000f0: d835 27be 2bc3 863c f8aa 56be d768 d93d
0.05851044 0.07344621 0.102836855 0.019075152 0.20478563 -0.0037768485 -0.017516596 0.31172824
-0.040242404 0.0302725 -0.020917235 0.011715548 -0.0047716657 -0.023783501 -0.016825458 -0.07651802
0.00982342 0.0035361398 0.0017166939 -0.014904591 0.010576691 0.047988653 0.061690945 0.057947274
-0.0079524955 0.06263265 0.04219541 -0.31058964 0.052765254 -0.21201809 0.06216278 0.029447798
0.003585988 0.016861124 0.15667677 0.001341268 0.06609563 -0.043513928 0.38629386 -0.05053282
-0.2315042 0.10541255 0.008643637 0.052401505 -0.021798527 0.16163714 0.020122694 0.016386352
-0.03661182 0.03212336 0.34456944 0.071435444 -0.0468233 0.042326625 0.014241887 -0.0012181407
0.0007420522 -0.059717752 -0.19028069 0.0041732704 -0.16329134 0.016450485 -0.20963657 0.106157

feature_extractor.encoder.2.running_mean f4 [64]
00000000: 3d13 0941 8ae1 1321 765e c81f 2dfc ab40
00000010: 63d2 5541 acc0 a341 0000 0000 36b2 8940
00000020: 0000 0000 7504 8440 0000 0000 fdd6 cd1f
00000030: cc40 d640 b357 6640 c108 8f41 3334 8741
00000040: b48c 5c21 0000 0000 0764 8140 0000 0000
00000050: 9ce8 3a1c fe7a 6220 a70e 721d e6e6 b940
00000060: 7473 dc1f 585f 0541 3bad e21f 813e d640
00000070: 1281 1e21 bacf a740 16bb 6a41 0000 0000
00000080: 0000 0000 0000 0000 1451 ed40 3ea1 351f
00000090: 8733 1f41 04cb 6541 68a3 bf40 5280 1920
000000a0: 0a9b 6d40 7712 9141 9912 4f40 0000 0000
000000b0: 0000 0000 67fe 9a40 ed00 b540 e46b 6f1e
000000c0: 96a7 3f1c e3f3 0b21 a5b0 7841 e36c 7421
000000d0: 988a c31f 1d40 611f 0000 0000 12ff 0321
000000e0: 9eb6 261f 0000 0000 3c8e 893c f391 dd1f
000000f0: 8be6 d33c 0b33 e640 9122 4741 518f 6141
8.567197 5.0104036e-19 8.485957e-20 5.374533 13.363864 20.469078 0.0 4.3030043
0.0 4.125544 0.0 8.7176545e-20 6.69541 3.5991027 17.879274 16.900488
7.472512e-19 0.0 4.0434604 0.0 6.184288e-22 1.9183639e-19 3.2036008e-21 5.809436
9.3364625e-20 8.335777 9.600131e-20 6.69513 5.3703305e-19 5.2441072 14.670675 0.0
0.0 0.0 7.416147 3.8461617e-20 9.95008 14.362064 5.988697 1.3002062e-19
3.7125878 18.134016 3.23551 0.0 0.0 4.843555 5.656363 1.2674866e-20
6.34132e-22 4.7417813e-19 15.543126 8.2814526e-19 8.2814996e-20 4.7698637e-20 0.0 4.472211e-19
3.5302925e-20 0.0 0.016791455 9.3838593e-20 0.025866767 7.193731 12.445939 14.097489

feature_extractor.encoder.2.running_var f4 [64]
00000000: 5114 2240 79c0 2c24 e497 2c24 06c3 0d40
00000010: 74b9 ab3f 80c3 2a3f f58c 2c24 29de e53f
00000020: f58c 2c24 c2ab e63f f58c 2c24 6297 2c24
00000030: b973 f23f 648d 773f c9e5 6b3f 6be0 943f
00000040: 57c5 2c24 f58c 2c24 37b8 2340 f58c 2c24
00000050: f58c 2c24 d7ab 2c24 228d 2c24 13ca 6d3f
00000060: 729a 2c24 1535 da3f 0b96 2c24 7b3f f43f
00000070: 15bc 2c24 0f1f 1240 06d5 723f f58c 2c24
00000080: f58c 2c24 f58c 2c24 cc1a 9f3f eb90 2c24
00000090: d487 2140 9f36 f63f 157c 1640 f299 2c24
000000a0: 9cb6 bf3f 507c 813f da47 1f40 f58c 2c24
000000b0: f58c 2c24 baf8 0240 4498 2b3f a98d 2c24
000000c0: f58c 2c24 b7b0 2c24 5ec0 ae3f 6ec3 2c24
000000d0: 8a93 2c24 2890 2c24 f58c 2c24 90b9 2c24
000000e0: f38f 2c24 f58c 2c24 75fb e63c cd9a 2c24
000000f0: b507 893d 703b 1340 941e e13f b7a6 0040
2.53249 3.7459585e-17 3.742521e-17 2.2150283 1.3415971 0.6670456 3.741595e-17 1.7958423
3.741595e-17 1.8021166 3.741595e-17 3.742478e-17 1.8941566 0.9670012 0.921475 1.1630987
3.7463708e-17 3.741595e-17 2.5581186 3.741595e-17 3.741595e-17 3.744211e-17 3.74161e-17 0.92886466
3.7427375e-17 1.7047449 3.7423646e-17 1.9081873 3.7455866e-17 2.2831457 0.948563 3.741595e-17
3.741595e-17 3.741595e-17 1.2430053 3.7419305e-17 2.5239153 1.9235419 2.3513234 3.742695e-17
1.4977603 1.0116062 2.4887605 3.741595e-17 3.741595e-17 2.046431 0.67029214 3.7416546e-17
3.741595e-17 3.7446238e-17 1.3652456 3.746209e-17 3.7421525e-17 3.741866e-17 3.741595e-17 3.7453732e-17
3.7418484e-17 3.741595e-17 0.028196076 3.7427676e-17 0.06690923 2.3005028 1.7587457 2.0101755

feature_extractor.encoder.3.weight f4 [32, 64]
00000000: 65d5 8ebc 7336 153e f17c 63bd 1d6d 703c
00000010: 1331 efbd 3939 11be ae45 f73d 7482 5cbd
00000020: d05f 663d 882d 623d 118f 6c3d 6485 febc
00000030: 35df d9bd 6e68 1cbe 8b0e b4bb 0608 2a3d
00000040: 25df e1bd c3ee 213d 72bb d63c b2f2 a13d
00000050: bff3 3c3d ebf8 743c c6b9 333a 95f2 e4bd
00000060: 1c8d 0d3c aa33 5c3d bbec b7bd 6989 a2bc
00000070: 1619 8d3d ae1d 89bd f5cf 663d b225 cfbc
00000080: 97a7 cfbd 082a bbbd 68a8 afbc 275a 3e3d
00000090: 60ad a5bd 83e4 433d 841d 903d ece5 db3c
000000a0: 5e8b dc3d a213 d5bd bcc2 223d f61a aa3c
000000b0: 3c0b 9e3d 378a e5bd e75e adbd bac7 4abd
000000c0: b662 3b3d 6688 733d 9de1 8cbd 4714 d2bb
000000d0: 107b 2e3d 28a6 2dbd af69 0abd 9513 e6bd
000000e0: efcd 00bc 1f4c f53d e26c da3e 136f cebd
000000f0: 81b1 90bd c095 253e e5f8 023b 33c8 d73b
00000100: 455d 31bc 0e76 f8bd 6b68 3bbe a66c 27bb
00000110: 564c 7ebc ee55 d7bd ac11 153e 4344 2abd
00000120: c8fa 4ebd c09c 95ba 9a2c 4f3d bd93 563d
00000130: 697a d43d b5e1 c03d 1962 ddba 92a7 5e3c
00000140: a6ad 1b3e 68a0 8aba b1ad f4bc e661 1c3e
00000150: 231c 0d3e 1060 9cbd 8003 a2bd f928 7f3c
00000160: 412f 4e3d d6dc 913c 02e5 ff3c 1b4a 38bd
00000170: 3546 b4bd 9765 133c f03f aa3c 9d3c 3fbe
00000180: e101 983c 12c7 2bbe 98c3 34bd 958e 613d
00000190: f85f 513c f0ae 563d 649b dfbd 113e afba
000001a0: 7998 9d3d 32ba 103d 38c5 b73b ed0a 0f3d
000001b0: eaa6 b83d de86 26be a2db 983d df4a 12bd
000001c0: 74a7 f0bb 16a1 1fbe 85cd 28bd f760 24bd
000001d0: d198 283e 94e1 39bd ab69 453d 0042 083e
000001e0: a043 b2bd 336a 433e 0adf a2bd 5c3a b33c
000001f0: d7c6 db3e 09f4 7e3c 7854 163d a1d1 a7bd
00000200: d481 8bbb ce47 b2be 784b 92be 0dfe 97bd
00000210: 596e 0dbc b172 803d 6b62 cf3d 1f25 97bd
00000220: fa02 d2bb 73af cabd 3510 163e f85e d23c
00000230: e99d 06bd 6930 24bd 08d0 11be 0e7a 2d3d
00000240: 9a39 35bd b36c cd3d e6cd a5bd bd1b 8e3c
00000250: 2709 3a3e 2db1 1bbe c1c3 1dbd ca8a d33d
00000260: 196a 31bd 1813 a9bd 4469 1a3e 81ff 8d3c
00000270: 1ab6 2fbe f4be 033d 8498 e6bc 6c38 72bd
00000280: 2afc cc39 9fd0 0ebe 7086 d5bb e019 62be
00000290: d3a2 09bd c302 ed3d 94f8 0ebe 1eb7 dd3c
000002a0: 28f0 5e3d f21a 8b3c e1b5 58bd 53ce 35be
000002b0: 42c5 98bd b368 05be f96f 933d 08a0 8fbd
000002c0: ccae a13e 7420 933d 5ba9 abbd cc28 0ebd
000002d0: f5b8 063e f423 22bd ba9a bf3d 0898 743d
000002e0: 32a8 8fbd 63f6 4a3e 4bfc bebd a5a5 31bd
000002f0: affa e43e 9a94 393e df8c a43c e27e 13be
00000300: c9b8 2bbe 60e7 f03c 4bae 263d 6e7a 83bd
00000310: 8eb2 dd3b aeaa 22bd 30ca 4abd 0afe 3abc
00000320: 00a2 323d b362 88bb 28b9 24bd 1948 0cbe
00000330: 702d 2e3d 9c43 593e 81e7 98be 36a5 e2bd
00000340: e760 5a3d 5505 0abc 4087 e0bc ec4c 17bd
00000350: c5fe b3bc eb78 d2bc db25 a83d df2c 0a3e
00000360: b7ec 083d bf6a 963c 5508 d0bd 119f bdbd
00000370: 6e86 af3d dbd1 33be 0e42 b53b ad09 cb3c
00000380: 178b c83c c18b 1bbc 12e2 eebd 5211 623d
00000390: 6cab a7bd 99cd acbd f81b 4f3d ec65 333e
000003a0: e8dc a93d 525f dabd 3797 dd3d 5dd4 d1bc
000003b0: b57f 61bd 43eb f2bc cbf5 0a3e 3e07 e33c
000003c0: 30f4 3abc f548 443d b436 6e3b 3cfc 093d
000003d0: 1ad2 ebbc eeef 943d ab5a 563c 8ff6 0e3e
000003e0: 17c1 de3a b61e 04be 2f39 1abe 3736 39bd
000003f0: 35fb c93e 9f5f a7bc 69ca c93b 9158 a6bc
-0.017435739 0.14571552 -0.055539075 0.014674452 -0.11679282 -0.14181985 0.12073837 -0.053835347
0.056243718 0.055219203 0.057753626 -0.031069465 -0.106382765 -0.15274212 -0.0054948977 0.041511558
-0.110288896 0.03953434 0.026212428 0.079076186 0.046130892 0.014951925 0.00068559905 -0.11179081
0.0086396 0.05376021 -0.089807 -0.019840913 0.068895504 -0.06695114 0.056350667 -0.02528653
-0.10139387 -0.09138876 -0.021442607 0.046472695 -0.08089709 0.047825348 0.0703688 0.026843034
0.1076877 -0.10404135 0.039736494 0.02076481 0.077169865 -0.11208003 -0.08465367 -0.04950688
0.045748435 0.05945625 -0.0687897 -0.0064111087 0.04259783 -0.042394787 -0.033792194 -0.11234204
-0.007861598 0.119774096 0.42661196 -0.100797795 -0.07065106 0.16170406 0.0019984778 0.006585145
-0.01082546 -0.12131892 -0.18301551 -0.0025546937 -0.01552113 -0.10514437 0.14557523 -0.041569006
-0.050532132 -0.0011414513 0.050579645 0.052386988 0.103749104 0.0941805 -0.0016890197 0.013589757
0.1520296 -0.0010576369 -0.029867979 0.1527172 0.13780265 -0.0763551 -0.07910824 0.0155737335
0.050338034 0.017805498 0.03123713 -0.044992547 -0.088024534 0.008996389 0.02078244 -0.18675466
0.018555583 -0.16775158 -0.044131845 0.055067617 0.012779228 0.052412927 -0.1091831 -0.0013369938
0.076950975 0.03533382 0.005608227 0.03492253 0.09016211 -0.16262385 0.07463767 -0.035715934
-0.0073441807 -0.15588793 -0.041211624 -0.040131535 0.16464545 -0.045381144 0.048196476 0.13306427
-0.08704305 0.1908348 -0.079526976 0.021878414 0.4292514 0.015561112 0.03670165 -0.081942804
-0.00425742 -0.34820408 -0.28573203 -0.07421503 -0.008632266 0.06271876 0.101261936 -0.07380127
-0.0064090462 -0.098967455 0.1465462 0.02568005 -0.03286544 -0.04008523 -0.14239514 0.04235273
-0.044244386 0.10030498 -0.08095913 0.017347211 0.18167554 -0.15204306 -0.038516764 0.10329206
-0.043314073 -0.08255595 0.15079218 0.017333748 -0.1715931 0.03216453 -0.028148897 -0.05913584
0.0003909779 -0.1394677 -0.0065162703 -0.22080183 -0.033602547 0.115727924 -0.13962013 0.027064856
0.05442825 0.016980622 -0.05290783 -0.17754488 -0.07459499 -0.13028221 0.071990915 -0.070129454
0.31578672 0.07183924 -0.08381911 -0.034706876 0.13156493 -0.03958507 0.093556836 0.0597153
-0.070145026 0.19820552 -0.09325465 -0.04337086 0.44722506 0.18123093 0.020086704 -0.1440387
-0.16769709 0.029407203 0.040693562 -0.06419836 0.00676567 -0.039713554 -0.049509227 -0.011413107
0.043611526 -0.0041621565 -0.04021564 -0.13699378 0.0425238 0.21217197 -0.29864123 -0.11066668
0.05331507 -0.008424123 -0.027408242 -0.036938593 -0.02197207 -0.025692424 0.08210345 0.1349368
0.033428874 0.018361447 -0.10157839 -0.09258855 0.08570562 -0.17560522 0.005531556 0.024784887
0.024480386 -0.009493769 -0.11664213 0.0551923 -0.08186993 -0.08437652 0.050563782 0.17519349
0.08294088 -0.10662712 0.108198576 -0.025613958 -0.05505343 -0.029653197 0.13570325 0.027713414
-0.011410758 0.04792114 0.0036348524 0.033687815 -0.028786708 0.072723255 0.01308314 0.13961242
0.0016994801 -0.1290234 -0.15060876 -0.04521772 0.39449468 -0.020431338 0.0061581624 -0.020305904

feature_extractor.encoder.3.bias f4 [32]
00000000: ddfd 19be 3a98 23be b961 0ebe 2b82 d23d
00000010: 53ec d0bd 543e 9dbd b5a2 afbe 98ae 0abd
00000020: 7d2d 863d feaa ae3c 6b77 e53d c00e 98bd
00000030: 7a15 073e ae14 803d 5246 9d3e a27d 813d
00000040: ea69 e7bd 4f3f 9e3d 3ffa ddbc e9b2 de3c
00000050: 7ff2 d1bd 67f9 4abe efb5 3d3e 7e1c 473d
00000060: a740 b9bd 549a 75be 0649 0c3e c8df 91be
00000070: 11aa 7dbd c487 133e e32c a03d 96c8 363d
-0.15038247 -0.15976039 -0.13904466 0.10278734 -0.10201325 -0.07677904 -0.34303823 -0.03385791
0.06551645 0.02132177 0.11204418 -0.07424688 0.13191786 0.06253944 0.30717713 0.06322791
-0.112994984 0.07726919 -0.027096866 0.02718492 -0.102513306 -0.19821702 0.18526433 0.048611157
-0.090455346 -0.23984653 0.13699731 -0.28491044 -0.061929766 0.14407259 0.078210615 0.044624887

feature_extractor.encoder.5.weight f4 [32]
00000000: 686f 053f 2088 1d3f 0b2a 163f 9dc0 123f
00000010: 548e c33d 684e 343f 3c48 ca3e 9837 223f
00000020: cc4f c43e 158c dc3e 3ac5 1a3e 8dfd bd3e
00000030: 8c16 cc3e 2625 f43e 5af2 f03d 08b1 ce3e
00000040: 63f5 9d3e d83f 1c3f ea85 c03e 8a17 9d3e
00000050: 614b 223f be5e c83e c9bd 103f 1dee 133f
00000060: 114e 293f 5761 183f f17c e73d 43c4 243e
00000070: 4b5e 953d 8020 c33e 9514 4b3e 6031 233f
0.5212312 0.61535835 0.586579 0.57325155 0.09548631 0.7043214 0.39508235 0.6336608
0.3834213 0.43075624 0.15114298 0.37107506 0.39860952 0.47684592 0.11764975 0.4036944
0.30851278 0.6103492 0.37602168 0.3068202 0.6339627 0.39134783 0.5653959 0.5778521
0.66134745 0.5952353 0.113031276 0.16090493 0.072933756 0.38110733 0.1983207 0.63747215

feature_extractor.encoder.5.bias f4 [32]
00000000: 8eb3 ab3c 392f 703b 5f94 27bc 5511 f5bc
00000010: 47b1 25bd 1858 a1bd 7f04 1b3d f90d e0bc
00000020: 5ce7 6fbc 95d6 1e3a b71d 013b f136 84bc
00000030: da4f 8fbd da81 ef3a e8f2 253d bd7e 253a
00000040: d120 59bd 0c8c ccbc cfd2 cebc eab2 2abb
00000050: 4119 2fbd 35a4 2ebd b141 213d faee 023d
00000060: 541d 1fbd 5340 1f3b db20 f4bc 10bd a83c
00000070: 52ef dbbb f941 4a3c 8b40 913b fb7e 423d
0.020959642 0.003664924 -0.0102282455 -0.029915491 -0.040452268 -0.07878131 0.037846085 -0.027350413
-0.014642563 0.0006059197 0.001970155 -0.01613948 -0.06997652 0.0018272952 0.040514857 0.0006313136
-0.05300981 -0.024969123 -0.025247006 -0.0026046582 -0.042748693 -0.04263707 0.03936929 0.031966187
-0.03884633 0.0024299815 -0.029800823 0.020597965 -0.006711879 0.012344831 0.004432743 0.04748438

feature_extractor.encoder.5.running_mean f4 [32]
00000000: c863 043e 5d84 c03d 9286 b93d a5b5 053f
00000010: 1dcb dc3e 5535 1e3e 66b5 653d 169c ef3d
00000020: cff4 593f eb7e 6f3f f5e1 013f ac55 463e
00000030: ee0c 193f fa26 313f 4509 303f e1f7 683f
00000040: 32d4 393e f275 1b3e 0eb3 213e 1c55 7e3e
00000050: a5c4 0e3e 4f92 043e 1d29 fd3e 8b9b 3e3f
00000060: 5fad 313e e218 f13d 2abe fe3e 1ba3 ea3d
00000070: 20ff 153f a32c 873e 51ca 8b3e f1e1 353e
0.12928689 0.09400246 0.090588704 0.5223029 0.43123713 0.15450032 0.0560812 0.11699693
0.85139173 0.93553036 0.5073541 0.19368619 0.59785354 0.692001 0.68764144 0.91003233
0.18147352 0.15181711 0.1579096 0.24837154 0.13942201 0.12946437 0.4944543 0.7445609
0.17351292 0.11772324 0.4975446 0.11456891 0.58592415 0.26401243 0.27302793 0.17761971

feature_extractor.encoder.5.running_var f4 [32]
00000000: 4fda 9d3f 5436 623f ee14 523f 5e61 0640
00000010: 589c 273f bf55 c13f 170d a13e 85ba a63f
00000020: 98e7 cc3f 7bc7 fc3f 6aa7 4a3f 35d7 d43f
00000030: d7f1 473f 56aa d43f e8c4 a83f 326b e43f
00000040: 6ae0 2f3f 2c7c f53f 1ee0 f63f 967c 0b40
00000050: 6390 c93f aa8e d63f 9e51 ed3f ba8f a53f
00000060: 2a8c 8b3f e760 b13f e382 083f 8cc5 913f
00000070: ef34 a73f af63 d93f d4e5 e83f 7872 0240
1.2332247 0.8836415 0.82063186 2.0996928 0.65472937 1.5104293 0.314553 1.3025671
1.6008177 1.9748377 0.79161704 1.6628176 0.78103393 1.6614482 1.3185091 1.7845213
0.68701804 1.9178519 1.9287145 2.1794791 1.5747188 1.6762288 1.8540533 1.2934487
1.090215 1.3857697 0.5332472 1.1388412 1.3063029 1.6983546 1.8195138 2.0382366

feature_extractor.encoder.6.weight f4 [10, 32]
00000000: 0102 30bc a1f7 223d bc80 6d3c 5514 2f3d
00000010: 13d5 12bc c8c7 fd3a 8462 553d d224 04bb
00000020: 215f 0b3d 6e79 953c d0c0 20bd 7df8 88bc
00000030: fc47 203b 7114 2fbd f85e 90bb 66d2 57bd
00000040: 8e24 2dbc 0aff 703c 28e4 44bc 2f8f 433c
00000050: b9a8 45bd 4f3e 9c3c 68c4 9cbb bd11 b73c
00000060: d76c 103b 4b3f d93c 4603 463b 7aad 6abc
00000070: c74b b5bc 98bd d2bb 6b80 4f3c 9699 d5bc
00000080: 3e96 b4bc e934 6cbc def4 3ebc 27ad 6c3c
00000090: bf16 873b 2271 cebc e658 75bc 0c0a 693c
000000a0: 175e 0dbc bfbe a73c 5423 40bb 1766 c2bc
000000b0: 5747 55ba 14fb 3abc 6e0b 8238 5c27 75bc
000000c0: dd38 0cbc cd04 31bd a28d e63b e0f8 e6ba
000000d0: 061a 9cbc fc9d 0d3b df4e 3739 781e e03a
000000e0: 450f 23bb 33a9 83b9 250a 843b 2c91 99bb
000000f0: 2119 c9bb 13b1 a0bb 031d 833b aed5 84bc
00000100: 4b37 7e3d c985 6bbd 1668 ebbb 80bc 46bc
00000110: 3926 88bc 0a09 ed3c 4d8e 3abe 3166 143d
00000120: 089a ce3c c9c9 5e3c 5261 00bb eeaa 933d
00000130: eff8 06bb fed1 7f3b 5fb5 423c 01bf 10bd
00000140: bca2 d03c f317 b83d bc90 fb3c 1775 5e3c
00000150: 0fd8 a83d 77af 053b 3f12 953b 4b15 94bb
00000160: 4c69 653c 0bce c53c fcea 29bc e735 883d
00000170: af37 c03c 46f7 b1bc b823 5bbc afb0 753d
00000180: 7793 833d ef70 8bbd 291d c8bc 488a 6cbd
00000190: ad40 37bd 0bfc f1bc 2d56 4bbd 471c a9bc
000001a0: 06e9 f3bc b686 bc3c 6c48 b73b 2b26 a6bb
000001b0: d24b 56bd 746a 19bd 1ef3 383d 9fcf 2d3c
000001c0: 59ae 30bd 11ab cebc 0f96 603c 447c a13c
000001d0: 8219 c43d 9ce6 f3bc 78a2 523d 3ecf 803d
000001e0: 7a28 583d 1c4b c3ba 8983 91bd c203 033d
000001f0: 41c6 1839 5823 963b 82d7 66bd 9591 dd3d
00000200: 213e 983d d5f1 b5bd f7da 98bb 920b 1dbd
00000210: 132f 77bc 3fdf 4e3d d48a 9abd 605e ae3b
00000220: 2dc8 5fbc 7d7d a5bb 7f3b 8f3c db85 963d
00000230: 6d47 6ebc e06b c73c 1664 803c fef0 633c
00000240: babf 193d 581c e73d 9137 9d3c e51f 443c
00000250: eacd b53d c01c afbc 2106 103c 7288 5fbc
00000260: 1ff5 c33c 76b3 1bbc a00f a2bc dca9 2d3d
00000270: 1325 343c e3a6 dfbb 0708 5abc 71f9 903d
00000280: 26ba dfba 7576 243d 0d49 2e3c 9619 5dbc
00000290: 5a25 093c 2f7c a63b d252 fb3d 638b c1bc
000002a0: 41d7 423c 514c 5cbd 5b9e 2e3a 7ffc 293a
000002b0: 6330 1ebb ec13 4c3c faf9 45bb 5297 373d
000002c0: e538 c6ba bc7e ddbb 339e 44bc 865b 6cbb
000002d0: 00a2 453b 8645 1f3a 7128 3bbb 5669 2238
000002e0: f596 2abb 982a 103c a5af f3ba 508e b0b9
000002f0: 74dd 1d3c ef59 173c be90 d5bb 60d0 c03a
00000300: 8edd 9ebd 7f3b 9d3d f5d8 7c3c c132 4e3d
00000310: 8142 383c 80e6 5ebd 2b52 a8bc 78c3 d5bc
00000320: fc2c 063d abaf 74bc 7479 12bd 9638 abbd
00000330: 492f 763b d2f5 1cbd b217 76bc 1a1c c8bc
00000340: f127 25bd d181 cbbd 1630 fabc ef88 58bb
00000350: e576 d4bd b7f9 853c abdf 68bc d163 903c
00000360: 4b31 b6bc 3713 203c 47c9 a23c 4bce 2dbd
00000370: 5388 48bc 422e 3e3c 01a1 b43c b679 9dbd
00000380: 27f3 b2bc 6920 c63d d713 c83c 0332 0ebb
00000390: 1948 81bb 62f6 10bc 96e2 643d 25cb 07bc
000003a0: e2f0 11bc 3d39 d73c a649 913b 96bb f1bc
000003b0: 0e70 603b 3bc0 1b3b d6d5 c93b 5fa1 b6bc
000003c0: b802 48bc 0ad2 9fbc e60d 8fbc 19e4 bb3b
000003d0: 1d09 10bd f914 623b ccb5 2cbc 266f feba
000003e0: 8ca4 80bb d58d 7dbb e9e9 873b 27c3 b5bb
000003f0: e6f4 8e3c 041a 483c 1535 1a3c f3cb 1cbd
-0.010742665 0.03978694 0.014496025 0.042744 -0.008961934 0.0019361908 0.052095905 -0.0020163548
0.03402627 0.018246379 -0.03924638 -0.016720051 0.0024456969 -0.042744104 -0.0044058524 -0.052690886
-0.010567797 0.014709244 -0.012017287 0.011935993 -0.04825661 0.01907268 -0.0047841556 0.022347325
0.002203753 0.026519438 0.0030214353 -0.014323587 -0.02213086 -0.0064312927 0.012664895 -0.026074212
-0.022044297 -0.014416912 -0.011655061 0.01444558 0.0041225846 -0.02520043 -0.014974808 0.014223587
-0.00862839 0.020476697 -0.0029317932 -0.02373032 -0.00081359356 -0.011412401 6.201012e-05 -0.014962997
-0.008558479 -0.04321747 0.007035927 -0.0017621778 -0.019055378 0.0021609059 0.00017481622 0.0017098924
-0.0024880928 -0.0002511233 0.0040295296 -0.0046864953 -0.006137029 -0.0049039214 0.004001261 -0.016215172
0.06206445 -0.057500634 -0.007184039 -0.012129903 -0.016619788 0.028934974 -0.18218346 0.03623027
0.025219932 0.013597914 -0.0019589257 0.072103366 -0.0020595153 0.0039035077 0.011884063 -0.035338406
0.025468223 0.08988943 0.030708663 0.013577721 0.08244335 0.0020398775 0.0045492942 -0.00451914
0.0140021555 0.0241461 -0.010370966 0.06650906 0.023464052 -0.021724354 -0.013375215 0.05998295
0.06424611 -0.0680865 -0.024427967 -0.057749063 -0.044739414 -0.029539129 -0.04964273 -0.020643367
-0.0297742 0.023013454 0.00559335 -0.005070468 -0.0523184 -0.037455037 0.04515373 0.010608583
-0.04313502 -0.025228055 0.013707652 0.019712575 0.09575178 -0.029773049 0.051424474 0.06289528
0.052772976 -0.0014899704 -0.071051665 0.031986006 0.00014569705 0.00458185 -0.056357868 0.10818783
0.07433725 -0.088840164 -0.0046647745 -0.038341112 -0.015086907 0.050505873 -0.075460106 0.005321309
-0.0136585655 -0.0050503598 0.017484425 0.0734975 -0.014543396 0.024343431 0.015672725 0.0139124375
0.03753636 0.11284703 0.019191535 0.011970495 0.088771656 -0.021376014 0.008790524 -0.013643371
0.023920594 -0.009503236 -0.019782841 0.04239832 0.010995167 -0.0068253144 -0.013307578 0.07078827
-0.0017069026 0.040152032 0.010637534 -0.01349487 0.008370722 0.005080722 0.12271656 -0.023626035
0.011892141 -0.05378372 0.000666117 0.0006484463 -0.0024137727 0.012455922 -0.0030208812 0.044822045
-0.0015123157 -0.0067594927 -0.012000608 -0.0036065294 0.0030156374 0.00060757285 -0.002855804 3.872191e-05
-0.0026029919 0.008799218 -0.0018591775 -0.00033675367 0.009635318 0.00923775 -0.0065174988 0.0014710538
-0.07757102 0.076773636 0.015432586 0.05034137 0.0112463245 -0.05441904 -0.020546993 -0.026094183
0.032757744 -0.014934461 -0.035760358 -0.08360402 0.0037564805 -0.03832037 -0.015020298 -0.024427462
-0.040321294 -0.0993687 -0.030540507 -0.0033040603 -0.1037424 0.016354425 -0.014213483 0.017625721
-0.022240302 0.009770206 0.019871367 -0.042433064 -0.0122395335 0.011607708 0.022049429 -0.0768923
-0.02184446 0.096741505 0.024423523 -0.002169729 -0.0039453623 -0.008847805 0.05588015 -0.0082881795
-0.008907529 0.02627241 0.0044338284 -0.029508393 0.0034246477 0.0023765701 0.0061595244 -0.022293745
-0.012207679 -0.019509334 -0.017462682 0.0057339785 -0.03516494 0.0034497364 -0.010541391 -0.0019411787
-0.0039258655 -0.0038689275 0.0041477573 -0.0055469456 0.017450761 0.012213234 0.00941207 -0.03828044

feature_extractor.encoder.6.bias f4 [10]
00000000: 61be febd 1e90 b73b 70de 1ebe 9b7b f73d
00000010: f324 8abc 6587 f63d 6172 013d 7384 5fbd
00000020: d659 0dbe 0207 463d
-0.12438656 0.005601897 -0.1551454 0.12084123 -0.016863322 0.12037543 0.03160322 -0.054569673
-0.13803801 0.048346527

X_min f4 [768]
00000000: 67aa 91bd ed56 a8bd 1ec0 91bd d51c 3fbd
00000010: 605e 8abd a1b2 5dbd fb3c c1bd ed46 13bc
00000020: fcdc 36bd 67a5 87bd 0614 2bbd 1415 d9bd
00000030: f18d 23bc 4b76 ffbc 6fa7 fc3c c671 d7bc
00000040: 4bae 88bd 5d97 88bd ea46 2fbd 85c8 d5bc
00000050: e41e 07bd 1183 5bbd c5b2 ddbd 1487 2fbd
00000060: fd0e 9dbd 03df e7bc 2885 70bc 4a2f 9dbd
00000070: c979 9fbd 842a 38bd af35 503c 5a94 9cbd
00000080: a54b 9ebd af93 76bc 1226 a5bd b28f b1bd
00000090: 788e 9ebd e53f a1bd 5e78 9fbd 43cb e9bc
000000a0: cdb9 9cbd 2546 fabd bacc 9abd 097f 19bc
000000b0: 69ab cebd 2a70 b6bd a188 4fbd a96b 37bd
000000c0: f67a 82bd ba4f a9bd 8360 cebd 33e5 13bd
000000d0: 1be9 d5bd c157 b4bd c14a b5bd 3bde 83bd
000000e0: 28f2 8bbd fb74 b5bc 51b6 fcbb d182 aebd
000000f0: ff5c acbd 1a6b 2cbd fc9c 89bd 419c 96bd
00000100: a75b b5bd 8748 e3bc d8a4 9bbd 2210 cabd
00000110: 5109 11bd cb54 74bd 62bf adbc 2a83 a9bd
00000120: dc34 94bd eda7 a2bd c2bc 98bd 340f 93bd
00000130: 2421 1cbd 2962 48bd 03ab 2e3c abf4 96bd
00000140: 0f35 11bd 2961 cbbc 5392 34bd a133 c1bc
00000150: 4afb 6bbd 5794 a6bd 0220 bbbd 9732 2fbd
00000160: 78e2 bebd faec 00bd a421 e1bd 9fe8 85bd
00000170: 64b1 45bd 3e8a 0abd 89af b4bd 67cb 98bb
00000180: 7aa2 aebd 1bfe 8dbd 985b 82bd 3d5a 5bbd
00000190: edb7 8abd c290 9fbd 3bed b7bd 313a 05bd
000001a0: 4e2b c4bc 22e9 23bd 4058 82bd 985c cabd
000001b0: 1e5f 99bd 3d34 3ebd 173c a3bd 4813 78bd
000001c0: 8f6c bdbd eadc f9bc c306 3dbd 4596 cabd
000001d0: 8700 cebd c759 e7bd ca0a 93bd 85b3 40bd
000001e0: 4cfe 93bd 901c cfbd 43ed 05be 0957 53bd
000001f0: 637d efbc 83eb 13bd 6092 9fbd 9995 92bd
00000200: 2670 81bd c219 d0bc 133d b7bd feb8 8dbc
00000210: ef5c 6cbc 81d5 9abd 5505 3dbd c7a7 40bd
00000220: fe0a b9bd 86ff 52bd 0614 b0bd 2df7 17bd
00000230: 0a6a aabc 4597 6bbd d12d 63bb 95a5 60bd
00000240: d691 b5bd 2af2 34bd e35b 7bbd e2a7 f0bd
00000250: ed22 34bc 3874 23bd 8151 8bbd 9795 dcbc
00000260: 4b80 24bd 289a 533c e9e2 4dbd 72fd 8bbd
00000270: efdf b8bd 04d6 27bd b193 03be 4bc4 f6bc
00000280: e708 c6bd cf96 c7bc 98b1 ab3b 20c1 72bd
00000290: 22b7 84bc cdc7 9ebd 35ca 43bd b8d5 bfbd
000002a0: c971 68bd 8a3d a6bd 1eca bbbd 144f 52bd
000002b0: ed57 11bd fc08 39bd 80a5 7ebd a577 1cbd
000002c0: 4765 28bd 5245 99bd 2656 9cbd cf09 c4bd
000002d0: ef5d 90bd 51b2 a1bd 2a7a 0fbc e568 68bd
000002e0: 1414 9cbc b8e3 17bd c81a d8bd 1666 edbc
000002f0: 68ed b7bd 902c a8bd f46a e4bc c3de 14bc
00000300: bcf0 49bd 2250 f0bc a940 6abd 9d76 bfbc
00000310: dd1d 7cbd fad2 b7bd 65c9 6dbd 0273 0cbd
00000320: a3dc a4bd d72a 83bd c0de b4bd 7726 6dbd
00000330: ecae 3cbd 1d86 aebc f620 64bd 9d2f f5bc
00000340: aa03 75bd 4832 efbc 818a c9ba 47eb 8bbd
00000350: 221c 7abc 78e1 17bd 41dc 80bd 9420 99bd
00000360: 84b1 eabc b368 b0bc 3acb 93bd bff4 1abd
00000370: e57d 59bd 76d0 da3c 6a63 62bd 2fbf 7fbd
00000380: 31b8 8bbd 560c a8bd 05be 07be bd93 b4bd
00000390: 0a0c 6ebd 78ee 77bc 6869 8cbd 74fe 8abc
000003a0: de8b 99b9 e928 a8bd a44b 4bbd e259 98bd
000003b0: ba64 bbbd ec30 86bd 6c3b c0bd 5aeb 65bd
000003c0: 33c6 9bbc 710a f6bc 4a7e 36bd 87c6 a2bc
000003d0: afbc 82bc 8195 c6bd d6dc edbc 0ec8 27bd
000003e0: 13ae 30bd cbd6 f0bc 7482 9dbd 0a0d 84bd
000003f0: 4cb1 a5bd 5aa5 efbc b243 39bc 7c7b 57bd
-0.0711258 -0.08219705 -0.071167216 -0.046658356 -0.06756282 -0.054125432 -0.09435459 -0.008989078
-0.04464434 -0.06623345 -0.041767143 -0.105997235 -0.009982572 -0.031184336 0.030841557 -0.026299369
-0.06673869 -0.06669495 -0.04279224 -0.026096592 -0.032988444 -0.05359179 -0.10825113 -0.04285343
-0.076688744 -0.028304582 -0.014680184 -0.07675035 -0.077869006 -0.04496242 0.012708112 -0.07645483
-0.07729272 -0.015049859 -0.08063902 -0.08669986 -0.077420175 -0.07873515 -0.0778663 -0.028539306
-0.07652626 -0.1222041 -0.0755858 -0.009368666 -0.10091288 -0.08908112 -0.05066741 -0.044780407
-0.06371109 -0.0826716 -0.10077002 -0.036107253 -0.10444852 -0.088058 -0.08852149 -0.064388715
-0.06833297 -0.022150507 -0.0077121635 -0.08521045 -0.08416175 -0.042094328 -0.067193955 -0.07354022
-0.08855372 -0.027744545 -0.07599801 -0.09866358 -0.035409275 -0.059651177 -0.021209422 -0.08276971
-0.072366446 -0.079421856 -0.07457878 -0.07180634 -0.038117543 -0.048921738 0.01066089 -0.073708855
-0.03545099 -0.024826603 -0.04408486 -0.023584189 -0.057612695 -0.08133762 -0.091369644 -0.042772856
-0.09320539 -0.031476 -0.109927446 -0.065385096 -0.048264876 -0.033823244 -0.08822543 -0.0046629193
-0.08527084 -0.069332324 -0.06365126 -0.053552855 -0.06773362 -0.07791282 -0.08980795 -0.0325262
-0.02394643 -0.040017255 -0.063644886 -0.09880942 -0.07488845 -0.046436537 -0.079704456 -0.060565263
-0.092492215 -0.030500848 -0.046149027 -0.09891943 -0.10058694 -0.112964205 -0.07179792 -0.047046203
-0.07226238 -0.1011287 -0.1307879 -0.051596675 -0.029234594 -0.036113273 -0.07791591 -0.0715744
-0.06320219 -0.025402907 -0.08947196 -0.017300125 -0.014426454 -0.07560254 -0.046147663 -0.047035005
-0.090353 -0.051513217 -0.08597569 -0.03710096 -0.020802516 -0.05751731 -0.003466476 -0.05484541
-0.088657066 -0.04417626 -0.061366927 -0.11750771 -0.010994655 -0.039905757 -0.06802655 -0.026926799
-0.040161412 0.012915172 -0.050265227 -0.0683545 -0.09027087 -0.040975586 -0.12849309 -0.030122897
-0.09669667 -0.024363903 0.0052396767 -0.05926621 -0.016200606 -0.07752953 -0.04780026 -0.093669355
-0.05674914 -0.081172064 -0.0916941 -0.051344946 -0.035484243 -0.045174584 -0.06216955 -0.03820004
-0.04111221 -0.07483925 -0.07633619 -0.09572183 -0.070491664 -0.07895339 -0.0087571535 -0.05674066
-0.019052543 -0.037082404 -0.10551983 -0.028979342 -0.089808285 -0.082116246 -0.02788303 -0.009086314
-0.049301848 -0.029335085 -0.05719057 -0.023371989 -0.061551917 -0.089757875 -0.058053393 -0.034289367
-0.080498956 -0.064046554 -0.08831549 -0.05789801 -0.046065256 -0.021304185 -0.055695496 -0.02992993
-0.059817947 -0.02919878 -0.001537636 -0.06831985 -0.015265496 -0.037080258 -0.0629201 -0.07476917
-0.0286491 -0.0215343 -0.07216497 -0.037831064 -0.053098578 0.02671073 -0.05527059 -0.062438186
-0.06822241 -0.08205478 -0.1325608 -0.08817241 -0.05811695 -0.015132539 -0.06856042 -0.016967036
-0.00029286643 -0.08210928 -0.049632683 -0.07439019 -0.091500714 -0.065523 -0.09386334 -0.056132652
-0.019015407 -0.030034276 -0.044554032 -0.019870056 -0.015959112 -0.09696484 -0.029035967 -0.04096227
-0.04313476 -0.029399296 -0.076908976 -0.064477995 -0.08090457 -0.02925365 -0.011307644 -0.052608

X_max f4 [768]
00000000: 73e3 7f3d 992d 893d fba1 b13d 8883 bb3d
00000010: 6bbc 4c3d a412 0f3d eb3b 0c3c ac39 be3d
00000020: f463 433d 0b88 033d 7d61 593d 2a5a 3e3c
00000030: f542 d73d 4112 973d 3ad8 fe3d e5ce 983d
00000040: 4b03 1f3d 3d19 3d3d fac7 8a3d 8e9d ce3d
00000050: a8eb ae3d fdf2 513d 2cae 893b d166 a43d
00000060: c57d 8b3c 748b d33d b965 7f3d 4f2a 8a3d
00000070: 9faa 873d fd76 903d ecf5 f13d a092 523d
00000080: 48e7 c53c 7d20 e43d 25bb 323c c2b5 3e3d
00000090: ae74 cc3c 39b9 063d 45f5 623d 2f70 833d
000000a0: b898 623d f91e 7ebc dba5 fb3c 9605 c73d
000000b0: 1b79 063d dca9 fc3c 4c32 ac3d a59c d03d
000000c0: 8584 c63c f2ce 693c ca67 b93b 3411 733d
000000d0: 7351 123c 89b0 463d 2776 d73c 84a6 703d
000000e0: dd23 3d3d c724 b73d ba52 a23d e27b 2a3d
000000f0: cb68 4a3c 9c5f af3d 7b9d 0e3d 550f 453d
00000100: 6ec6 14b8 e296 a23d 6dff 4f3d d833 943c
00000110: c15b b23d 98aa 2b3d 923a c53d 9b51 153d
00000120: 057b de3c 2b41 1c3d 950d 983c 9dcc 073d
00000130: 9220 753d 1d24 7d3d 75d6 0a3e 9717 3d3d
00000140: 5aad 953d f109 7f3d 3234 603d a17e a23d
00000150: bfe4 213d 89ad 663c f683 613c d678 803d
00000160: 40ff 563d 47ef b03d 2646 983c dc6b 123d
00000170: 395e 3b3d 90f9 9d3d c562 aa3c 3b26 b43d
00000180: 6c75 c73c cd99 6f3d e767 8b3d 774a 943d
00000190: e48c 2e3d db0e 593d 70af 923d f0be 8d3d
000001a0: 33df b83d a9a0 6f3d d1e5 4f3d bae1 ed3c
000001b0: 765e 503d 269d 983d d2cb 1c3d 8a61 9b3d
000001c0: 1ab3 c73c ec06 a83d a570 8d3d 5c6c 863c
000001d0: 755e 203c 322c 973c f1f3 273d 41fc 123d
000001e0: 4906 223d 5389 f83c c8c1 07bc 6068 853d
000001f0: 5729 be3d 3057 b43d ae52 343d 299f 833d
00000200: 390b 093d 9333 cd3d 3eee 0f3d 1631 a13d
00000210: aa59 a43d d2bd 003d f954 2a3d 42d3 3b3d
00000220: 35c3 be3c 3d06 953d ac1e bbb9 0fe9 813d
00000230: ce9c 8b3d dbb0 5d3d d5f4 d03d 7e78 fc3c
00000240: 47d0 633c ea9f 853d 8970 5c3d dac4 073c
00000250: dead c03d f5fa 6c3d 1dc1 143d d719 b43d
00000260: 381d 8f3d bf1e d93d cfbd 563d 2136 8b3d
00000270: bfe1 e83c b406 4c3d c954 ea3a 0a88 ae3d
00000280: 0e17 aa3b 0c07 923d 2a8e c13d 9e88 7e3d
00000290: aed5 f33d 1d9b 843d 3a04 483d 8233 223d
000002a0: d317 a13d 8334 2e3d bc2a 2f3d 145e 353d
000002b0: e5c8 df3d e374 973d a86f d03c e117 443d
000002c0: 7bea e33d 0685 ed3c 5a55 3e3d e614 953c
000002d0: 7158 3e3d d0c8 283d 806d a83d 9d97 243d
000002e0: 6a8e ac3d dee9 8b3d 9e13 c63b 91da b13d
000002f0: f6f6 8a3d 4410 c33c 927f 7e3d ce8a a23d
00000300: fc1a 773d e410 873d 7df1 873d 90e0 b53d
00000310: 4313 f63c e862 c3b9 1fac 4a3d 9f29 6d3d
00000320: 68a3 a23b 2772 6e3d 05b8 b83c 05e8 303d
00000330: f82d 803d 180d ab3d c175 6a3d 3b6e 8c3d
00000340: c2e6 be3c 005c 663d 2128 b13d 1e0a 133d
00000350: a22b dc3d d0dc 673d d4f2 343d 5dd3 253d
00000360: 4229 a93d c474 bf3d d3d5 c83c 76a3 813d
00000370: f8e2 653d 1563 fa3d 806f 263d 8353 0a3d
00000380: 5628 5c3c 8187 133c 19c8 3c3b eea2 253d
00000390: f419 953d a7df b03d 782c 913d da2a a13d
000003a0: 5df4 b13d bf11 a83b adec a33d b837 9c3c
000003b0: 6579 883c 41d8 1c3d 0702 ab3c 42d2 4f3d
000003c0: 3b4a e63d e164 993d 7185 853d ff61 8f3d
000003d0: 5a46 c63d 0cd0 3d3d d4b2 843d 4234 983d
000003e0: 5266 e73c cfe5 ab3d d4e0 6a3d cb83 623d
000003f0: 2cd1 363d 6375 b83d a032 cc3d 7647 903c
0.06247277 0.0669815 0.086734734 0.09155947 0.049984377 0.034929886 0.008559207 0.09288344
0.047702745 0.032112163 0.053071488 0.0116181765 0.10510818 0.073765285 0.12443586 0.07461337
0.0388215 0.046166647 0.06776424 0.10088645 0.085410416 0.051257122 0.004201671 0.08027423
0.017027745 0.10329333 0.06235287 0.06746351 0.0662434 0.07053945 0.11814484 0.051409364
0.024158135 0.11139009 0.010908877 0.046560057 0.024957981 0.032891486 0.05540969 0.06417882
0.055321425 -0.015510314 0.030718734 0.09717862 0.03283034 0.030842714 0.08408031 0.101861276
0.024233112 0.014270531 0.0056581246 0.059342578 0.008930552 0.0485082 0.026301457 0.05875255
0.04617678 0.089425616 0.07925935 0.04162205 0.012354086 0.08563158 0.034818154 0.048110325
-3.547075e-05 0.07938935 0.050780702 0.018091127 0.08708907 0.041910738 0.09630312 0.03645478
0.02715827 0.038148087 0.018561164 0.03315412 0.059845515 0.06180202 0.13558371 0.046165075
0.07308455 0.06226534 0.054737277 0.07934309 0.03952479 0.01407946 0.013764372 0.062730476
0.05248952 0.086393885 0.018588137 0.035747394 0.045744155 0.07713616 0.02079905 0.087963544
0.024347983 0.058496285 0.06806927 0.072407655 0.042614833 0.052992683 0.07162368 0.06921184
0.09026947 0.058502827 0.05075628 0.029038299 0.050871335 0.07451849 0.038280316 0.075869635
0.024377394 0.08204445 0.06906251 0.016409092 0.009788145 0.018453691 0.041004125 0.0358851
0.039556775 0.030338919 -0.008285947 0.065140486 0.09285229 0.08805692 0.044024162 0.06426842
0.03345797 0.100196026 0.035139315 0.078706905 0.080249146 0.031431027 0.041584942 0.045855768
0.023286441 0.072765805 -0.00035690272 0.063432805 0.068170175 0.05412374 0.10202948 0.030819174
0.013904638 0.06524642 0.05381826 0.008286679 0.094081625 0.05785652 0.03631698 0.08793991
0.06987995 0.106015675 0.05242711 0.06797434 0.028427957 0.04981108 0.0017878051 0.08522041
0.0051907366 0.0713025 0.09450944 0.062142007 0.119059905 0.06474898 0.048832156 0.039599903
0.07865872 0.042530548 0.042765364 0.044279173 0.109269895 0.07395341 0.025443867 0.047874335
0.11128708 0.028994095 0.046468116 0.018198442 0.046471063 0.041207135 0.082240105 0.040183652
0.08425601 0.06831716 0.006044819 0.08684266 0.06785385 0.023811467 0.06213338 0.07936631
0.06032847 0.065950185 0.06637857 0.088807225 0.030038482 -0.0003726699 0.049480554 0.05790102
0.004963327 0.058214333 0.022548685 0.04319002 0.06258768 0.08352107 0.057241205 0.06856962
0.023303393 0.05624008 0.08650232 0.03589832 0.1075051 0.056607068 0.04417689 0.040484775
0.082598224 0.09348443 0.024516022 0.06330006 0.056124657 0.1222593 0.04063368 0.03377105
0.013437351 0.009004475 0.002880579 0.040438585 0.07280341 0.08636408 0.0708856 0.078695014
0.08689187 0.0051290686 0.08004127 0.019069538 0.016659448 0.038292173 0.02087499 0.050737627
0.11244627 0.07489944 0.065195926 0.07001113 0.09681387 0.046340987 0.06479421 0.074318424
0.028247032 0.08393442 0.05734332 0.05530147 0.044633076 0.09006765 0.099705935 0.0176122
