hbbops_improved_5/results/25x25/gp_model_final.pt (torch, 701565 bytes, 29 tensors)

deep_kernel.base_kernel.raw_lengthscale f4 [1, 10]
-0.08071805 -0.08368825 -0.07327884 -0.08748646 -0.08297434 -0.08937331 -0.08765735 -0.08467169
-0.07628145 -0.075409144
00000000: 814f a5bd bf64 abbd 3713 96bd 1a2c b3bd
00000010: 73ee a9bd 5b09 b7bd b285 b3bd 5a68 adbd
00000020: 7339 9cbd 1c70 9abd

fidelity_kernel.covar_factor f4 [15, 3]
1.2859834 0.90479785 -0.04164088 0.21495745 0.610248 -0.780327 1.1001587 0.84034663
-2.3112853 -0.70792484 0.035133954 -1.694134 -1.4919825 -2.4683788 0.1619461 1.5445621
1.4762702 -0.0860299 0.28229937 -0.25295538 0.15815692 2.0440593 0.41150331 1.6266739
0.46670425 1.1483757 -0.1513049 -0.9479502 -0.36962318 -0.33084103 -1.379812 0.43015215
-1.5527328 0.7234155 0.3272933 -0.30249652 -1.8175483 0.9638411 -1.4264117 -0.25254577
1.0053823 1.1039922 -0.2892016 0.47748756 -0.11780705
00000000: 1b9b a43f d5a0 673f a18f 2abd ce1d 5c3e
00000010: 3739 1c3f 83c3 47bf 00d2 8c3f f520 573f
00000020: 19ec 13c0 903a 35bf 9fe8 0f3d 62d9 d8bf
00000030: 48f9 bebf ebf9 1dc0 33d5 253e 36b4 c53f
00000040: 6cf6 bc3f 7230 b0bd 8b89 903e 5e83 81be
00000050: e3f3 213e ded1 0240 90b0 d23e da36 d03f
00000060: dcf3 ee3e fafd 923f acef 1abe ddac 72bf
00000070: 403f bdbe ff63 a9be ae9d b0bf e73c dc3e
00000080: f3bf c6bf c231 393f fd92 a73e d3e0 9abe
00000090: 6ca5 e8bf 4abe 763f a994 b6bf ae4d 81be
000000a0: 5eb0 803f 9e4f 8d3f 3b12 94be 4079 f43e
000000b0: d344 f1bd

fidelity_kernel.raw_var f4 [15]
0.8362073 0.35969108 -0.25570408 -0.74518734 0.042338476 1.4642882 1.8314124 -0.82495344
1.1303701 -0.9883516 0.64905924 0.9095541 -1.092345 -0.835387 -0.4833748
00000000: ae11 563f 6e29 b83e a5eb 82be 99c4 3ebf
00000010: 1c6b 2d3d cc6d bb3f b96b ea3f 2630 53bf
00000020: f8af 903f 9c04 7dbf bf28 263f 8ad8 683f
00000030: f6d1 8bbf ecdb 55bf e77c f7be

feature_extractor.instruction_encoder.0.weight f4 [64, 768]
0.017546307 0.025417702 0.029224452 0.02914802 -0.00871194 0.0047710417 0.030791095 -0.023129052
-0.032388374 0.0030934878 -0.028608538 0.0097642895 -0.012613772 -0.025696158 0.008059002 -0.020462345
-0.027690602 -0.02607429 0.009331178 -0.015152566 0.0018196191 0.018525135 -0.00021752222 -0.018233337
0.006934607 -0.025670823 -0.012986962 0.016157521 0.025781903 0.021512171 -0.021679029 0.028164906
0.030283412 0.03041238 0.0016129033 0.025389167 0.0055213524 0.017390126 0.022461286 0.0155658955
0.02782555 -0.012217439 -0.01060186 -0.009698368 0.007419691 -0.019618833 -0.014739479 -0.014252445
-0.032539528 -0.03215729 0.029379724 -0.005820888 -0.0015928873 0.034735575 -0.03432117 -0.0057863686
0.0026497834 0.024292272 0.018065862 0.0065862685 -0.027648674 0.02228444 -0.024668243 0.024471646
-0.035334438 0.032100253 -0.010324938 0.015394845 -0.004232169 0.00034932612 0.019851586 -0.0031272636
0.025377966 0.027461078 0.032821584 0.021110246 -0.016952083 -0.019485772 -0.009415426 -0.008526404
0.023295563 0.017352324 -0.0103931995 -0.0075537357 -0.010403508 -0.029882532 0.02069934 -0.023068344
-0.023012642 0.01394139 -0.035832148 -0.014898172 -0.006365058 -0.020777924 0.01526457 -0.025640417
0.021232985 0.017893577 -0.0076176357 -0.02939789 0.023148645 -0.0023864761 0.0005239827 0.033900257
0.03026686 0.030353906 -0.034955654 -0.031389132 -0.011092333 -0.017013673 -0.02109309 0.012726244
-0.024212107 -0.006462639 -0.03546135 -0.011983193 -0.0124643175 0.0014644839 0.020317735 -0.026740069
-0.021859273 -0.03110533 0.016048301 0.018514698 0.02843438 -0.028951526 0.026978908 -0.0021362894
0.029239213 0.033481687 -0.019719537 -0.0014279855 0.011989238 -0.02992664 0.02233409 -0.024083178
-0.018486427 0.02267651 -0.018790191 -0.022002446 0.02278506 0.013937592 -0.0296125 -0.0047195973
0.019971957 0.01250189 0.002011561 -0.0071111824 -0.013615484 -0.025330296 -0.022186343 -0.025975754
0.034962106 -0.0066350326 0.02223029 0.015902938 -0.0005965761 -0.030518364 0.010132982 0.00839934
0.007572082 -0.0075272713 0.009199115 0.017127708 0.016605016 -0.016706174 0.025400259 0.021696895
-0.033121936 -0.035867225 0.032063514 -0.003546221 0.014403969 -0.031277217 -0.010682586 -0.02110105
0.03146477 0.03432711 0.0066103414 -0.034379385 0.01844537 -0.033059083 -0.0010559942 -0.010803952
0.035155293 0.009446735 0.018869372 0.0009602552 0.023518274 -0.016687548 -0.020585932 0.01401461
-0.025515286 -0.025091572 0.015983507 -0.009945686 -0.024002321 0.0283448 -0.021423977 0.025098769
-0.013141348 -0.009754805 0.003097025 -0.020671003 -0.029448092 -0.02893167 -0.023231223 0.009306429
0.007995453 0.022099929 0.01148343 -0.03316773 0.010046595 0.00521955 -0.02446457 -0.024236467
-0.0010746449 0.026084593 -0.010933584 0.003347603 0.027116828 -0.00088358735 -0.03534512 0.023330318
0.028029947 0.028275857 -0.01050157 -0.0054907827 -0.025609082 0.008541731 0.020067712 -0.029500969
-0.027159508 -0.027942276 0.0052820533 -0.01352832 -0.023741303 0.035055928 0.012101283 -0.0010086807
-0.003489595 0.021526916 0.018163877 -0.020396989 -0.007847742 0.010202614 -0.0059091393 0.017282816
-0.0008673797 0.013478254 0.015192521 0.008436345 -0.019711863 -0.0053424486 0.00078112475 -0.000943558
00000000: 46bd 8f3c c938 d03c 1e68 ef3c d4c7 ee3c
00000010: 86bc 0ebc 6656 9c3b 9b3d fc3c 2379 bdbc
00000020: aca9 04bd 1dbc 4a3b 745c eabc 66fa 1f3c
00000030: ffa9 4ebc c080 d2bc e809 043c a6a0 a7bc
00000040: 67d7 e2bc c099 d5bc cce1 183c 7842 78bc
00000050: 4980 ee3a 06c2 973c ad16 64b9 145e 95bc
00000060: b33b e33b 9e4b d2bc 44c7 54bc c75c 843c
00000070: 9234 d33c 4b3a b03c 3898 b1bc 17ba e63c
00000080: eb14 f83c 6223 f93c 0e68 d33a f1fc cf3c
00000090: 76ec b43b bd75 8e3c bb00 b83c 1908 7f3c
000000a0: 68f2 e33c a72b 48bc 6cb3 2dbc e7e5 1ebc
000000b0: e120 f33b adb7 a0bc db7d 71bc 1683 69bc
000000c0: 2b48 05bd 5db7 03bd bfad f03c 26bd bebb
000000d0: 6ec8 d0ba e446 0e3d 5b94 0cbd 949b bdbb
000000e0: fda7 2d3b 9600 c73c dcfe 933c a0d1 d73b
000000f0: 797f e2bc dc8d b63c 0e15 cabc c378 c83c
00000100: d8ba 10bd 8e7b 033d ee29 29bc a93a 7c3c
00000110: 02ae 8abb c225 b739 cb9f a23c c7f2 4cbb
00000120: 74e5 cf3c 0ef6 e03c ed6f 063d 65ef ac3c
00000130: 18df 8abc a0a0 9fbc 2943 1abc 55b2 0bbc
00000140: 56d6 be3c 7626 8e3c 3d48 2abc 5485 f7bb
00000150: 7a73 2abc 36cc f4bc aa91 a93c d3f9 bcbc
00000160: 0285 bcbc 6e6a 643c bbc4 12bd 7617 74bc
00000170: fa91 d0bb 7736 aabc 3f18 7a3c da0b d2bc
00000180: ccf0 ad3c 8d95 923c 5c9d f9bb d8d3 f0bc
00000190: 3aa2 bd3c 6d66 1cbb e25b 093a ffda 0a3d
000001a0: 35f2 f73c c1a8 f83c a92d 0fbd e491 00bd
000001b0: 9ebc 35bc 4260 8bbc 6acb acbc bc81 503c
000001c0: 7858 c6bc 8cc4 d3bb ec3f 11bd 2855 44bc
000001d0: 2337 4cbc edf3 bf3a 6171 a63c fd0d dbbc
000001e0: 3812 b3bc 9bd0 febc ba77 833c 23ac 973c
000001f0: 38ef e83c c02b edbc df02 dd3c fd00 0cbb
00000200: 1387 ef3c 1824 093d de8a a1bc 3e2b bbba
00000210: 826e 443c b728 f5bc fbf5 b63c 164a c5bc
00000220: d970 97bc 17c4 b93c e3ed 99bc 793e b4bc
00000230: bca7 ba3c 7f5a 643c ea95 f2bc daa6 9abb
00000240: 3b9c a33c bad4 4c3c 65d4 033b ec04 e9bb
00000250: 7b13 5fbc 7b81 cfbc 22c0 b5bc 1bcb d4bc
00000260: 6d34 0f3d b06a d9bb 4c1c b63c e146 823c
00000270: 8b63 1cba a601 fabc cf04 263c 639d 093c
00000280: 3a1f f83b 54a7 f6bb e3b7 163c 684f 8c3c
00000290: 3e07 883c 63db 88bc 3414 d03c b0bd b13c
000002a0: deaa 07bd 83e9 12bd 0855 033d b767 68bb
000002b0: a0fe 6b3c 8a1c 00bd 0306 2fbc 1cdc acbc
000002c0: 34e1 003d 959a 0c3d 909b d83b 66d1 0cbd
000002d0: bf1a 973c f668 07bd 4969 8aba 0f03 31bc
000002e0: fffe 0f3d 7ac6 1a3c f193 9a3c a3b9 7b3a
000002f0: 65a9 c03c 53b4 88bc d4a3 a8bc 899d 653c
00000300: 6f05 d1bc d78c cdbc d8ef 823c 3bf3 22bc
00000310: 84a0 c4bc 5b33 e83c 5681 afbc ef9b cd3c
00000320: cf4e 57bc 9ed2 1fbc 75f7 4a3b 3c56 a9bc
00000330: 203d f1bc 1c02 edbc 684f bebc fe79 183c
00000340: 5cff 023c e90a b53c ff24 3c3c e3da 07bd
00000350: 799a 243c c208 ab3b ec69 c8bc 8e8b c6bc
00000360: 19db 8cba 5baf d53c c622 33bc 7563 5b3b
00000370: 1c24 de3c 8ba0 67ba 0bc6 10bd 391f bf3c
00000380: 0f9f e53c c5a2 e73c c70e 2cbc 06ec b3bb
00000390: 23ca d1bc 9ef2 0b3c 0b65 a43c 04ac f1bc
000003a0: 9e7d debc 33e7 e4bc 1315 ad3b e3a5 5dbc
000003b0: 1f7d c2bc ce96 0f3d 7644 463c b535 84ba
000003c0: b0b1 64bb 3759 b03c 69cc 943c 9617 a7bc
000003d0: d193 00bc dd28 273c 74a1 c1bb b194 8d3c
000003e0: de60 63ba e5d3 5c3c 0dea 783c 9838 0a3c
000003f0: c67a a1bc b50f afbb 65c4 4c3a 1b59 77ba

feature_extractor.instruction_encoder.0.bias f4 [64]
0.035152752 -0.07147613 -0.011754653 -0.0822391 0.053115614 -0.06647816 -0.05483126 0.032380134
-0.026624609 -0.057412528 -0.053260677 -0.06340318 0.022638222 0.072173715 -0.07639634 -0.037941594
-0.06901605 0.0014543899 0.020361457 -0.06255814 0.033654865 -0.079512514 0.0271342 -0.08406303
-0.045304816 -0.055730067 0.09133714 -0.03172468 -0.049869694 0.021528864 0.035822522 -0.001321458
0.033356074 0.08543707 -0.03599005 -0.059576243 -0.015808519 0.04536279 -0.030284083 0.07378756
0.044768143 0.042207472 0.072681636 0.030108057 -0.081021674 -0.07443396 0.034340784 0.049845178
0.073922485 0.08980057 -0.03593911 -0.047483027 0.022419581 0.069562614 0.06051353 -0.010331288
-0.0877346 -0.060892873 0.10400336 0.054590225 -0.009622013 0.059020005 0.025998805 0.082725346
00000000: 55fc 0f3d 1462 92bd 9796 40bc f96c a8bd
00000010: c28f 593d b425 88bd be96 60bd 08a1 043d
00000020: da1b dabc 6629 6bbd de27 5abd 87d9 81bd
00000030: cb73 b93c d0cf 933d af75 9cbd a568 1bbd
00000040: 4958 8dbd 3aa1 be3a 12cd a63c 7b1e 80bd
00000050: afd9 093d 75d7 a2bd 8b48 de3c 3d29 acbd
00000060: 8b91 39bd 3645 64bd f70e bb3d bdf1 01bd
00000070: 2a44 4cbd 4d5d b03c a3ba 123d c634 adba
00000080: 61a0 083d a1f9 ae3d 4d6a 13bd 3806 74bd
00000090: de80 81bc 55ce 393d 5316 f8bc ef1d 973d
000000a0: cd5e 373d bee1 2c3d 1cda 943d 2ca5 f63c
000000b0: b1ee a5bd d570 98bd eca8 0c3d 752a 4c3d
000000c0: ac64 973d 5ce9 b73d e334 13bd 907d 42bd
000000d0: 45a9 b73c d876 8e3d 09dd 773d 9044 29bc
000000e0: 33ae b3bd ce6a 79bd b7ff d43d 009a 5f3d
000000f0: a6a5 1dbc f6be 713d 72fb d43c e86b a93d

feature_extractor.instruction_encoder.2.weight f4 [32, 64]
-0.0173651 -0.14658977 0.054442007 0.12473239 0.15671802 -0.017903443 -0.0412197 -0.03879714
0.16825148 0.0017120977 -0.10398903 -0.17087008 -0.06877446 0.004906129 0.05015754 -0.05665247
0.15269978 -0.008014067 0.08639815 0.12486744 -0.06982195 -0.09786724 -0.07861426 -0.17402053
-0.08151989 0.06310528 -0.083478235 0.14740443 -0.060091175 -0.026336638 0.02143804 -0.011733504
-0.050569363 0.068411425 -0.028816491 0.0072403345 -0.081754096 -0.038559236 0.105684966 -0.11525886
0.09690529 -0.019056033 -0.14222503 -0.045582734 0.028723298 -0.069831096 -0.05872802 0.07687811
0.05428786 0.01250092 0.026314396 -0.1466002 0.056144755 -0.12713453 0.06533917 0.090072356
-0.1574976 -0.04436383 -0.117353074 -0.14976442 -0.05442066 -0.032070678 0.026702393 -0.046099067
-0.118685246 -0.052381 0.00032189352 -0.07782207 0.040382378 -0.026727472 0.12104771 0.041458912
0.086487986 0.13964732 -0.04673616 0.12597579 0.12885049 0.013369343 -0.056381773 -0.053338554
-0.02258318 -0.11479829 0.12485166 0.048828594 -0.057860386 -0.026021613 0.08143028 -0.033437926
-0.03165353 0.091911934 0.109462686 0.059715007 -0.049280822 0.12368203 0.037569895 0.13637175
0.079214245 0.13482362 0.0015579024 -0.018963046 0.12352011 0.2001028 -0.12142022 0.08574906
-0.023168258 0.1938792 -0.054969184 0.082647145 -0.018602489 0.17554325 0.17829119 0.09673885
0.14619066 0.17690709 0.09950715 -0.038290232 0.05391621 0.0010583897 0.10440991 -0.0023388334
-0.021689711 0.13729654 -0.074548125 0.17488624 -0.055416595 0.17495367 0.10317463 0.14699006
0.10320422 0.10742072 0.113042854 0.029700184 0.10715734 0.10827503 -0.040998865 0.07675107
-0.02304237 0.13614368 0.059188098 -0.119076714 0.008960655 -0.14017972 0.06988581 0.03475189
0.05733979 0.08070004 0.099855974 -0.03468449 0.021912808 0.024405887 -0.13106233 -0.036512777
-0.11096421 -0.052286696 0.070467986 0.0036066908 -0.027369848 0.05408121 0.01024601 0.073886216
0.029603897 0.030123807 0.03368259 0.09842978 -0.117888555 -0.06452732 -0.056077085 -0.10394383
-0.09345393 -0.10656752 -0.050182916 -0.092421986 0.049069535 0.14095809 -0.10721722 -0.082526974
-0.13532273 -0.08864726 -0.040783864 -0.024279825 0.011295523 -0.051511895 -0.08034907 0.045642216
0.024843484 0.028765589 0.033356164 0.09274855 0.03303647 -0.09072304 0.124372914 0.004527871
0.06104334 0.026489101 0.09463268 -0.1686814 -0.05111572 0.042720076 -0.051219545 -0.021286402
-0.043033242 0.0475361 -0.04499453 0.017381262 -0.0068424833 -0.011576961 -0.06284958 -0.16639785
-0.17270736 0.082607955 -0.009545706 -0.16290489 -0.012059384 -0.12923148 -0.010904915 -0.055458054
-0.08151443 0.05227649 -0.13199565 0.010055403 0.14421497 -0.02630686 0.009681172 0.16472876
0.051238228 -0.11067099 0.0479649 -0.11336006 0.052954797 -0.009945225 -0.09150609 -0.0872977
-0.0866876 -0.15302691 -0.14498074 -0.022603702 -0.16740571 -0.02460118 0.039824016 0.05522534
-0.077200316 -0.027414476 0.03884923 -0.016285617 0.02399298 -0.018824024 -0.11702714 -0.09442735
-0.013322611 -0.13190994 0.051309664 -0.092102386 0.12175509 0.0199175 -0.0738448 0.044839475
00000000: 4141 8ebc a11b 16be 95fe 5e3d b273 ff3d
00000010: b07a 203e 3eaa 92bc fdd5 28bd c0e9 1ebd
00000020: 1e4a 2c3e 7768 e03a 33f8 d4bd 91f8 2ebe
00000030: a0d9 8cbd 98c3 a03b fe71 4d3d 6c0c 68bd
00000040: 555d 1c3e 6f4d 03bc 83f1 b03d 80ba ff3d
00000050: cffe 8ebd 9f6e c8bd 8300 a1bd 7032 32be
00000060: e6f3 a6bd 573d 813d a3f6 aabd 30f1 163e
00000070: 2a22 76bd efbf d7bc d49e af3c e23d 40bc
00000080: d221 4fbd 4a1b 8c3d 9010 ecbc 5440 ed3b
00000090: b16e a7bd 4af0 1dbd 5c71 d83d d60c ecbd
000000a0: 4876 c63d 661b 9cbc 70a3 11be f6b4 3abd
000000b0: 1f4d eb3c 9b03 8fbd cb8c 70bd 4572 9d3d
000000c0: f25c 5e3d a9d0 4c3c 4a91 d73c 5d1e 16be
000000d0: 0bf8 653d 8e2f 02be 8bd0 853d db77 b83d
000000e0: 0d47 21be d9b6 35bd cf56 f0bd d85b 19be
000000f0: 33e8 5ebd 8b5c 03bd fabe da3c 60d2 3cbd
00000100: 4011 f3bd 768d 56bd d1c3 a839 2d61 9fbd
00000110: fe67 253d 92f3 dabc dde7 f73d d2d0 293d
00000120: 9d20 b13d b5ff 0e3e 6a6e 3fbd ccff 003e
00000130: 62f1 033e 170b 5b3c 93f0 66bd 8779 5abd
00000140: 5c00 b9bc 5e1b ebbd 3ab2 ff3d 7e00 483d
00000150: 03ff 6cbd 472b d5bc ebc4 a63d 35f6 08bd
00000160: 22a7 01bd 533c bc3d f92d e03d b997 743d
00000170: b0da 49bd 014d fd3d e4e2 193d 09a5 0b3e
00000180: 143b a23d 340f 0a3e 8832 cc3a 6458 9bbc
00000190: 1df8 fc3d c0e7 4c3e 2aab f8bd 349d af3d
000001a0: 5ccb bdbc 4588 463e 5e27 61bd e842 a93d
000001b0: 3f64 98bc 9cc1 333e f791 363e 051f c63d
000001c0: 01b3 153e 2227 353e 68ca cb3d 38d6 1cbd
000001d0: 3ed7 5c3d aab9 8a3a ddd4 d53d 1d47 19bb
000001e0: 9fae b1bc 7797 0c3e b0ac 98bd 6115 333e
000001f0: 83fc 62bd 0e27 333e 384d d33d 9084 163e
00000200: bc5c d33d 65ff db3d 0383 e73d cd4d f33c
00000210: 4f75 db3d 4dbf dd3d 6dee 27bd aa2f 9d3d
00000220: 5ac3 bcbc 4069 0b3e 386f 723d 7ede f3bd
00000230: b6cf 123c 468b 0fbe 4b20 8f3d ff57 0e3d
00000240: 21dd 6a3d 1046 a53d 4a81 cc3d 5311 0ebd
00000250: 7d82 b33c dbee c73c 3435 06be 6c8e 15bd
00000260: 3441 e3bd 932a 56bd 8551 903d 3b5e 6c3b
00000270: bb36 e0bc 4284 5d3d e1de 273c a851 973d
00000280: df83 f23c 34c6 f63c c1f6 093d 8d95 c93d
00000290: 8e6f f1bd e626 84bd 16b1 65bd 81e0 d4bd
000002a0: c664 bfbd 1240 dabd 9a8c 4dbd bd47 bdbd
000002b0: 23fd 483d 5157 103e b494 dbbd e703 a9bd
000002c0: 0b92 0abe b28c b5bd fb0c 27bd 7ce6 c6bc
000002d0: db10 393c 23fe 52bd 0e8e a4bd 55f3 3a3d
000002e0: 9084 cb3c d0a5 eb3c 79a0 083d f4f2 bd3d
000002f0: 4051 073d 00cd b9bd 3ab7 fe3d 895e 943b
00000300: 9508 7a3d acff d83c c7ce c13d d1ba 2cbe
00000310: b85e 51bd 3ffb 2e3d 96cb 51bd d260 aebc
00000320: a043 30bd 37b5 423d 2f4c 38bd 2663 8e3c
00000330: e936 e0bb 4bad 3dbc 48b7 80bd 3364 2abe
00000340: 33da 30be 5c2e a93d 9865 1cbc 8ad0 26be
00000350: b994 45bc 4255 04be 87aa 32bc fc27 63bd
00000360: 0af1 a6bd df1f 563d de29 07be 6bbf 243c
00000370: 17ad 133e 7c81 d7bc c79d 1e3c a8ae 283e
00000380: 2ddf 513d 79a7 e2bd d876 443d 5229 e8bd
00000390: 21e7 583d 4cf1 22bc 8b67 bbbd 23c9 b2bd
000003a0: 4589 b1bd 16b3 1cbe d575 14be 662b b9bc
000003b0: 676c 2bbe 6a88 c9bc 821e 233d f733 623d
000003c0: 331b 9ebd 5394 e0bc 5f20 1f3d 6a69 85bc
000003d0: ed8c c43c d734 9abc edab efbd 2063 c1bd
000003e0: 1547 5abc 6613 07be 152a 523d 2da0 bcbd
000003f0: bc5a f93d 062a a33c f13b 97bd 99a9 373d

feature_extractor.instruction_encoder.2.bias f4 [32]
0.023907714 -0.027455172 0.030570455 0.049052525 -0.09847958 -0.071367115 -0.024433196 0.10709755
-0.0014922844 -0.057665557 0.075779475 -0.14311747 -0.07000751 0.021064335 -0.009472436 -0.012364498
-0.043745555 -0.07313963 -0.035896715 0.05556258 -0.037610453 -0.11125733 0.04431918 0.0512275
-0.11150669 0.026665123 0.047442816 0.01972666 0.0024902083 0.14940627 0.0054530934 -0.0521436
00000000: 1cda c33c abe9 e0bc e46e fa3c 4deb 483d
00000010: a9af c9bd ec28 92bd 2028 c8bc f655 db3d
00000020: c198 c3ba b832 6cbd 4532 9b3d 638d 12be
00000030: 1960 8fbd 1d8f ac3c 4732 1bbc 7794 4abc
00000040: 8a2e 33bd 3bca 95bd 6f08 13bd 9695 633d
00000050: 6b0d 1abd e2da e3bd 0788 353d edd3 513d
00000060: 9f5d e4bd d170 da3c 6653 423d ce99 a13c
00000070: c332 233b f5fd 183e ddaf b23b 8794 55bd

feature_extractor.exemplar_encoder.0.weight f4 [64, 768]
-0.019799087 0.042760927 0.07181283 0.036358364 0.101596504 0.056350365 -0.050487887 -0.08457508
0.07308661 0.03203928 0.018778943 -0.03276471 0.021519061 0.004085123 -0.01860882 -0.041906543
0.07724214 0.040593706 -0.092805244 -0.036318745 0.10329637 0.072432935 0.09341047 0.050114952
0.033099916 0.08403296 0.05229335 0.028459283 0.032638196 0.0165707 0.055622302 -0.034993898
0.041035376 -0.06374483 0.0459771 0.037323035 0.04038015 0.066743836 0.08674671 0.069390334
0.0753827 0.040177133 -0.07897636 0.07793575 -0.049303237 0.08819116 0.084900185 0.049265828
0.074889414 0.08075707 0.04525367 0.03240687 0.03298582 0.04367688 0.06795798 -0.092765704
0.026239095 0.04319412 0.060589436 -0.06325454 -0.059335276 0.030801162 0.09419535 0.04828147
0.07850076 -0.0049934355 -0.10540765 -0.08902454 0.066290736 0.03386696 0.06483924 -0.043115582
-0.025192525 -0.0803005 0.060853705 0.06828722 0.08672667 0.06463224 0.060727295 0.06453815
0.067809545 -0.093890205 0.10394395 0.039977975 -0.0894042 0.074751966 0.04570289 0.04755781
-0.063440606 0.042229813 0.05626126 0.05429729 0.04137317 0.0844605 -0.012271647 0.048560917
0.032446064 0.05089794 -0.020007452 0.052244373 -0.07985329 0.016780695 -0.08117566 0.022783052
0.078392856 0.07468833 0.056485478 0.040940292 -0.09530888 0.074734576 -0.08750307 0.0870873
0.04696679 -0.0007907889 0.062007874 -0.06222451 0.082126774 0.07856338 0.06030126 0.07774971
0.05284706 0.053583756 0.07184712 -0.0655491 0.060602386 -0.09254068 0.028640036 0.026587179
-0.0453009 0.07200309 0.07513119 0.057779066 0.05906555 0.08230972 0.104333244 -0.076412946
0.03714273 0.074189186 0.03718244 0.080230206 0.077376224 0.093643256 0.020532772 0.05117389
-0.007599498 0.08605881 0.015906721 0.08300296 0.06416929 -0.03652754 0.029890716 0.02718346
0.053932775 0.07931997 0.05275102 0.043541368 -0.0711861 0.07755343 -0.04066704 -0.045693606
0.064008966 0.07229024 0.082901224 0.060139988 0.05044403 0.027412096 0.08482965 0.08728426
0.035453554 0.099324286 0.019071788 0.03421925 0.018943988 0.056653142 0.0032007731 0.027857352
0.055782527 0.05612975 0.03555977 -0.0043286365 0.04093258 0.053017974 0.061245143 0.06920973
0.1024776 0.048581254 -0.07115623 -0.046282317 0.08530218 0.03726324 0.02907165 -0.0019745303
0.08529467 0.0698019 0.017944725 0.053120937 0.019866398 0.027454233 0.0985689 -0.08874504
0.013068663 -0.060161073 0.053302314 0.056173604 0.011260891 -0.06965182 0.056877628 0.06610052
0.03431725 0.08248801 -0.022347044 -0.040060293 0.046847485 0.04038017 0.06929413 0.06528778
-0.06300785 -0.02897371 0.056033768 -0.074712746 -0.08811298 -0.0468173 -0.0977731 -0.01600324
0.08242505 0.044331167 0.030952215 0.07870343 0.08612746 0.083073914 0.05817866 -0.094026156
0.049355723 -0.088704444 0.028236696 0.06201606 0.07500931 0.059491247 0.058952358 0.088411115
0.05822112 0.04326034 0.01143943 0.042521525 0.047834333 0.0762614 -0.04164608 0.052190363
0.01082598 -0.020556705 0.036726017 0.07361764 0.061787937 0.08126559 0.050546873 -0.0036448634
00000000: b231 a2bc 1526 2f3d 9b12 933d 82ec 143d
00000010: d411 d03d a4cf 663d 63cc 4ebd b335 adbd
00000020: 6fae 953d 9f3b 033d 4cd6 993c 4a34 06bd
00000030: be48 b03c 7fdc 853b 8671 98bc 32a6 2bbd
00000040: 2131 9e3d 9645 263d ad10 bebd f7c2 14bd
00000050: 0c8d d33d b857 943d fd4d bf3d 5645 4d3d
00000060: c793 073d 7919 ac3d 8d31 563d 7123 e93c
00000070: a1af 053d 47bf 873c 36d4 633d c355 0fbd
00000080: b614 283d a68c 82bd 7c52 3c3d 0ae0 183d
00000090: a865 253d feb0 883d 42a8 b13d 851c 8e3d
000000a0: 3f62 9a3d c790 243d 5cbe a1bd c79c 9f3d
000000b0: 31f2 49bd 919d b43d 26e0 ad3d f7ca 493d
000000c0: 9f5f 993d f663 a53d ea5b 393d 11bd 043d
000000d0: 241c 073d 87e6 323d 8e2d 8b3d f2fb bdbd
000000e0: 5ff3 d63c 51ec 303d a12c 783d 998b 81bd
000000f0: 8c09 73bd b852 fc3c 7ee9 c03d cac2 453d
00000100: 02c5 a03d f99f a3bb f7df d7bd 7f52 b6bd
00000110: 70c3 873d 15b8 0a3d 6fca 843d f799 30bd
00000120: 8e60 cebc 9774 a4bd bc41 793d 2cda 8b3d
00000130: c19d b13d e85d 843d 2fbd 783d 942c 843d
00000140: bbdf 8a3d 8249 c0bd 91e0 d43d f2bf 233d
00000150: 8d19 b7bd 8f17 993d f432 3b3d facb 423d
00000160: 26ed 81bd 2bf9 2c3d 3572 663d d666 5e3d
00000170: ea76 293d a0f9 ac3d 050f 49bc d0e7 463d
00000180: 2ae6 043d 5c7a 503d abe6 a3bc 32fe 553d
00000190: 1f8a a3bd ab77 893c 6d3f a6bd 86a3 ba3c
000001a0: 6f8c a03d 32f6 983d 515d 673d 02b1 273d
000001b0: 4d31 c3bd 710e 993d cf34 b3bd d45a b23d
000001c0: 4060 403d f24c 4fba f8fb 7d3d 21df 7ebd
000001d0: 1532 a83d d6e5 a03d 74fe 763d 3d3b 9f3d
000001e0: 2976 583d a47a 5b3d 9524 933d 9b3e 86bd
000001f0: 353a 783d f885 bdbd 829e ea3c 5bcd d93c
00000200: 708d 39bd 5b76 933d 62de 993d bea9 6c3d
00000210: b8ee 713d 0092 a83d abac d53d 647e 9cbd
00000220: fa22 183d 80f0 973d 9d4c 183d bc4f a43d
00000230: 6d77 9e3d 09c8 bf3d 5834 a83c b69b 513d
00000240: 3605 f9bb 9a3f b03d d04e 823c 75fd a93d
00000250: 306b 833d e79d 15bd 60dd f43c d9af de3c
00000260: 9de8 5c3d 8272 a23d 7411 583d 6f58 323d
00000270: 05ca 91bd 55d4 9e3d 7b92 26bd 3829 3bbd
00000280: 2217 833d e80c 943d 1ec8 a93d 5955 763d
00000290: 669e 4e3d 558f e03c 2bbb ad3d 17c2 b23d
000002a0: bf37 113d 886a cb3d 703c 9c3c 7c29 0c3d
000002b0: 6c30 9b3c 200d 683d 10c4 513b 1a35 e43c
000002c0: 387c 643d 4fe8 653d 1fa7 113d 3cd7 8dbb
000002d0: eca8 273d 6029 593d 30dc 7a3d d5bd 8d3d
000002e0: c7df d13d 23fd 463d 5cba 91bd 8792 3dbd
000002f0: e9b2 ae3d 57a1 183d ab27 ee3c 1f67 01bb
00000300: f9ae ae3d 4cf4 8e3d d100 933c 5795 593d
00000310: dbbe a23c b3e7 e03c 7ede c93d f6bf b5bd
00000320: f21d 563c 756b 76bd 8753 5a3d 4b16 663d
00000330: 9a7f 383c 9da5 8ebd 84f8 683d b65f 873d
00000340: 3f90 0c3d 79ef a83d 2611 b7bc 4316 24bd
00000350: 26e3 3f3d ad65 253d 15ea 8d3d 99b5 853d
00000360: 420a 81bd 465a edbc aa83 653d ff02 99bd
00000370: 9474 b4bd 7fc3 3fbd 433d c8bd 3a19 83bc
00000380: 77ce a83d 9994 353d 808f fd3c 442f a13d
00000390: 9863 b03d a822 aa3d bf4c 6e3d c990 c0bd
000003a0: 3a29 4a3d adaa b5bd a550 e73c 8d04 7e3d
000003b0: 7b9e 993d 18ad 733d 0778 713d e310 b53d
000003c0: 4579 6e3d c131 313d 726c 3b3c 0d2b 2e3d
000003d0: efed 433d f02e 9c3d 1495 2abd 90c5 553d
000003e0: 745f 313c 8966 a8bc 056e 163d d8c4 963d
000003f0: 5915 7d3d 936e a63d 3d0a 4f3d a9de 6ebb

feature_extractor.exemplar_encoder.0.bias f4 [64]
0.04617596 0.06959801 -0.020893754 -0.021848233 -0.027049178 0.044722177 0.042083178 0.04562444
-0.067802854 0.015096121 0.073940106 -0.034220703 0.038534794 0.035375256 0.024676455 0.04449422
-0.0018221522 0.043139007 0.09061256 0.028957631 -0.08810584 0.036974292 -0.031070394 0.07034297
-0.020039553 -0.025785957 0.0064795124 0.06693563 -0.056674518 0.022743588 -0.0833014 0.06066367
-0.08042283 -0.027246017 0.06322636 -0.039454922 0.0023882922 -0.04432126 -0.023393767 -0.011162242
0.017567858 0.06470958 0.043034416 0.010503464 0.04263259 -0.03469737 -0.02526453 0.031699393
-0.026064262 0.029406825 -0.049775362 -0.03395109 -0.07665043 -0.029674144 -0.04059784 0.021702899
0.07316073 -0.031225346 0.060799774 0.0378396 0.06437509 0.060153186 -0.05492836 0.049167443
00000000: 0123 3d3d 6789 8e3d 6129 abbc 11fb b2bc
00000010: 3d96 ddbc 9a2e 373d 695f 2c3d b1e0 3a3d
00000020: 39dc 8abd b855 773c e96d 973d 022b 0cbd
00000030: a9d6 1d3d a5e5 103d 4726 ca3c 923f 363d
00000040: 48d5 eeba 87b2 303d 1493 b93d 8e38 ed3c
00000050: d670 b4bd 5b72 173d 5787 febc fa0f 903d
00000060: fd29 a4bc 123d d3bc 1752 d43b 8c15 893d
00000070: 8a23 68bd c350 ba3c ed99 aabd 787a 783d
00000080: bab4 a4bd 0a33 dfbc d27c 813d 7c9b 21bd
00000090: e584 1c3b 368a 35bd 49a4 bfbc d6e1 36bc
000000a0: 78ea 8f3c 7586 843d db44 303d b916 2c3c
000000b0: 839f 2e3d d41e 0ebd 8ff7 cebc 39d7 013d
000000c0: b884 d5bc 95e6 f03c 40e1 4bbd 4c10 0bbd
000000d0: e7fa 9cbd 3117 f3bc ec49 26bd 47ca b13c
000000e0: 4bd5 953d 4ccc ffbc 2f09 793d b2fd 1a3d
000000f0: 16d7 833d 3063 763d 8ffc 60bd cd63 493d

feature_extractor.exemplar_encoder.2.weight f4 [32, 64]
0.04788839 0.039474774 0.017333882 -0.053925335 -0.057125296 -0.070324354 -0.13614333 -0.022615908
-0.09910621 0.091337174 -0.1569291 0.0054306034 -0.10545147 0.06686194 0.018481784 -0.05004353
-0.079828225 -0.09598956 -0.04339717 0.124055795 0.0015016436 -0.12087702 -0.10355701 -0.09383306
0.0006670365 -0.005323343 0.034328867 -0.17330495 -0.050719474 -0.06886549 0.06436574 0.048633687
-0.13477707 0.03254543 -0.06080637 0.11746193 0.04658025 0.035007108 -0.05176245 0.08634893
-0.074924156 -0.15391488 -0.15327376 -0.049236543 0.062957235 -0.063685365 -0.026912337 0.040400103
-0.040823344 0.010684278 -0.075756826 -0.016741809 -0.055994593 -0.121005476 -0.043107487 -0.10098024
0.05260189 0.03846385 0.084504634 0.016236728 -0.13049322 -0.124790706 0.024402957 0.023480138
-0.030782877 -0.035139192 -0.013975464 -0.021497065 -0.090394005 -0.16087645 -0.09623638 -0.16192779
0.05714521 0.116755866 -0.118093364 -0.10643128 -0.16582966 -0.16879278 -0.15865095 -0.056101706
-0.116062075 0.12395276 0.009303624 -0.022037964 -0.14263065 0.08788782 0.17552873 -0.13959347
0.06255584 0.032962408 0.03474731 0.15189217 -0.0117603885 0.122956224 -0.035706062 -0.09883272
-0.056300417 -0.10930489 0.05396813 0.10259737 0.07680196 0.025844533 -0.12815814 -0.10901105
-4.803937e-05 -0.060023054 0.044179376 -0.023072235 0.0041752965 -0.09892466 0.09409971 0.04879205
0.06471749 -0.035405003 0.042140666 0.061615918 0.029254291 -0.1610221 -0.06065376 -0.11966604
-0.075581014 -0.00857369 0.009936254 0.030646866 -0.16915925 -0.1217581 0.022142801 -0.055305555
-0.10601123 -0.12760603 0.008949437 0.03937299 -0.11912419 0.05721678 -0.13908404 0.08190247
0.106815025 -0.0862089 -0.06940804 0.074734084 -0.12430926 -0.055042874 -0.08548558 0.03580763
0.068415 -0.0041980185 -0.042954165 0.1109586 0.053594865 0.01619992 -0.0010838306 0.030768093
-0.050687887 0.019653575 -0.14886895 -0.14257604 0.03300743 -0.08304895 -0.043004707 0.032488257
-0.005058798 -0.07679248 -0.13473311 0.022760995 -0.1010737 -0.11605737 0.12440672 -0.008606096
-0.06064914 0.0049010627 -0.12924096 0.074256785 -0.040945224 0.04842388 0.10382778 -0.13568401
-0.11949586 -0.04882121 -0.09387571 -0.15161113 0.07771406 0.022458509 0.07106096 -0.12897705
-0.026054943 0.003365448 -0.023480201 0.071358256 -0.093022235 0.038426854 -0.0811554 -0.03452942
0.0019571707 -0.14120622 -0.04637272 -0.048651543 0.10499405 0.06296978 0.09565054 -0.05105297
0.14412552 -0.11385607 0.00022802189 -0.026295109 -0.16366981 0.032366205 0.034337778 0.06912806
-0.10128054 -0.0028704114 0.04095292 -0.03452722 -0.15954942 -0.09672766 0.15256119 0.007609359
0.024673108 0.031129032 -0.111811765 0.09806092 0.1542649 -0.17796583 -0.047766477 -0.1024179
0.046721824 0.0432957 0.0016743847 -0.1686123 0.07049733 0.015744343 -0.012985528 0.11081938
-0.010394813 0.10948026 -0.092327245 0.07370196 -0.037939932 0.17450479 -0.007749546 -0.032572005
0.13065605 0.017496612 0.13354169 -0.12616217 -0.06627924 0.15290885 0.11231353 -0.11639431
0.04988237 0.10896837 -0.16222085 0.005989934 0.096990734 0.07659835 -0.030620953 0.10704085
00000000: 9e26 443d 4db0 213d c9ff 8d3c d0e0 5cbd
00000010: 37fc 69bd 3706 90bd 2869 0bbe ff44 b9bc
00000020: 32f8 cabd fc0e bb3d 06b2 20be 34f3 b13b
00000030: f1f6 d7bd eaee 883d 1c67 973c 72fa 4cbd
00000040: fb7c a3bd 2d96 c4bd 3bc1 31bd f710 fe3d
00000050: ccd2 c43a 5f8e f7bd b315 d4bd 8c2b c0bd
00000060: 10dc 2e3a 706f aebb 6d9c 0c3d da76 31be
00000070: 39bf 4fbd 5a09 8dbd 2fd2 833d 1e34 473d
00000080: 0003 0abe 5b4e 053d 1a10 79bd e18f f03d
00000090: efca 3e3d 9d63 0f3d dd04 54bd b5d7 b03d
000000a0: d671 99bd dd9b 1dbe ccf3 1cbe 42ac 49bd
000000b0: b9ef 803d 796d 82bd 4377 dcbc 947a 253d
000000c0: 6136 27bd 1c0d 2f3c 6526 9bbd 1e26 89bc
000000d0: 965a 65bd b8d1 f7bd 7a91 30bd bace cebd
000000e0: 1475 573d 458c 1d3d c410 ad3d e302 853c
000000f0: 04a0 05be 4592 ffbd b6e8 c73c 6b59 c03c
00000100: 5f2c fcbc 1dee 0fbd 58f9 64bc 9d1a b0bc
00000110: 7e20 b9bd ccbc 24be 9417 c5bd 66d0 25be
00000120: 1911 6a3d b31d ef3d efda f1bd a5f8 d9bd
00000130: 40cf 29be 04d8 2cbe 6575 22be e7ca 65bd
00000140: f4b1 edbd f2da fd3d 3a6e 183c f688 b4bc
00000150: c50d 12be 88fe b33d cebd 333e 97f1 0ebe
00000160: 471d 803d 9703 073d 3253 0e3d 9f89 1b3e
00000170: a5ae 40bc 79d0 fb3d 8540 12bd cf68 cabd
00000180: 449b 66bd 3edb dfbd b00d 5d3d 921e d23d
00000190: 594a 9d3d eab7 d33c e33b 03be 2f41 dfbd
000001a0: e17d 49b8 bcda 75bd 6ff5 343d fc01 bdbc
000001b0: edd0 883b 0399 cabd 59b7 c03d 2cda 473d
000001c0: 9a8a 843d d604 11bd b19b 2c3d f960 7c3d
000001d0: b2a6 ef3c fae2 24be 1470 78bd 7813 f5bd
000001e0: 38ca 9abd aa78 0cbc abcb 223c 230f fb3c
000001f0: 1538 2dbe 505c f9bd d264 b53c 1488 62bd
00000200: 6a1c d9bd 28ab 02be a9a0 123c 9345 213d
00000210: 62f7 f3bd 245c 6a3d 0c6c 0ebe 7bbc a73d
00000220: d6c1 da3d 4b8e b0bd cd25 8ebd 2f0e 993d
00000230: da95 febd a374 61bd 1013 afbd 05ab 123d
00000240: 2a1d 8c3d 888f 89bb b5f0 2fbd 433e e33d
00000250: 4a86 5b3d b2b5 843c 520f 8eba 5e0d fc3c
00000260: 1a9e 4fbd 8900 a13c 1a71 18be 74ff 11be
00000270: cd32 073d 9115 aabd b425 30bd 6812 053d
00000280: 46c4 a5bb 6045 9dbd 7af7 09be 4475 ba3c
00000290: baff cebd 7daf edbd f3c8 fe3d 9500 0dbc
000002a0: 3c6b 78bd 1899 a03b be57 04be f113 983d
000002b0: 2eb6 27bd 1e58 463d a9a3 d43d c0f0 0abe
000002c0: 3fba f4bd c0f8 47bd e941 c0bd f33f 1bbe
000002d0: 8d28 9f3d e8fa b73c 6988 913d 8f12 04be
000002e0: 2d71 d5bc d98e 5c3b 8d59 c0bc 4724 923d
000002f0: 7182 bebd 7a65 1d3d cd34 a6bd b96e 0dbd
00000300: e043 003b 5d98 10be 52f1 3dbd d746 47bd
00000310: 1f07 d73d 4df6 803d 6ee4 c33d eb1c 51bd
00000320: a495 133e 5f2d e9bd 2919 6f39 d768 d7bc
00000330: 0f99 27be 6d92 043d c5a5 0c3d 0393 8d3d
00000340: 2c6c cfbd 831d 3cbb 40be 273d 6a6c 0dbd
00000350: ec60 23be 2719 c6bd 0039 1c3e ee57 f93b
00000360: 421f ca3c 5002 ff3c 91fd e4bd 2ad4 c83d
00000370: 9ef7 1d3e ad3c 36be c8a6 43bd 7ac0 d1bd
00000380: 625f 3f3d d556 313d 0777 db3a b4a8 2cbe
00000390: e760 903d 48fa 803c 41c1 54bc 45f5 e23d
000003a0: 014f 2abc 3037 e03d 1116 bdbd 0ef1 963d
000003b0: e766 1bbd 62b1 323e e7ef fdbb 396a 05bd
000003c0: b3ca 053e 0e55 8f3c 27bf 083e a830 01be
000003d0: 69bd 87bd 2394 1c3e a304 e63d 2460 eebd
000003e0: 7551 4c3d cf2a df3d 391d 26be 3547 c43b
000003f0: 14a3 c63d 99df 9c3d cbd8 fabc 3c38 db3d

feature_extractor.exemplar_encoder.2.bias f4 [32]
-0.17468318 -0.08646485 -0.034145173 0.017547226 0.09867694 -0.116812 0.1405419 0.08671633
-0.056897424 -0.04809978 0.10499069 0.038016096 -0.16306004 0.05198295 -0.04486786 -0.07830177
-0.009309648 0.012344973 -0.1195153 0.03998701 -0.054630205 0.0938783 0.17667267 0.06652301
-0.011480383 0.15939654 -0.023866279 0.18306918 0.166529 -0.11663265 -0.14857164 -0.00803627
00000000: 26e0 32be 7c14 b1bd cfdb 0bbd 33bf 8f3c
00000010: 2317 ca3d 213b efbd 37ea 0f3e 5598 b13d
00000020: 460d 69bd 4604 45bd 5c05 d73d c4b6 1b3d
00000030: 36f9 26be 13ec 543d 5cc7 37bd ae5c a0bd
00000040: 7e87 18bc 9242 4a3c 70c4 f4bd 6bc9 233d
00000050: ecc3 5fbd 4443 c03d aee9 343e 373d 883d
00000060: 3718 3cbc d938 233e 3783 c3bc 7d76 3b3e
00000070: 9486 2a3e 19dd eebd 2a23 18be 8faa 03bc

feature_extractor.joint_encoder.0.weight f4 [32, 64]
0.040515598 0.16703875 0.02522877 0.08398806 0.12379242 -0.055553228 -0.02710489 0.031726588
0.0676483 0.02153558 0.034682963 -0.11976017 -0.032353222 -0.023128247 0.029138088 -0.05487762
-0.045462478 0.0028201803 0.03722251 0.055124402 0.0933395 -0.11460689 0.019978533 -0.08572652
0.06599567 -0.028450783 -0.01453942 0.0052993824 0.09622092 0.05689904 0.111615054 -0.012010464
-0.021130212 0.02906526 0.023584919 -0.075268745 0.11199837 -0.005619699 0.14378376 -0.06881927
0.106362104 -0.076598726 -0.043351762 0.007572293 0.050881464 0.09435443 0.049085617 -0.00056787144
-0.12137679 -0.10164334 0.066708 0.12480518 0.056059197 0.045680527 -0.009827704 0.16680975
0.16797815 0.020271607 -0.02427371 0.16899821 -0.04691504 0.034007095 -0.062983856 -0.01319557
0.062145945 -0.024668736 -0.07439462 -0.04810506 -0.021168184 -0.04180194 -0.018350875 -0.030895578
0.11137678 0.014981783 -0.105413824 -0.111708954 -0.10346007 -0.048406877 -0.09390112 -0.036250938
0.037349794 -0.09487088 -0.11113623 0.11127988 -0.018475272 -0.031019676 0.03872619 -0.10163808
-0.094382 0.06592649 -0.04696302 -0.07784743 -0.047887176 0.0043223086 0.03267822 0.004819702
0.06899925 0.10766046 -0.09788679 0.07586558 0.014518509 -0.01051381 -0.0551276 -0.025925746
-0.12323779 0.092526525 0.079690814 -0.023553273 0.059840098 -0.08447672 0.12409099 0.016642652
-0.007926124 -0.009536305 0.041624177 0.0345069 -0.08507497 -0.027873944 -0.06342414 0.035315808
-0.116554305 -0.10555313 -0.07921973 -0.076972425 -0.026159313 0.036848515 0.038564548 0.12237653
0.09767257 -0.10538631 1.03757175e-05 0.038795367 -0.030500164 0.03320713 0.047107454 0.0016209676
-0.0808332 -0.03060924 0.04744786 0.12866512 0.0029898928 -0.1277276 -0.019333685 -0.13718076
0.027291032 -0.14457412 0.05212376 0.043116253 0.09901238 -0.018012438 -0.1484882 -0.016573621
-0.10553756 -0.031623375 0.05158826 0.117305756 -0.0003501577 0.012348342 0.016820159 -0.1600863
-0.07292936 -0.055419307 -0.09343589 0.0796963 -0.0466667 -0.10329942 0.026598666 -0.0056086066
0.07488494 0.06490437 0.14275925 0.08757895 -0.07917752 -0.027660852 0.011207253 0.16531043
0.04111266 0.12454061 -0.040039074 -0.065475516 -0.017110016 -0.04824934 0.055480488 0.07243805
0.1015213 0.17055358 0.0635219 -0.028393617 0.13645996 0.10067086 -0.15132064 0.039011296
0.11870669 0.19598334 0.090838686 -0.0529381 0.078495495 0.025293628 0.06075596 0.026990958
0.06802349 -0.042640474 0.12132913 0.057359602 0.050353337 0.06949772 0.1515644 0.029531717
0.09573048 -0.122325025 0.08144764 -0.0038518144 -0.015504494 -0.12634416 0.047371432 -0.061693747
0.052834444 -0.06165664 0.1587635 -0.09134007 -0.108215295 0.024081897 0.09620378 0.093574114
0.06468607 -0.11005388 0.01945499 0.028759042 0.1976086 0.113756076 0.13410991 0.008891771
0.02978563 0.093410745 0.1641306 -0.012675073 0.00864116 0.105323754 -0.011945362 0.08536003
0.1088692 -0.04260363 -0.038977027 -0.034755588 -0.13832098 0.07409775 0.017475827 0.075596966
-0.081860386 0.043356583 -0.057203457 -0.12734696 0.041545495 -0.04051919 -0.04663815 0.12603185
00000000: aff3 253d 350c 2b3e 91ac ce3c ef01 ac3d
00000010: e186 fd3d c88b 63bd 130b debc bdf3 013d
00000020: 318b 8a3d 626b b03c b90f 0e3d d244 f5bd
00000030: d084 04bd 7377 bdbc 00b3 ee3c 5bc7 60bd
00000040: dd36 3abd c6d2 383b a176 183d 20ca 613d
00000050: c828 bf3d 04b7 eabd 05aa a33c 6391 afbd
00000060: bd28 873d 9e11 e9bc bf36 6ebc 71a6 ad3b
00000070: 790f c53d f80e 693d 6f96 e43d 8ac7 44bc
00000080: 4419 adbc 451a ee3c 2935 c13c 8026 9abd
00000090: 675f e53d 7425 b8bb 0d3c 133e 1ef1 8cbd
000000a0: 60d4 d93d cbdf 9cbd 9e91 31bd ff20 f83b
000000b0: 1569 503d e53c c13d 000e 493d 35dd 14ba
000000c0: 6594 f8bd 622a d0bd 349e 883d dc99 ff3d
000000d0: 549e 653d 811b 3b3d 6104 21bc 2dd0 2a3e
000000e0: 7702 2c3e a410 a63c a9d9 c6bc de0d 2d3e
000000f0: fc29 40bd 064b 0b3d aefd 80bd 3b32 58bc
00000100: bf8c 7e3d 1716 cabc 355c 98bd d009 45bd
00000110: e668 adbc 8338 2bbd 9354 96bc b918 fdbc
00000120: 8219 e43d 2776 753c 34e3 d7bd aac7 e4bd
00000130: e0e2 d3bd 4a46 46bd 3b4f c0bd dd7b 14bd
00000140: 19fc 183d aa4b c2bd 649b e3bd b5e6 e33d
00000150: 7459 97bc fa1c febc 5a9f 1e3d a027 d0bd
00000160: 5a4b c1bd 7804 873d 4c5c 40bd 796e 9fbd
00000170: 5825 44bd 27a2 8d3b 99d9 053d 97ee 9d3b
00000180: 7b4f 8d3d 167d dc3d df78 c8bd 6a5f 9b3d
00000190: 0adf 6d3c 1e42 2cbc 7acd 61bd 3b62 d4bc
000001a0: 1864 fcbd 8c7e bd3d f034 a33d cbf2 c0bc
000001b0: e41a 753d 2102 adbd 6b23 fe3d 2c56 883c
000001c0: 93dc 01bc 2a3e 1cbc 1d7e 2a3d 1b57 0d3d
000001d0: c93b aebd e657 e4bc 84e4 81bd 4fa7 103d
000001e0: 06b4 eebd 3d2c d8bd f43d a2bd b8a3 9dbd
000001f0: 0e4c d6bc 78ee 163d dcf5 1d3d 8ca0 fa3d
00000200: 8e08 c83d c7d4 d7bd 5e13 2e37 e4e7 1e3d
00000210: 7bdb f9bc 3304 083d bff3 403d a676 d43a
00000220: e08b a5bd 3bc0 fabc b058 423d cac0 033e
00000230: 14f2 433b 06cb 02be ad61 9ebc 1d79 0cbe
00000240: 7191 df3c 3d0b 14be b97f 553d ab9a 303d
00000250: 01c7 ca3d d28e 93bc 4a0d 18be 67c5 87bc
00000260: 1424 d8bd 8387 01bd 364e 533d 003e f03d
00000270: 5f95 b7b9 b350 4a3c 6eca 893c aaed 23be
00000280: fd5b 95bd 5bff 62bd 515b bfbd d037 a33d
00000290: 9525 3fbd a58e d3bd 72e5 d93c 67c8 b7bb
000002a0: 475d 993d 95ec 843d 7b2f 123e 985c b33d
000002b0: d327 a2bd 0399 e2bc a09e 373c 2347 293e
000002c0: c065 283d 260f ff3d 0300 24bd 0718 86bd
000002d0: 4e2a 8cbc 1aa1 45bd 823f 633d 665a 943d
000002e0: 66ea cf3d 99a5 2e3e c517 823d bb99 e8bc
000002f0: 29bc 0b3e 862c ce3d ccf3 1abe 4fca 1f3d
00000300: 7e1c f33d dbaf 483e a209 ba3d 9fd5 58bd
00000310: 3fc2 a03d 9534 cf3c 3edb 783d 241c dd3c
00000320: e64f 8b3d c7a7 2ebd 687b f83d e7f1 6a3d
00000330: 4d3f 4e3d d254 8e3d b333 1b3e 80ec f13c
00000340: 580e c43d 8b85 fabd 05ce a63d b96e 7cbb
00000350: 9006 7ebc 5d60 01be 8c08 423d 95b2 7cbd
00000360: ee68 583d ac8b 7cbd e692 223e 8110 bbbd
00000370: fb9f ddbd 6647 c53c 7d06 c53d c9a3 bf3d
00000380: 217a 843d ee63 e1bd 1260 9f3c 1598 eb3c
00000390: e959 4a3e f2f8 e83d 1c54 093e caae 113c
000003a0: fe00 f43c 224e bf3d da11 283e 1cab 4fbc
000003b0: a793 0d3c fbb3 d73d 7bb6 43bc 3dd1 ae3d
000003c0: d1f6 de3d 2581 2ebd 60a6 1fbd e05b 0ebd
000003d0: 04a4 0dbe 90c0 973d 7729 8f3c 95d2 9a3d
000003e0: 6ba6 a7bd ac96 313d 2c4e 6abd 3e67 02be
000003f0: 9c2b 2a3d 73f7 25bd a507 3fbd 7e0e 013e

feature_extractor.joint_encoder.0.bias f4 [32]
-0.0059343064 -0.057506368 0.17658487 0.07645734 0.08649295 -0.054199398 0.08604383 0.060334016
0.037392788 -0.045343377 -0.07579878 0.13799927 -0.0008556731 0.030006416 0.013059589 0.06611578
-0.026680835 0.0024308383 0.07208149 0.056716733 0.113989 -0.05096227 -0.077106535 -0.047205392
0.15833054 -0.060671117 -0.12031114 0.0036190648 -0.17002736 0.05479023 0.12882444 0.12614518
00000000: 9274 c2bb cc8b 6bbd aad2 343e aa95 9c3d
00000010: 3723 b13d 3000 5ebd bf37 b03d cd20 773d
00000020: 2e29 193d fab9 39bd 643c 9bbd ae4f 0d3e
00000030: 404f 60ba 04d0 f53c e3f7 553c b667 873d
00000040: c491 dabc b34e 1f3b 769f 933d ce4f 683d
00000050: 1173 e93d d0bd 50bd 08ea 9dbd 715a 41bd
00000060: 6721 223e 4782 78bd b065 f6bd d52d 6d3b
00000070: a71b 2ebe b86b 603d 8eea 033e 342c 013e

feature_extractor.joint_encoder.2.weight f4 [10, 32]
-0.122751854 0.020189323 -0.07146166 -0.11589246 0.067350216 0.10096219 0.005522491 -0.09425899
-0.16009246 0.07804682 -0.076495185 0.06487804 -0.13594133 -0.14669351 -0.013004367 -0.168187
-0.043107446 -0.11667671 -0.010132605 -0.07654382 0.122222796 -0.11056257 -0.12666027 0.07584119
0.09940043 -0.18181936 -0.0024444098 -0.071997546 -0.016292864 0.12701863 -0.17229356 0.030394519
0.19506715 -0.17174652 0.1453124 0.13448353 0.07939337 -0.089600295 0.058344945 0.17490649
-0.03931839 -0.14521672 -0.15406929 0.21089326 0.12086964 -0.20285141 0.029871691 -0.13909048
-0.13039435 0.02003974 -0.10364225 0.086657286 0.024743084 0.027956119 0.15981998 -0.047041588
0.13436155 -0.18584952 0.1947242 0.18732467 0.11464913 0.21818641 -0.13318756 0.12106146
-0.14857408 -0.052161746 -0.110167466 0.044501167 0.21477847 0.11664328 0.006180351 0.027991284
0.14397338 -0.009755957 0.09435892 0.085844316 0.027159592 0.2176221 0.2077996 0.1598241
-0.038534753 0.1207487 0.030262869 -0.03482335 -0.15939908 0.017132288 0.051419355 0.036630295
-0.15166742 0.003743822 0.080397144 0.07242934 -0.11753845 0.10188138 -0.08276486 0.24354392
-0.008006178 -0.049457446 0.09021353 0.10353572 0.087786034 -0.2148439 -0.06891464 0.11988984
0.096379295 -0.10116578 -0.006429999 0.0027552156 0.123795986 0.20053284 -0.112521484 -0.15602872
0.10166129 0.21934113 -0.16645943 0.19242625 -0.058965415 -0.042099286 -0.049663544 -0.16423252
0.090695225 0.1759987 0.2049511 -0.1634729 0.10613901 -0.16025354 0.09815291 0.040451393
0.09221946 -0.16672778 0.007825589 0.0012033106 -0.13095821 -0.06017011 -0.20191702 0.09624102
-0.068987094 0.0040122974 0.055838373 0.023156619 -0.07989365 0.12553555 0.0023597814 -0.16748281
0.03707195 0.11794979 0.17572911 -0.16429286 -0.043492354 -0.21788682 -0.15472601 0.048221998
-0.1825544 -0.05835754 -0.056327958 -0.14672096 -0.099045314 0.16981487 -0.18936801 0.21693926
0.06769669 -0.026890337 -0.006945987 0.13583139 -0.20638545 -0.035246257 0.21831644 -0.07112818
-0.1805594 -0.194631 0.119968824 -0.09842195 0.018886974 0.21641473 -0.034011416 -0.0035596348
0.01938988 0.0100108255 -0.062159237 0.010183575 -0.09556794 0.20183761 0.09605669 0.17778014
0.17516576 -0.28592765 0.0037087454 -0.0547998 0.033997554 -0.029856002 -0.06819696 0.16571276
0.043325774 -0.016579064 -0.022064066 0.14816733 0.17992929 -0.13309555 -0.1202515 -0.10672434
-0.09503034 -0.03734317 -0.026829528 -0.04915985 0.06390395 -0.07153496 -0.21061419 0.16413991
-0.040857457 -0.15819393 0.17211308 0.08719229 -0.089346044 0.10567817 0.06290742 0.19989195
0.12868705 -0.21258709 -0.014504898 0.12547772 -0.055494897 -0.0774179 -0.118677996 0.021790968
0.12593612 -0.06564564 0.086016715 0.06654289 -0.11904025 -0.10892706 -0.08732452 0.20005758
0.24566965 -0.09416037 -0.11809972 0.12033873 -0.074684784 -0.10644294 -0.004902631 0.076305434
0.098570906 -0.039382398 -0.0621116 0.22346635 0.012828665 -0.067699686 -0.16879594 0.09967129
0.06648938 0.24855746 -0.010688747 -0.14836614 -0.08121223 -0.032075025 -0.22732285 -0.087710135
00000000: 5365 fbbd 1464 a53c 7e5a 92bd 0759 edbd
00000010: e9ee 893d 44c5 ce3d 03f6 b43b db0a c1bd
00000020: 47ef 23be 03d7 9f3d 82a9 9cbd c7de 843d
00000030: 3434 0bbe d336 16be 4510 55bc 3739 2cbe
00000040: 6f91 30bd 33f4 eebd 3a03 26bc 02c3 9cbd
00000050: f24f fa3d a16e e2bd 3bb3 01be a052 9b3d
00000060: 7492 cb3d db2e 3abe 6432 20bb 7373 93bd
00000070: 9d78 85bc 2c11 023e b96d 30be edfd f83c
00000080: afbf 473e 52de 2fbe c6cc 143e 0db6 093e
00000090: fe98 a23d 5c80 b7bd 1cfb 6e3d b01a 333e
000000a0: 520c 21bd b1b3 14be 57c4 1dbe 67f4 573e
000000b0: 808a f73d 48b8 4fbe 7ab5 f43c bc6d 0ebe
000000c0: 1986 05be 612a a43c 6342 d4bd 6079 b13d
000000d0: 02b2 ca3c 3b04 e53c d9a7 233e aeae 40bd
000000e0: 1396 093e 564f 3ebe c865 473e 0ad2 3f3e
000000f0: 2acd ea3d 426c 5f3e 5262 08be 12ef f73d
00000100: ce23 18be 8ea7 55bd 7b9f e1bd db46 363d
00000110: e3ee 5b3e ace2 ee3d 8b84 ca3b fa4d e53c
00000120: c26d 133e 73d7 1fbc 403f c13d 25cf af3d
00000130: cb7d de3c 54d8 5e3e 6bc9 543e eea8 233e
00000140: 9ed6 1dbd 184b f73d d6e9 f73c eea2 0ebd
00000150: 8339 23be 0359 8c3c 1a9d 523d a609 163d
00000160: b44e 1bbe e95a 753b 42a7 a43d d555 943d
00000170: 00b8 f0bd 2fa7 d03d 9f80 a9bd 9463 793e
00000180: 582c 03bc e493 4abd dfc1 b83d 890a d43d
00000190: 2ac9 b33d 0a00 5cbe 1e23 8dbd ce88 f53d
000001a0: 8262 c53d 0130 cfbd beb2 d2bb d990 343b
000001b0: c088 fd3d 7b58 4d3e aa71 e6bd fec5 1fbe
000001c0: cb33 d03d f69a 603e 5774 2abe 630b 453e
000001d0: b885 71bd 4d70 2cbd 006c 4bbd 922c 28be
000001e0: 6bbe b93d 0139 343e b3de 513e 7165 27be
000001f0: 695f d93d 8119 24be 6504 c93d 5cb0 253d
00000200: 8edd bc3d b0ba 2abe e636 003c 67b8 9d3a
00000210: e919 06be ef74 76bd 56c3 4ebe 031a c53d
00000220: 1b49 8dbd 9779 833b c7b6 643d f3b2 bd3c
00000230: 489f a3bd 648c 003e 90a6 1a3b 9d80 2bbe
00000240: c2d8 173d a98f f13d 55f2 333e 633c 28be
00000250: 0a25 32bd b91d 5fbe 7f70 1ebe 6e84 453d
00000260: 8aef 3abe 5108 6fbd 25b8 66bd 053e 16be
00000270: 45d8 cabd f3e3 2d3e b0e9 41be 5325 5e3e
00000280: 90a4 8a3d 2049 dcbc 2a9b e3bb 6217 0b3e
00000290: b556 53be 615e 10bd 588e 5f3e a7ab 91bd
000002a0: 90e4 38be 594d 47be 37b2 f53d 7391 c9bd
000002b0: dbb8 9a3c d39b 5d3e 8e4f 0bbd c348 69bb
000002c0: 87d7 9e3c 7204 243c af9a 7ebd 02d9 263c
000002d0: 20b9 c3bd 85ae 4e3e 5fb9 c43d ff0b 363e
000002e0: a75e 333e 1c65 92be 6c0e 733b c175 60bd
000002f0: 0541 0b3d 9394 f4bc d9aa 8bbd 9bb0 293e
00000300: 5e76 313d d1d0 87bc b3bf b4bc 2db9 173e
00000310: 623f 383e 334a 08be 6b46 f6bd 4a92 dabd
00000320: 449f c2bd 27f5 18bd 99c9 dbbc d75b 49bd
00000330: 13e0 823d ec80 92bd 3fab 57be 4b14 283e
00000340: 265a 27bd 97fd 21be 693e 303e df91 b23d
00000350: 0ffb b6bd cc6d d83d 9bd5 803d 7ab0 4c3e
00000360: 8ac6 033e 6eb0 59be f4a5 6dbc 3b7d 003e
00000370: 9e4e 63bd 478d 9ebd 730d f3bd f982 b23c
00000380: 66f5 003e 3971 86bd 8829 b03d a447 883d
00000390: 60cb f3bd 2715 dfbd 33d7 b2bd e5db 4c3e
000003a0: d390 7b3e 27d7 c0bd 44de f1bd 2774 f63d
000003b0: 56f4 98bd c2fe d9bd 40a6 a0bb 0646 9c3d
000003c0: 8bdf c93d 704f 21bd bc68 7ebd 5dd4 643e
000003d0: 522f 523c 22a6 8abd d8d8 2cbe 7620 cc3d
000003e0: 962b 883d d985 7e3e db1f 2fbc 4bed 17be
000003f0: 9952 a6bd 1a61 03bd 52c7 68be 5fa1 b3bd

feature_extractor.joint_encoder.2.bias f4 [10]
0.048997466 -0.07807111 -0.026813935 0.08588586 0.04985629 -0.17843497 0.016314626 -0.14881518
-0.10166476 -0.100461125
00000000: 91b1 483d bfe3 9fbd e6a8 dbbc ede4 af3d
00000010: 1c36 4c3d a8b7 36be 40a6 853c 0263 18be
00000020: 9d35 d0bd 90be cdbd
