hbbops_improved_5/results/10x25/gp_model_final.pt (torch, 630653 bytes, 29 tensors)

deep_kernel.base_kernel.raw_lengthscale f4 [1, 10]
-0.07346255 -0.06419474 -0.072695605 -0.08324135 -0.082618944 -0.07518018 -0.07922212 -0.07595472
-0.058304954 -0.07543236
00000000: 8973 96bd 8878 83bd 6fe1 94bd 717a aabd
00000010: 1f34 a9bd 11f8 99bd 353f a2bd 268e 9bbd
00000020: 2dd1 6ebd 487c 9abd

fidelity_kernel.covar_factor f4 [15, 3]
-0.11079949 -0.2262217 -0.65637654 0.82745546 -0.50857776 0.89921063 0.6271626 -0.40298977
-0.035286274 0.16279536 -0.3587444 0.39852455 -0.045948572 -0.46761543 -0.13395801 0.8783803
0.9213761 -1.5286673 -2.0820813 0.12255065 -1.1763573 0.012745709 -0.040689666 -0.34276316
-2.2322326 1.6788434 -0.9614056 1.6471694 -0.3606615 -0.3916822 -0.33247924 1.3188144
-0.98837686 0.4400591 -0.7370704 0.66832584 0.16706769 -0.66739875 3.3441706 0.22450855
1.9743258 0.8351539 -0.28204635 -0.43317994 -2.3718388
00000000: d8ea e2bd a9a6 67be 4b08 28bf 1fd4 533f
00000010: 2732 02bf ab32 663f ba8d 203f ad54 cebe
00000020: 5788 10bd d4b3 263e 59ad b7be 690b cc3e
00000030: 9234 3cbd 4a6b efbe 4a2c 09be 88dd 603f
00000040: 4edf 6b3f 5fab c3bf d240 05c0 d6fb fa3d
00000050: e092 96bf 61d3 503c 35aa 26bd a77e afbe
00000060: e6dc 0ec0 57e4 d63f ad1e 76bf 72d6 d23f
00000070: a0a8 b8be 928a c8be b83a aabe e9ce a83f
00000080: 4406 7dbf 6d4f e13e a5b0 3cbf 6717 2b3f
00000090: cb13 2b3e a5da 2abf e406 5640 92e5 653e
000000a0: b5b6 fc3f a5cc 553f 6168 90be c3c9 ddbe
000000b0: 35cc 17c0

fidelity_kernel.raw_var f4 [15]
-1.2122571 -0.16757075 0.62210035 -1.0847238 1.1138055 0.97554666 0.06523652 -0.18774685
-0.7004781 -0.54848546 -0.2208421 -0.05671727 0.51013994 -0.07973263 0.3233424
00000000: 3e2b 9bbf ab97 2bbe f841 1f3f 3bd8 8abf
00000010: 2e91 8e3f 6dbd 793f b99a 853d b640 40be
00000020: 8852 33bf 8b69 0cbf 6e24 62be 5e50 68bd
00000030: 8898 023f dc4a a3bd 238d a53e

feature_extractor.instruction_encoder.0.weight f4 [64, 768]
0.0351327 -0.027925069 -0.027696526 -0.02491293 0.006955276 -0.020862792 0.00025278318 0.010543422
-0.005491074 -0.02820237 0.014984972 0.0039948123 0.027953671 -0.0004980728 0.012213608 0.03588124
0.020920597 0.0120154265 0.027154552 -0.02664559 0.012180628 -0.026426306 0.004525109 -0.008470295
-0.027120648 0.023877634 0.006213888 -0.029917516 -0.033233564 0.004843685 0.022558914 0.014129259
0.022538332 0.026885094 -0.018125163 -0.017381625 0.0048733884 0.007876121 -0.01342004 -0.024610147
-0.022798087 -0.023565061 -0.031746853 0.010757927 0.0039095357 -0.0020033661 0.035422835 0.013421072
-0.0075398176 -0.010129763 0.006780618 -0.027300851 0.02142116 0.012090765 0.02185274 -0.0003209249
-0.008560423 0.028596856 0.002824859 0.006950445 -0.02261526 -0.010363487 0.0051450273 -0.025226979
-0.029225698 0.00442074 -0.030692283 -0.029433936 -0.0049339253 -0.03342579 -0.0028803884 0.00107708
0.0007849054 -0.02801249 -0.03021269 -0.02157636 0.028438054 -0.035121117 -0.013812323 -0.013392149
-0.015966054 -0.030553034 -0.027043434 0.018264623 0.011253907 0.020241145 0.028501153 0.025623519
0.0033295234 -0.0036491475 -0.014486158 0.033009112 0.014437482 -0.029858401 -0.024637917 0.013484967
0.033604156 0.01019054 0.0056010596 -0.0064501767 0.0012517973 -0.0033494704 -0.011818612 0.03103832
-0.029101122 0.012455586 -0.006690885 -0.029613176 0.021360675 0.03183811 -0.02406397 0.0042690625
0.0017290729 -0.016725026 -0.013703202 0.031312816 0.030213133 0.032234695 -0.01770112 -0.018611725
-0.0023496875 -0.0072347694 -0.023636412 -0.013946731 -0.025409348 -0.0028070977 0.0022924407 0.03234547
0.002075261 -0.0137931835 0.0063088397 0.0071114753 -0.025255676 -0.023666462 0.021749564 0.021103747
0.014141623 0.033429798 0.033841684 0.029930947 -0.020240726 0.018278325 -0.026955545 -0.027027685
0.0073593166 0.013084597 0.029376926 0.0008986997 -0.014243882 -0.00873794 0.021775115 0.00071588333
-0.016447376 0.032472443 -0.015488803 0.00580734 -0.003440913 -0.03121192 -0.022680571 0.012879897
0.035626892 0.034748822 -0.0013316239 -0.013272077 -0.015319065 0.030515634 0.035202738 -0.002361978
0.004934711 0.0055624666 0.006317716 -0.02313604 -0.03026446 -0.014743153 -0.03188146 -0.031807937
-0.025152542 -0.027981889 -0.035810057 0.03364911 0.028156085 -0.005864926 -0.019626312 -0.02539541
0.020882066 0.018391922 -0.0016280026 -0.034880728 0.02004939 -0.016873457 -0.019772554 -0.003086218
0.00821406 0.007237999 0.0012762835 -0.0086338995 0.032625932 0.007498408 -0.0067028916 0.006296343
-0.032456554 -0.022352085 -0.01556395 -0.01576489 -0.029455937 -0.017277837 0.016314805 0.013710351
-0.019269392 -0.013762249 0.0028630868 -0.0021704696 -0.028205847 0.0032226301 -0.008334206 -0.02329437
-0.031179272 0.01211733 -0.020225622 -0.028624544 -0.0134446 -0.032851487 -0.025361469 -0.0098186415
0.020196583 -0.00074249075 -0.02268146 -0.017823098 0.0053046593 -0.013173591 -0.015051967 -0.027949085
0.016286403 0.028251445 0.026397236 -0.026550869 0.0047097243 -0.02443438 -0.018514756 0.030288868
0.028759483 -0.02576341 0.010292447 -0.0074771903 0.024140578 -0.0013173454 -0.035083275 0.019655278
0.016898718 0.026082555 0.01370519 -0.0058326283 -0.033233203 -0.021033045 -0.003561192 -0.022760808
00000000: 4ee7 0f3d 1dc3 e4bc d3e3 e2bc 3316 ccbc
00000010: 15e9 e33b 72e8 aabc fc87 8439 51be 2c3c
00000020: 78ee b3bb a808 e7bc 8783 753c eae6 823b
00000030: 19ff e43c 1a91 02ba 961b 483c 35f8 123d
00000040: ac61 ab3c 5adc 443c 3973 de3c da47 dabc
00000050: 4291 473c fb7b d8bc 5e47 943b fec6 0abc
00000060: 1f2c debc 079b c33c df9d cb3b 9415 f5bc
00000070: eb1f 08bd c6b7 9e3b 79cd b83c 687e 673c
00000080: 4fa2 b83c 213e dc3c 397b 94bc e963 8ebc
00000090: f2b0 9f3b d90a 013c badf 5bbc 389b c9bc
000000a0: 0ec3 babc 840b c1bc fd08 02bd 0442 303c
000000b0: 901b 803b e84a 03bb 8917 113d 0ee4 5b3c
000000c0: 9310 f7bb 4ef7 25bc f22f de3b 09a6 dfbc
000000d0: 6e7b af3c 5818 463c 8404 b33c d041 a8b9
000000e0: 0441 0cbc f443 ea3c 4521 393b 8fc0 e33b
000000f0: a343 b9bc 9dcb 29bc 9e97 a83b cfa8 cebc
00000100: bb6a efbc dbdb 903b 626e fbbc 701f f1bc
00000110: c4ac a1bb 7be9 08bd e6c4 3cbb cf2c 8d3a
00000120: 1cc2 4d3a 737a e5bc 9a80 f7bc e8c0 b0bc
00000130: ecf6 e83c 29db 0fbd 154d 62bc be6a 5bbc
00000140: 3ecb 82bc 5b4a fabc 318a ddbc b19f 953c
00000150: 4f62 383c c2d0 a53c 407b e93c 6ae8 d13c
00000160: 2234 5a3b 8926 6fbb 5a57 6dbc 9034 073d
00000170: 308b 6c3c 9b99 f4bc 75d5 c9bc 0df0 5c3c
00000180: 83a4 093d 39f6 263c 1889 b73b 015c d3bb
00000190: 5913 a43a ca82 5bbb daa2 41bc 1344 fe3c
000001a0: 7a65 eebc 8412 4c3c 363f dbbb 5597 f2bc
000001b0: 95fc ae3c ae68 023d ce21 c5bc 7ee3 8b3b
000001c0: 0fa2 e23a ec02 89bc 6583 60bc de41 003d
000001d0: 8881 f73c 8708 043d f001 91bc 9e77 98bc
000001e0: 37fd 19bb a511 edbb 26a1 c1bc d480 64bc
000001f0: 4427 d0bc 49f7 37bb c63c 163b af7c 043d
00000200: 1a01 083b cefc 61bc 62ba ce3b 6107 e93b
00000210: fee4 cebc 2be0 c1bc 242c b23c c4e1 ac3c
00000220: 44b2 673c afed 083d 949d 0a3d bf31 f53c
00000230: e1cf a5bc 6dbc 953c e0d1 dcbc 2a69 ddbc
00000240: 6c26 f13b c760 563c e1a7 f03c b796 6b3a
00000250: 2c5f 69bc 9429 0fbc ba61 b23c 1eaa 3b3a
00000260: a6bc 86bc d301 053d c0c4 7dbc 804b be3b
00000270: f180 61bb 24b0 ffbc 9bcc b9bc 3406 533c
00000280: 81ed 113d c854 0e3d e289 aeba 2073 59bc
00000290: d1fc 7abc ecfb f93c bf30 103d 6acb 1abb
000002a0: 5bb3 a13b 5a45 b63b d804 cf3b cb87 bdbc
000002b0: 2ced f7bc 448d 71bc 2296 02bd 0a49 02bd
000002c0: b40c cebc 463a e5bc 91ad 12bd a6d3 093d
000002d0: 97a7 e63c 912e c0bb 5cc7 a0bc 090a d0bc
000002e0: de10 ab3c a8aa 963c b462 d5ba 18df 0ebd
000002f0: 9e3e a43c 343a 8abc 0dfa a1bc 2542 4abb
00000300: 4494 063c bc2c ed3b f848 a73a 3375 0dbc
00000310: c5a2 053d 35b5 f53b eea3 dbbb 8e51 ce3b
00000320: 2af1 04bd b81b b7bc f0ff 7ebc 5f25 81bc
00000330: 944d f1bc 408a 8dbc a0a6 853c 61a1 603c
00000340: d8da 9dbc 0e7b 61bc a0a2 3b3b 703e 0ebb
00000350: f30f e7bc c332 533b 328c 08bc d6d3 bebc
00000360: ac6b ffbc c487 463c 34b0 a5bc 057e eabc
00000370: bd46 5cbc 488f 06bd dbc2 cfbc 5ede 20bc
00000380: 4e73 a53c b6a3 42ba 78ce b9bc bf01 92bc
00000390: b5d2 ad3b 0cd6 57bc 879c 76bc 7bf5 e4bc
000003a0: 106b 853c 936f e73c 043f d83c 3581 d9bc
000003b0: 0854 9a3b 9c2a c8bc 42ac 97bc 5c20 f83c
000003c0: 0299 eb3c c90d d3bc a7a1 283c 3803 f5bb
000003d0: 76c2 c53c c7aa acba 7bb3 0fbd 1b04 a13c
000003e0: 2e6f 8a3c 15ab d53c bc8b 603c a21f bfbb
000003f0: 8a1f 08bd 7e4d acbc e362 69bb e074 babc

feature_extractor.instruction_encoder.0.bias f4 [64]
0.010978571 -0.03387832 0.027219452 0.081817225 0.03441091 -0.04031374 -0.021499254 -0.04919333
-0.0038319852 0.038644366 0.01022764 -0.060941454 0.017645892 -0.032592714 0.048943307 -0.079710625
-0.050389078 0.022934023 -0.051454745 -0.06487151 0.0060715163 -0.05169863 -0.039202936 -0.028339006
0.0759597 -0.037585694 0.056017302 0.023868032 0.011860986 0.06335225 0.09728195 -0.032264635
0.031562142 0.016640974 -0.030947937 -0.03442488 -0.017264597 -0.015569446 -0.04148218 0.013034804
-0.027610857 -0.02625323 0.047245666 -0.016030567 0.012507545 -0.021749657 -0.01821425 0.05345077
-0.054580223 0.07425908 -0.007085878 -0.032799616 -0.022289218 -0.08267762 -0.021394618 0.025190884
-0.04683181 -0.033367075 0.025364358 0.07498979 -0.003247258 -0.050691772 -0.08135083 -0.05084701
00000000: 77df 333c fec3 0abd 54fb de3c ca8f a73d
00000010: 74f2 0c3d 0520 25bd 341f b0bc f27e 49bd
00000020: 0b22 7bbb 8e49 1e3d d591 273c bf9d 79bd
00000030: 1e8e 903c f07f 05bd c778 483d 533f a3bd
00000040: c764 4ebd 22e0 bb3c 36c2 52bd 5bdb 84bd
00000050: 92f3 c63b f1c1 53bd 4293 20bd 3427 e8bc
00000060: c290 9b3d 75f3 19bd 6672 653d e486 c33c
00000070: 9554 423c d3be 813d c23b c73d ec27 04bd
00000080: 4e47 013d a752 883c 8786 fdbc 1a01 0dbd
00000090: 7c6e 8dbc fd16 7fbc 38e9 29bd ee8f 553c
000000a0: 2a30 e2bc 0411 d7bc ac84 413d 8952 83bc
000000b0: 72ec 4c3c 562c b2bc 0d36 95bc 32ef 5a3d
000000c0: 838f 5fbd 2515 983d a730 e8bb e458 06bd
000000d0: e197 b6bc e252 a9bd c443 afbc 1d5d ce3c
000000e0: b6d2 3fbd eaab 08bd eac8 cf3c 3f94 993d
000000f0: f3cf 54bb 2da2 4fbd 449b a6bd f444 50bd

feature_extractor.instruction_encoder.2.weight f4 [32, 64]
0.06338338 0.057383373 0.041307636 -0.08102254 -0.07486678 -0.011986261 -0.05992381 0.068859614
0.10413202 0.10366777 0.09006972 -0.11582868 0.036040545 0.11917364 0.08802778 -0.07888438
-0.04033718 0.07426683 -0.07155679 -0.06918342 0.081248105 -0.007548902 0.08896051 -0.011751548
0.0032873924 0.12284706 0.014633736 -0.14409205 -0.077453636 0.11208938 -0.101227365 -0.17564663
-0.12862739 -0.007898396 0.02888422 -0.10208873 0.016729241 0.08001638 0.023665648 0.08024736
-0.06237149 -0.061995298 0.12599099 0.0021312872 -0.025358545 0.15114284 0.065786965 -0.1480061
-0.05182192 0.18104552 0.0069473917 0.041066103 -0.03936451 -0.015370373 -0.046507616 -0.08279065
0.101965934 -0.14791253 0.17637753 0.07212224 -0.08628027 -0.17027809 -0.03921068 -0.06189617
-0.08957007 0.06802963 -0.077258416 -0.06985066 -0.053849194 0.15890376 0.10713448 -0.05224692
0.06523059 -0.13636722 0.028005905 -0.07566714 -0.101424836 0.07908287 0.071319655 -0.10134122
0.032046717 0.041240156 -0.014621592 0.04700066 0.10154773 0.048264395 0.017621815 -0.09911688
-0.03008642 -0.0059524705 -0.03521783 -0.12715738 -0.059830666 0.00029665718 -0.06745524 -0.028408611
-0.005449556 0.033350807 -0.099099025 0.08426814 -0.11193186 -0.0062761875 -0.123628795 -0.06437523
0.0777778 0.058742095 -0.07794048 0.104467385 0.024065355 -0.037098646 0.018411748 0.026146745
-0.011062642 0.011833388 -0.08688312 -0.021445183 -0.0010979266 0.17232375 0.070290625 -0.050517377
0.100722246 0.011070257 -0.06546755 0.07042599 0.007919364 0.15458803 -0.1345573 -0.011340981
-0.105889075 -0.07862095 -0.11696245 0.09269028 0.07791001 -0.11379143 -0.030247966 0.058302883
0.09852604 0.028631411 0.07698431 -0.07944071 0.04042621 -0.008504238 -0.068828635 0.02201772
0.004358014 0.10227663 -0.0006280376 0.009366046 -0.04064728 0.10493946 -0.17170423 0.035077732
0.02165603 -0.094353005 -0.040380068 -0.09754754 0.11007575 -0.09510818 0.08034465 -0.07480441
-0.18732853 -0.071594544 -0.09802883 0.08266664 -0.06272958 -0.054843962 0.0045679538 -0.12725589
0.022339473 -0.117537566 -0.03489987 -0.07060586 -0.06691539 0.05572538 0.075465105 0.058241192
-0.03929926 0.036610372 0.12061773 -0.16797401 -0.03304922 -0.12923689 0.08490916 0.086417034
-0.0021086931 0.003328632 0.13154624 0.11762478 0.107236184 -0.15796739 -0.002967641 0.038856763
-0.11478304 0.023200832 0.10620741 0.017972922 -0.06878166 -0.109456696 -0.057987966 -0.07192468
-0.047522254 -0.17283377 -0.16641195 0.03750562 -0.08219254 -0.121910974 -0.052165743 -0.022616798
0.063426726 -0.03641491 -0.06621581 0.0537993 0.08888846 -0.11343371 -0.08774831 -0.04241206
-0.1158332 0.10666936 -0.07758561 0.024447877 -0.048194364 0.03663577 0.0004330822 0.070351966
-0.08456629 -0.11566315 0.059382588 -0.09567935 -0.13416168 -0.09646305 0.027303126 -0.02495452
-0.08896739 0.11194742 0.057928633 0.0392396 -0.08857324 -0.05054652 0.059928045 -0.12456673
-0.0018210042 -0.017911606 -0.05976892 -0.09164748 -0.11803622 -0.010357649 -0.015962215 0.008479563
0.05971996 -0.032076456 -0.16510929 -0.17430513 0.10913248 -0.036210246 0.026683964 -0.17083038
00000000: 25cf 813d d40a 6b3d 3232 293d 25ef a5bd
00000010: c153 99bd 0662 44bc ab72 75bd 4506 8d3d
00000020: 2b43 d53d c54f d43d 7976 b83d 9637 edbd
00000030: 409f 133d 4f11 f43d e947 b43d 228e a1bd
00000040: 9938 25bd 3519 983d 5e8c 92bd 09b0 8dbd
00000050: 6865 a63d c85c f7bb ee30 b63d 9189 40bc
00000060: 4b71 573b 3d97 fb3d 56c2 6f3c de8c 13be
00000070: 03a0 9ebd 1e8f e53d 4b50 cfbd b6dc 33be
00000080: e6b6 03be 4668 01bc 9a9e ec3c e513 d1bd
00000090: c30b 893c a1df a33d 76de c13c ba58 a43d
000000a0: 3f79 7fbd c8ee 7dbd c803 013e 11ad 0b3b
000000b0: b9bc cfbc 30c5 1a3e 51bb 863d e98e 17be
000000c0: 3943 54bd ff63 393e f2a6 e33b ee34 283d
000000d0: ae3c 21bd 04d4 7bbc c57e 3ebd 258e a9bd
000000e0: 84d3 d03d 6276 17be 509c 343e d3b4 933d
000000f0: b6b3 b0bd 615d 2ebe 619b 20bd d786 7dbd
00000100: 8370 b7bd 1e53 8b3d a939 9ebd dd0d 8fbd
00000110: f990 5cbd abb7 223e 5269 db3d de00 56bd
00000120: 9e97 853d d9a3 0bbe a46c e53c 60f7 9abd
00000130: d3b7 cfbd 33f6 a13d 0a10 923d fc8b cfbd
00000140: 6b43 033d 70eb 283d 678f 6fbc c483 403d
00000150: 42f8 cf3d e3b0 453d a05b 903c cafd cabd
00000160: cc77 f6bc f10c c3bb 9240 10bd 8b35 02be
00000170: 0011 75bd a788 9b39 f925 8abd 2db9 e8bc
00000180: 3092 b2bb db9a 083d 6ef4 cabd c694 ac3d
00000190: 883c e5bd 7aa8 cdbb 1831 fdbd 29d7 83bd
000001a0: f849 9f3d 8d9b 703d 429f 9fbd fff2 d53d
000001b0: b524 c53c c0f4 17bd 3cd4 963c b331 d63c
000001c0: 1540 35bc d4e0 413c c7ef b1bd cfad afbc
000001d0: 4ee8 8fba a375 303e 88f4 8f3d 4feb 4ebd
000001e0: 7747 ce3d 0660 353c da13 86bd 803b 903d
000001f0: 38c0 013c 534c 1e3e 64c9 09be 86cf 39bc
00000200: 5fdc d8bd 0504 a1bd 028a efbd 67d4 bd3d
00000210: 498f 9f3d 7b0b e9bd 95ca f7bc 01cf 6e3d
00000220: 05c8 c93d 6c8c ea3c f3a9 9d3d d0b1 a2bd
00000230: f495 253d 5c55 0bbc 07f6 8cbd 815e b43c
00000240: accd 8e3b 6976 d13d e4a2 24ba 0b74 193c
00000250: c37d 26bd 80ea d63d 3cd3 2fbe abad 0f3d
00000260: fd67 b13c 263c c1bd 9265 25bd 01c7 c7bd
00000270: 656f e13d 14c8 c2bd bc8b a43d 0e33 99bd
00000280: 0dd3 3fbe 29a0 92bd 57c3 c8bd 214d a93d
00000290: 5e78 80bd 10a4 60bd c6ae 953b 5e4f 02be
000002a0: 4501 b73c 89b7 f0bd 2bf3 0ebd ce99 90bd
000002b0: f00a 89bd 4c40 643d 738d 9a3d 518e 6e3d
000002c0: 43f8 20bd c2f4 153d 6e06 f73d 6101 2cbe
000002d0: 9e5e 07bd ad56 04be dbe4 ad3d 6afb b03d
000002e0: 0032 0abb 2e25 5a3b 0fb4 063e 43e5 f03d
000002f0: a59e db3d 34c2 21be c17c 42bb 4528 1f3d
00000300: 5f13 ebbd ac0f be3c 4583 d93d f33b 933c
00000310: 66dd 8cbd d52a e0bd ca84 6dbd 3f4d 93bd
00000320: b2a6 42bd 56fb 30be e567 2abe 7e9f 193d
00000330: 9054 a8bd 76ac f9bd bfab 55bd dd46 b9bc
00000340: dfe5 813d cd27 15bd 289c 87bd a85c 5c3d
00000350: 270b b63d ef4f e8bd 63b5 b3bd 45b8 2dbd
00000360: f539 edbd 7775 da3d 34e5 9ebd ea46 c83c
00000370: 7467 45bd 640f 163d 4f0f e339 b114 903d
00000380: 1731 adbd cde0 ecbd 283b 733d 89f3 c3bd
00000390: ae61 09be 6b8e c5bd ceaa df3c 6c6d ccbc
000003a0: 8934 b6bd b044 e53d 9346 6d3d b4b9 203d
000003b0: e365 b5bd de09 4fbd 1c77 753d d71c ffbd
000003c0: c3ae eeba 5cbb 92bc 41d0 74bd adb1 bbbd
000003d0: f9bc f1bd 21b3 29bc 31c3 82bc dded 0a3c
000003e0: eb9c 743d 9a62 03bd 6912 29be 0b7d 32be
000003f0: da80 df3d 3251 14bd 5498 da3c 29ee 2ebe

feature_extractor.instruction_encoder.2.bias f4 [32]
0.030524878 0.08927504 -0.016475955 -0.029492918 -0.17271553 -0.061717723 0.004501943 0.034222882
0.014642153 -0.17135316 -0.0028524762 0.10542299 -0.16611528 -0.06804299 -0.098464765 -0.15518875
0.13846765 0.031245565 0.1596072 0.15138188 -0.13839424 -0.17150193 0.10736171 -0.07433738
0.048479654 0.06198474 -0.1190532 -0.03797375 -0.060464337 0.057007693 0.097150765 0.085603215
00000000: 4f0f fa3c d5d5 b63d 95f8 86bc 229b f1bc
00000010: 57dc 30be b9cb 7cbd 0985 933b 4b2d 0c3d
00000020: a4e5 6f3c 3477 2fbe 9cf0 3abb 02e8 d73d
00000030: 201a 2abe 205a 8bbd e5a7 c9bd cde9 1ebe
00000040: 77ca 0d3e b3f6 ff3c 1270 233e da03 1b3e
00000050: 38b7 0dbe 349e 2fbe 75e0 db3d 323e 98bd
00000060: 9a92 463d b6e3 7d3d 2ad2 f3bd 5d8a 1bbd
00000070: 74a9 77bd e680 693d fbf6 c63d bd50 af3d

feature_extractor.exemplar_encoder.0.weight f4 [64, 768]
-0.041658737 0.06943259 -0.050770324 0.07070165 -0.07529552 0.058763955 0.0811397 0.05212052
-0.021301711 0.06663947 -0.025308749 -0.021798508 -0.0028672777 0.029553687 0.06819651 -0.006725329
0.054605052 0.05018513 -0.0028036821 0.08279036 0.06535533 -0.005581985 0.062786035 0.08184834
-0.0063114455 0.07065797 0.08000725 -0.0072716 0.007354267 0.043324526 0.050431546 0.030571882
0.075870566 0.06542777 0.078936845 -0.031053225 0.036767397 -0.057318475 0.076966085 0.060147736
0.05010251 0.037648004 0.031166907 0.045695864 0.084676385 0.014260596 0.04532632 0.01362135
-0.01502553 0.10054167 0.07837955 0.08074901 0.034715142 0.06968001 0.08168165 -0.009947845
0.050322015 0.06768253 0.06046943 0.07233326 -0.08473594 0.039512847 -0.034337696 0.018194783
0.042282593 0.04746584 0.0062211263 0.010678076 -0.052702017 -0.035547994 0.067490555 0.078349054
0.051899962 -0.01341234 0.010692368 0.07369943 0.026634444 0.053418994 0.060288038 -0.06948376
0.07026803 0.006481013 -0.025727564 0.02929192 -0.022332054 0.069197245 0.060164604 0.025806956
0.086185925 0.039576843 0.044352416 0.080072545 0.060995243 0.053651545 0.03417113 -0.06279094
0.05955775 0.030817725 0.07515432 -0.046880193 0.0007857219 0.049949657 0.09850525 0.028650383
-0.026601767 0.02745069 -0.015867613 0.0091156 0.059083685 0.03883469 0.07211389 0.021133445
-0.046248104 -0.02177413 -0.0038206286 0.03982207 0.02654864 0.029014573 0.028913084 0.043559246
0.059857402 0.05858562 0.079952404 0.093903266 -0.030329594 0.07812627 0.011821505 -0.02343364
0.055191282 0.032675557 -0.021956285 0.0671839 0.09110427 0.019429954 0.059463173 0.052805983
0.03000368 0.022505086 0.042971965 0.0011211442 -0.07662765 0.029463567 0.082900606 -0.028811926
0.0906122 -0.036124457 0.0462108 0.06308871 0.05060627 0.054569818 0.03423502 -0.08771923
0.026451226 0.06004038 0.023751546 0.009832804 0.016763497 0.08667001 0.05570301 0.026786271
-0.0019844268 -0.09625095 0.073115334 0.060026526 0.06566829 0.018352587 -0.013675479 0.03261455
0.06014332 0.09404758 0.08205344 0.0063003646 0.050378844 -0.06647495 0.027686639 0.066948615
0.032146048 -0.07053796 0.08399468 0.041390926 0.09338929 0.04681565 -0.050973143 0.102544956
0.0017097779 -0.006299417 0.10010161 0.010002624 0.045544386 0.041663043 -0.008366714 -0.01738954
0.06382466 0.047742084 0.078336015 0.0665782 0.064726524 0.06709116 0.09791157 0.022556674
-0.028793558 0.077135734 0.05949445 0.06574924 -0.017856026 0.04221622 0.056911986 0.07201331
0.04499388 0.024653899 0.05138954 0.045706403 0.009488782 -0.014166879 0.04675328 0.08742576
-0.027389022 0.040945765 0.0078588445 -0.020473458 0.027182905 -0.013498801 0.02160634 0.041810453
0.08139968 0.06281432 -0.034543924 0.002580794 0.04675563 0.049531747 0.025608616 -0.060678314
0.07541624 0.04718841 0.07227288 0.024606248 0.07065164 0.05540188 0.09832657 0.036424905
0.0376783 0.0839433 0.037102036 0.06971717 -0.039506532 0.046208072 0.10148715 0.046056055
0.05107869 0.09915449 0.07957091 0.030401789 0.027399065 0.05002007 0.05308477 0.043641806
00000000: 5aa2 2abd ac32 8e3d 8bf4 4fbd 07cc 903d
00000010: 8a34 9abd 79b2 703d 922c a63d 547c 553d
00000020: ed80 aebc 467a 883d 4b54 cfbc c992 b2bc
00000030: f0e8 3bbb 931a f23c 9daa 8b3d 2660 dcbb
00000040: 8ca9 5f3d ec8e 4d3d fbbd 37bb fe8d a93d
00000050: 04d9 853d 16e9 b6bb f795 803d 1aa0 a73d
00000060: 3ed0 cebb 20b5 903d d7da a33d 9a46 eebb
00000070: 10fc f03b 0f75 313d 4f91 4e3d e271 fa3c
00000080: 0762 9b3d fffe 853d a4a9 a13d 5563 febc
00000090: 6999 163d c7c6 6abd 65a0 9d3d 795d 763d
000000a0: 4a38 4d3d cb34 1a3d be51 ff3c 962b 3b3d
000000b0: d06a ad3d 46a5 693c 17a8 393d 152c 5f3c
000000c0: a42d 76bc cbe8 cd3d 7585 a03d bd5f a53d
000000d0: 7731 0e3d 65b4 8e3d b548 a73d 49fc 22bc
000000e0: 751e 4e3d 239d 8a3d cbae 773d 7623 943d
000000f0: 098a adbd 39d8 213d afa5 0cbd 3a0d 953c
00000100: 8330 2d3d 8a6b 423d 97da cb3b 19f3 2e3c
00000110: 12de 57bd c69a 11bd 7d38 8a3d 7875 a03d
00000120: 0e95 543d 6ebf 5bbc 0b2f 2f3c baef 963d
00000130: 7a30 da3c e0cd 5a3d 97f0 763d 804d 8ebd
00000140: afe8 8f3d ad5e d43b 9dc2 d2bc 9cf5 ef3c
00000150: b6f1 b6bc 49b7 8d3d 296f 763d 1c69 d33c
00000160: 3f82 b03d 541b 223d e1aa 353d 13fd a33d
00000170: 26d6 793d b9c1 5b3d 07f7 0b3d 8998 80bd
00000180: d4f2 733d 7475 fc3c 82ea 993d 7205 40bd
00000190: e7f8 4d3a 0398 4c3d 1fbd c93d 35b4 ea3c
000001a0: f3eb d9bc 45e0 e03c ccfc 81bc 9959 153c
000001b0: bc01 723d 2011 1f3d 72b0 933d 0c20 ad3c
000001c0: a76e 3dbd a95f b2bc 8363 7abb 781c 233d
000001d0: 897c d93c f8af ed3c 22db ec3c 2e6b 323d
000001e0: 092d 753d 7af7 6f3d 16be a33d 5b50 c03d
000001f0: c575 f8bc aa00 a03d fcae 413c e8f7 bfbc
00000200: 4110 623d ced6 053d abdd b3bc b697 893d
00000210: e094 ba3d 912b 9f3c a88f 733d 164b 583d
00000220: 47ca f53c 965c b83c 5f03 303d 5bf3 923a
00000230: f5ee 9cbd 945d f13c cbc7 a93d fd06 ecbc
00000240: e492 b93d 3df7 13bd 8947 3d3d a734 813d
00000250: 8548 4f3d 9a84 5f3d 053a 0c3d 24a6 b3bd
00000260: 3eb0 d83c e7ec 753d 9a92 c23c c519 213c
00000270: 9a53 893c 0c80 b13d d728 643d e26e db3c
00000280: 280d 02bb 381f c5bd 7ebd 953d 60de 753d
00000290: 197d 863d 2a58 963c 1e0f 60bc d696 053d
000002a0: d858 763d 059c c03d a20b a83d 4a73 ce3b
000002b0: 0c5a 4e3d 0524 88bd 17cf e23c 5b1c 893d
000002c0: 93ab 033d 3576 90bd 6705 ac3d 8889 293d
000002d0: e242 bf3d c4c1 3f3d 37c9 50bd 1703 d23d
000002e0: a01a e03a 576b cebb 1302 cd3d 0ce2 233c
000002f0: c08c 3a3d dea6 2a3d 8b14 09bc 8274 8ebc
00000300: 81b6 823d 348d 433d a26e a03d 275a 883d
00000310: 578f 843d 1767 893d dc85 c83d c6c8 b83c
00000320: 78e0 ebbc 57f9 9d3d 74b0 733d 8aa7 863d
00000330: cd46 92bc eaea 2c3d 8b1c 693d b77b 933d
00000340: 814b 383d f9f6 c93c d77d 523d a336 3b3d
00000350: d676 1b3c 321c 68bc 5e80 3f3d 470c b33d
00000360: f15e e0bc bfb6 273d 62c2 003c f4b7 a7bc
00000370: afae de3c 132a 5dbc c7ff b03c 7041 2b3d
00000380: e0b4 a63d cba4 803d ee7d 0dbd 8a22 293b
00000390: d582 3f3d cde1 4a3d 29c9 d13c d389 78bd
000003a0: d473 9a3d a248 413d ce03 943d 0b93 c93c
000003b0: cfb1 903d 15ed 623d 715f c93d 4832 153d
000003c0: 9054 1a3d 77ea ab3d 4ef8 173d e0c7 8e3d
000003d0: 9ad1 21bd ad44 3d3d 7fd8 cf3d 46a5 3c3d
000003e0: e337 513d 8211 cb3d 13f6 a23d 2c0d f93c
000003f0: 0174 e03c d8e1 4c3d 6a6f 593d c0c1 323d

feature_extractor.exemplar_encoder.0.bias f4 [64]
0.029672502 -0.037041478 0.058849767 0.0130007 -0.055442397 0.042594645 0.023501137 -0.04862809
-0.055028457 0.009211458 0.024321074 -0.06580824 -0.058985766 -0.029693663 -0.07926233 0.0797638
0.0050561614 0.07217324 0.03256656 0.07417179 -0.046635136 0.05510519 0.059986047 -0.067001715
0.06859157 0.034317963 -0.08668574 -0.020818548 -0.053826068 -0.061722808 -0.05389291 -0.044791397
0.055722687 0.04139455 -0.068541124 -0.01711696 -0.026308509 0.05159887 0.08880264 -0.023060221
0.07008931 0.044476725 -0.06519946 0.013885061 -0.02889826 -0.070716955 0.047199007 -0.056426212
0.090746425 -0.060419485 0.034695774 0.029420612 0.034663923 -0.02969361 -0.072393514 -0.03464701
-0.05543731 0.04047349 -0.003371015 0.049097918 0.038133312 -0.03588183 -0.06168498 0.04873888
00000000: bf13 f33c ceb8 17bd 740c 713d e300 553c
00000010: 9117 63bd b977 2e3d 7585 c03c 402e 47bd
00000020: 8565 61bd a8eb 163c fd3c c73c 78c6 86bd
00000030: 0f9b 71bd 2040 f3bc 4a54 a2bd 345b a33d
00000040: 28ae a53b 90cf 933d 8364 053d 61e7 973d
00000050: 7c04 3fbd fbb5 613d eeb3 753d 3238 89bd
00000060: bd79 8c3d fe90 0c3d 4b88 b1bd a98b aabc
00000070: b978 5cbd 0ed1 7cbd d0be 5cbd 2f77 37bd
00000080: 793d 643d 558d 293d 4a5f 8cbd de38 8cbc
00000090: f184 d7bc 5659 533d 29de b53d cae8 bcbc
000000a0: fc8a 8f3d 3a2d 363d 4b87 85bd 2b7e 633c
000000b0: 0bbc ecbc 0dd4 90bd bf53 413d 2c1f 67bd
000000c0: 43d9 b93d 6c7a 77bd 281d 0e3d 7f03 f13c
000000d0: c2fb 0d3d 0340 f3bc 0d43 94bd 06ea 0dbd
000000e0: 3c12 63bd 88c7 253d 3fec 5cbb e61a 493d
000000f0: ad31 1c3d d3f8 12bd 64a9 7cbd 6ba2 473d

feature_extractor.exemplar_encoder.2.weight f4 [32, 64]
-0.13762537 -0.105335616 -0.060720094 -0.014554289 -0.0755982 -0.14206107 -0.06544919 -0.123400174
0.03346538 -0.103096634 0.050012697 0.00019039593 0.096855775 -0.116606034 0.038366813 -0.11392306
-0.10942317 0.066145174 0.045567438 0.07875244 -0.049301762 -0.043730926 -0.084008366 -0.0097260205
-0.04896954 -0.14975208 -0.03061937 0.038684145 0.02303907 -0.12035279 0.05897307 0.023296734
-0.09346242 -0.075652115 -0.07611701 -0.027428783 0.0062989537 -0.12454188 -0.061026886 0.05655564
-0.00017952568 0.019943165 0.020732004 -0.16299652 0.113169484 -0.10584429 -0.054103456 -0.040544488
0.019324146 -0.058966316 -0.017298194 -0.120483704 -0.09795304 -0.071462706 -0.06024564 -0.018663667
-0.04075486 -0.0540411 0.031998467 0.035793763 -0.014835613 -0.09808257 0.026019014 0.05459811
-0.037071053 0.038666446 0.069041304 -0.038614858 0.11159308 0.15357038 0.025891522 -0.043896876
-0.07624527 0.045022268 0.14306559 -0.0040552667 0.040911168 -0.050526895 0.025884226 -0.07034959
-0.016753666 -0.042606104 -0.0083501395 0.027710384 0.11090422 -0.037978116 -0.01971851 -0.04943156
-0.021144168 0.15150091 -0.009217233 0.12291927 0.11059436 0.058002077 0.105244406 -0.044820543
0.06607582 0.007896383 0.0055263173 0.118853524 -0.082907304 0.143946 0.08292619 0.07785297
0.06648383 0.018984696 -0.062125765 0.032129213 0.0377581 -0.027476298 0.09602585 -0.07673972
0.022151954 0.039043143 0.028090695 -0.11423901 -0.038063236 -0.036033295 0.08182931 0.16856232
0.09441699 0.10507788 -0.022902464 -0.01847081 -0.023577608 -0.005332695 0.069237 -0.037939098
-0.0447009 0.12110057 0.01122012 -0.05475912 0.005883116 0.09373022 -0.030946605 -0.022203756
0.03844263 0.08331201 0.014873665 -0.08725603 -0.06618471 -0.013069411 0.022186952 0.031395264
-0.11927217 0.14417343 -0.046878103 0.037305456 -0.058529936 0.13836083 -0.015753392 -0.09580444
0.17699674 0.14534612 0.04852646 0.045650236 0.15683514 0.012910895 -0.014157193 0.09962027
0.15348153 0.1776698 -0.08436885 -0.023387566 0.02152395 0.18531966 0.08146245 0.08171412
-0.050114587 0.095822155 0.0056639626 -0.05924455 -0.16613063 0.038169414 -0.026783895 -0.16311732
0.09049022 -0.05929549 -0.045206383 0.06625629 0.03795693 0.11620824 0.09489503 0.1079338
0.12315474 0.021358224 0.025803283 -0.021349473 0.0797344 0.02117261 0.13035886 0.18185396
0.14688955 0.01921198 0.05255822 0.027753389 0.00068115006 -0.060151495 -0.118260935 -0.05483894
-0.05496634 0.043852355 -0.050746594 -0.08507148 0.008199342 -0.071062796 0.092365146 0.08127496
-0.074289225 0.16561455 -0.081107646 -0.030552313 -0.053598195 0.09528107 0.1678997 -0.109711856
0.074004315 0.08762216 0.09027105 -0.07126863 0.03638247 -0.023470603 -0.054051045 0.023744557
0.029804582 -0.03294009 -0.11290945 0.07760742 -0.011792633 0.04289687 0.08301302 -0.039592568
-0.008333026 0.06566496 -0.026426226 -0.15113544 0.056190174 0.08888612 0.032591343 -0.04007129
0.10037401 0.087460704 -0.10035916 0.07433249 -0.008013381 0.06263372 0.109210484 0.023756947
-0.008760476 0.007066943 0.024153272 0.17308828 0.11935594 -0.085227065 -0.069323815 0.15241045
00000000: aaed 0cbe 33ba d7bd a2b5 78bd 1d75 6ebc
00000010: 3bd3 9abd 7578 11be 3a0a 86bd 3bb9 fcbd
00000020: ff12 093d 5424 d3bd 1dda 4c3d 05a5 4739
00000030: 525c c63d 25cf eebd 8526 1d3d 7e50 e9bd
00000040: 4119 e0bd 1f77 873d eca4 3a3d f648 a13d
00000050: a5f0 49bd 331f 33bd 940c acbd e359 1fbc
00000060: 4994 48bd 9c58 19be 79d5 fabc 4473 1e3d
00000070: 6fbc bc3c 867b f6bd bf8d 713d cbd8 be3c
00000080: 3a69 bfbd 7fef 9abd 3ce3 9bbd 54b2 e0bc
00000090: 7467 ce3b d00f ffbd 54f7 79bd e3a6 673d
000000a0: 0f3f 3cb9 d95f a33c 2ad6 a93c 8fe8 26be
000000b0: 67c5 e73d e4c4 d8bd 969b 5dbd fa11 26bd
000000c0: ac4d 9e3c aa86 71bd f1b4 8dbc 29c0 f6bd
000000d0: 9a9b c8bd 0a5b 92bd 22c4 76bd 8ce4 98bc
000000e0: 91ee 26bd 335a 5dbd d310 033d 7b9c 123d
000000f0: 1211 73bc 84df c8bd d425 d53c 45a2 5f3d
00000100: d1d7 17bd b560 1e3d 8765 8d3d 9d2a 1ebd
00000110: ea8a e43d 8e41 1d3e 751a d43c 36cd 33bd
00000120: 7b26 9cbd 4569 383d c97f 123e 0be2 84bb
00000130: 7892 273d 4af5 4ebd 280b d43c 7213 90bd
00000140: fc3e 89bc bd83 2ebd 06cf 08bc e300 e33c
00000150: c021 e33d f18e 1bbd b688 a1bc bf78 4abd
00000160: 8936 adbc 0e23 1b3e e103 17bc 19bd fb3d
00000170: 4c7f e23d 9693 6d3d 618a d73d bf95 37bd
00000180: c252 873d d55f 013c 1c16 b53b 7a69 f33d
00000190: 4ecb a9bd 9566 133e 35d5 a93d 6171 9f3d
000001a0: ad28 883d cb85 9b3c 9677 7ebd ec99 033d
000001b0: 3da8 1a3d f915 e1bc 33a9 c43d b729 9dbd
000001c0: 0478 b53c b4eb 1f3d 751e e63c 24f6 e9bd
000001d0: 32e8 1bbd a697 13bd 2096 a73d 9a9b 2c3e
000001e0: b25d c13d 1233 d73d f39d bbbc 1950 97bc
000001f0: d425 c1bc e3bd aebb 21cc 8d3d 0766 1bbd
00000200: 4a18 37bd 9303 f83d 98d4 373c 194b 60bd
00000210: 27c7 c03b a1f5 bf3d bc83 fdbc a7e4 b5bc
00000220: 0576 1d3d 7d9f aa3d acb0 733c 4ab3 b2bd
00000230: d98b 87bd 1521 56bc 69c1 b53c 5298 003d
00000240: f844 f4bd 33a2 133e 4103 40bd 9bcd 183d
00000250: 16bd 6fbd 76ae 0d3e 420d 81bc 1e35 c4bd
00000260: a23e 353e 9dd5 143e aec3 463d befb 3a3d
00000270: 6499 203e 3888 533c 92f3 67bc b605 cc3d
00000280: 432a 1d3e 12ef 353e 93c9 acbd 4897 bfbc
00000290: ff52 b03c 70c4 3d3e c9d5 a63d bc59 a73d
000002a0: f444 4dbd 683e c43d c398 b93b 6aaa 72bd
000002b0: 261e 2abe 8857 1c3d e669 dbbc 3a08 27be
000002c0: f052 b93d d4df 72bd 542a 39bd 61b1 873d
000002d0: ba78 1b3d 96fe ed3d 5358 c23d 650c dd3d
000002e0: 8d38 fc3d 71f7 ae3c 6861 d33c 17e5 aebc
000002f0: ca4b a33d 2e72 ad3c cb7c 053e ed37 3a3e
00000300: 376a 163e 7162 9d3c 4a47 573d 135b e33c
00000310: 358f 323a 6a61 76bd ca32 f2bd cc9e 60bd
00000320: 6324 61bd 879e 333d a9db 4fbd f539 aebd
00000330: 8856 063c 5f89 91bd f029 bd3d 7c73 a63d
00000340: f324 98bd dc96 293e c41b a6bd d848 fabc
00000350: c889 5bbd b922 c33d e6ed 2b3e 9cb0 e0bd
00000360: 938f 973d 3f73 b33d 07e0 b83d 4af5 91bd
00000370: c905 153d 6c45 c0bc a164 5dbd f283 c23c
00000380: bd28 f43c 30ec 06bd 123d e7bd a4f0 9e3d
00000390: e335 41bc a1b4 2f3d bb02 aa3d d12b 22bd
000003a0: 3f87 08bc 5a7b 863d d07b d8bc 40c3 1abe
000003b0: ab27 663d ed09 b63d 807e 053d cb21 24bd
000003c0: e490 cd3d 991e b33d 1a89 cdbd a23b 983d
000003d0: 8e4a 03bc 1c46 803d bfa9 df3d ee9d c23c
000003e0: 1988 0fbc d191 e73b 15dd c53c 0e3e 313e
000003f0: e370 f43d 878b aebd a5f9 8dbd 7c11 1c3e

feature_extractor.exemplar_encoder.2.bias f4 [32]
-0.03615527 0.11398025 -0.018879585 0.0024257095 0.05655557 -0.14348285 -0.094554365 -0.030854553
0.0021280532 0.024219718 0.0024545935 0.05168625 0.0015691437 -0.023670094 0.05278568 0.04631324
0.16619329 0.049219664 0.06992309 0.10119046 0.050402667 -0.0682491 0.015325557 0.035942305
0.04973693 -0.04456878 0.040676583 -0.009150829 -0.0012848247 -0.06265178 -0.05999901 0.06484132
00000000: 8c17 14bd 7a6e e93d 5ca9 9abc a7f8 1e3b
00000010: d0a6 673d 2bed 12be b8a5 c1bd b0c2 fcbc
00000020: cf76 0b3b 6e68 c63c 3fdd 203b f6b4 533d
00000030: baab cd3a c9e7 c1bc cc35 583d f4b2 3d3d
00000040: 932e 2a3e 8f9a 493d d633 8f3d f23c cf3d
00000050: 0773 4e3d 2fc6 8bbd 0c18 7b3c 3d38 133d
00000060: f3b8 4b3d c18d 36bd 7d9c 263d 5ced 15bc
00000070: 9067 a8ba 944f 80bd 86c1 75bd 87cb 843d

feature_extractor.joint_encoder.0.weight f4 [32, 64]
0.0012085136 -0.07614002 0.034831524 0.06505238 0.12278339 0.025605988 -0.06252412 0.06587271
0.074728556 -0.057258464 -0.10119851 -0.033667494 -0.08238005 0.1166159 0.037476316 0.03624082
-0.019810686 -0.060659025 0.06341439 0.013346057 -0.08257342 -0.04808367 0.085894525 0.08323456
0.061284266 -0.10686295 0.08292354 0.1061144 -0.05720535 -0.10754844 0.041773442 -0.08330033
-0.10696704 -0.046785757 -0.029512785 -0.081700906 -0.04936463 0.0720772 0.004489381 -0.07786796
-0.057077397 -0.120772205 0.0982147 -0.021069493 -0.021923367 0.039582334 -0.10686919 -0.08018058
-0.12079206 -0.08171961 0.04253852 0.12174949 0.0039995946 0.046258435 0.11989398 0.049050543
0.04556855 0.10160107 -0.07808563 -0.07560135 0.0063986215 -0.07832119 0.07223112 0.09002457
0.04674163 -0.058814332 -0.0218677 -0.055530462 0.10499535 -0.029507473 -0.025952814 0.08677658
-0.026476787 -0.06623131 0.036944404 -0.0032092403 0.04130189 -0.06229077 -0.0008365282 -0.08350989
-0.09040797 -0.097734064 0.117872104 0.100117 -0.07879349 0.09109465 0.057601903 -0.10544083
0.055012234 -0.1116653 0.072431065 -0.065395534 -0.03886892 -0.07436438 -0.03971764 0.077184334
-0.012008823 0.006894389 -0.0667312 -0.095128395 -0.008402516 -0.014640673 0.04407927 -0.06738216
0.040504873 -0.080484964 0.011680217 0.08458831 -0.02006756 0.038174484 0.022823058 -0.04212091
0.051173072 0.095375314 -0.030876782 -0.1221347 0.015708191 -0.11546371 -0.031382125 -0.047647513
-0.049452722 -0.02931437 -0.009701744 0.07095971 -0.11510966 -0.10732216 -0.11999939 0.1182863
0.1339838 0.07018518 -0.023097316 -0.15728782 -0.07541101 -0.11768944 -0.01949196 -0.09535164
0.014088255 -0.069919296 -0.022274422 0.12276899 0.121122114 -0.10744215 0.11410933 -0.0074609183
0.16221434 -0.06443833 0.0646557 0.17442214 -0.0004004036 -0.113938734 -0.16854183 0.0657354
0.044223472 0.16063495 -0.123603016 -0.020361932 0.13221963 -0.04694765 0.0033075963 -0.01807661
-0.085415035 -0.09773849 0.08228986 -0.038774963 -0.16061352 -0.052680034 0.11560219 -0.09288478
0.01006737 0.104378216 -0.11723981 -0.009950702 -0.11192051 -0.11623819 0.03854294 -0.13954903
-0.06935252 -0.15563291 -0.03332713 -0.038673207 0.10950435 0.06850314 -0.01876649 -0.05869006
-0.059305083 0.048433695 -0.0010530044 0.07940119 0.068082534 -0.023846596 0.11786446 -0.0558929
-0.056261964 0.010034261 0.057299186 0.0980188 0.0029174492 0.13218246 0.011753075 0.099487826
-0.15816906 -0.0666965 0.009594533 -0.034247357 -0.051792886 -0.07791632 -0.061915472 -0.055993203
0.019608507 0.015232968 -0.023250524 0.043513812 -0.108380355 -0.08183527 -0.00010603661 0.10389629
0.06304768 -0.16498666 -0.0045434125 0.038385633 -0.12309726 0.034630287 -0.14063905 -0.08510899
-0.11072286 -0.047469743 -0.16416077 -0.07145734 -0.03753619 -0.12129373 -0.0047301543 -0.061520472
0.08405833 -0.040153936 -0.012015755 0.12131024 0.09981535 0.07573833 0.023765272 0.051444612
0.06349769 -0.06839921 -0.14300352 -0.16885146 -0.12966658 -0.08923759 -0.057123233 -0.016035566
-0.049914226 -0.15274422 0.13947657 -0.027802894 -0.110616595 0.0025754082 0.04223184 -0.032174107
00000000: fd66 9e3a 4cef 9bbd 80ab 0e3d 2f3a 853d
00000010: dc75 fb3d a6c3 d13c a50c 80bd 45e8 863d
00000020: 490b 993d da87 6abd 2a41 cfbd ede6 09bd
00000030: dfb6 a8bd 51d4 ee3d c480 193d 4171 143d
00000040: 054a a2bc 9975 78bd 67df 813d 6ca9 5a3c
00000050: 411c a9bd 62f3 44bd 78e9 af3d e276 aa3d
00000060: 3605 7b3d f6da dabd d1d3 a93d 8252 d93d
00000070: 2850 6abd 5b42 dcbd a11a 2b3d 5d99 aabd
00000080: 8911 dbbd 6ca2 3fbd ccc4 f1bc ce52 a7bd
00000090: 9132 4abd 369d 933d a81b 933b 3d79 9fbd
000000a0: fdc9 69bd 6b57 f7bd ca24 c93d ee99 acbc
000000b0: a298 b3bc 1621 223d 3cde dabd b735 a4bd
000000c0: d461 f7bd 9c5c a7bd df3c 2e3d cc57 f93d
000000d0: 080f 833b 7c79 3d3d fa8a f53d 39e9 483d
000000e0: 16a6 3a3d 3914 d03d 5ceb 9fbd e1d4 9abd
000000f0: 87ab d13b dc66 a0bd e9ed 933d cd5e b83d
00000100: 2774 3f3d 4ce7 70bd e423 b3bc e973 63bd
00000110: cd07 d73d a8b9 f1bc ff9a d4bc ebb7 b13d
00000120: d9e5 d8bc 48a4 87bd 0453 173d 1e52 52bb
00000130: 2c2c 293d 9b24 7fbd 754a 5bba 3c07 abbd
00000140: d027 b9bd cc28 c8bd ee66 f13d 240a cd3d
00000150: 7b5e a1bd d58f ba3d f9ef 6b3d 5df1 d7bd
00000160: 8254 613d c7b0 e4bd bd56 943d 18ee 85bd
00000170: 0435 1fbd 5a4c 98bd f7ae 22bd d212 9e3d
00000180: a8c0 44bc 54ea e13b 5eaa 88bd add2 c2bd
00000190: b5aa 09bc 6fdf 6fbc 778c 343d a8ff 89bd
000001a0: 70e8 253d 4dd5 a4bd 625e 3f3c a33c ad3d
000001b0: b964 a4bc d95c 1c3d 6cf7 ba3c fa86 2cbd
000001c0: db9a 513d 2254 c33d 4ef1 fcbc c221 fabd
000001d0: 77ae 803c 3d78 ecbd 8b8a 00bd 0a2a 43bd
000001e0: f08e 4abd b124 f0bc 10f4 1ebc 5353 913d
000001f0: 9dbe ebbd b8cb dbbd 3dc2 f5bd 1640 f23d
00000200: 0d33 093e 3fbd 8f3d 9536 bdbc 0f10 21be
00000210: 1671 9abd 2907 f1bd 9aad 9fbc b847 c3bd
00000220: 6dd2 663c d931 8fbd d978 b6bc 4f6e fb3d
00000230: df0e f83d a10a dcbd 27b2 e93d b87a f4bb
00000240: 841b 263e 3ef8 83bd 356a 843d b89b 323e
00000250: 43ed d1b9 b658 e9bd 3b96 2cbe 48a0 863d
00000260: ac23 353d 7d7d 243e 9423 fdbd 11ce a6bc
00000270: 9564 073e 2e4c 40bd 42c4 583b 6615 94bc
00000280: 14ee aebd 1e2b c8bd 9687 a83d 7fd2 1ebd
00000290: df77 24be 05c7 57bd d7c0 ec3d 603a bebd
000002a0: 9cf1 243c 3fc4 d53d 6d1b f0bd 4508 23bc
000002b0: 9536 e5bd 4a0e eebd 34df 1d3d f1e5 0ebe
000002c0: b208 8ebd 3c5e 1fbe 0782 08bd cc67 1ebd
000002d0: d143 e03d 604b 8c3d 2fbc 99bc fd64 70bd
000002e0: e3e9 72bd 6962 463d f704 8aba 179d a23d
000002f0: db6e 8b3d f059 c3bc ec62 f13d f4ef 64bd
00000300: f272 66bd be66 243c 8db2 6a3d 15be c83d
00000310: ad32 3f3b d75a 073e f88f 403c 46c0 cb3d
00000320: 12f7 21be 2d98 88bd 6332 1d3c f546 0cbd
00000330: c724 54bd 9792 9fbd 149b 7dbd 2159 65bd
00000340: 05a2 a03c b393 793c e277 bebc 8a3b 323d
00000350: 85f6 ddbd 4099 a7bd f95f deb8 94c7 d43d
00000360: 241f 813d 43f2 28be e8e0 94bb 413a 1d3d
00000370: 6b1a fcbd 7dd8 0d3d af03 10be 9f4d aebd
00000380: abc2 e2bd a26f 42bd c319 28be 3a58 92bd
00000390: 8cbf 19bd d968 f8bd 69ff 9abb e4fc 7bbd
000003a0: c626 ac3d 7478 24bd bbdd 44bc 8171 f83d
000003b0: fd6b cc3d b31c 9b3d 63af c23c 96b7 523d
000003c0: 140b 823d e314 8cbd 846f 12be 66e7 2cbe
000003d0: 51c7 04be 33c2 b6bd 0dfa 69bd 055d 83bc
000003e0: dc72 4cbd fb68 1cbe f2d2 0e3e e5c2 e3bc
000003f0: f48a e2bd 2ec8 283b 4bfb 2c3d ffc8 03bd

feature_extractor.joint_encoder.0.bias f4 [32]
-0.003518405 -0.06902415 0.13769804 0.10986108 -0.028117374 -0.120889 -0.06913489 -0.023916153
0.15580818 0.0057628574 0.03758582 -0.054370303 -0.11169318 -0.023800226 0.01746135 -0.049972784
0.017147476 0.11779311 0.03649116 0.016406596 0.06605792 0.099205755 -0.011619266 0.05882501
-0.12648538 -0.04143541 0.04171699 -0.05090147 -0.07908377 -0.04396302 0.09187123 -0.017004408
00000000: 0a95 66bb 895c 8dbd b700 0d3e d9fe e03d
00000010: 6856 e6bc a794 f7bd 9896 8dbd cfeb c3bc
00000020: 2e8c 1f3e 5ad6 bc3b 97f3 193d 65b3 5ebd
00000030: 65bf e4bd b1f8 c2bc 1b0b 8f3c 43b0 4cbd
00000040: dd78 8c3c 843d f13d c177 153d 2067 863c
00000050: 6049 873d 632c cb3d bc5e 3ebc 7ef2 703d
00000060: 6285 01be 2db8 29bd 6fdf 2a3d 0f7e 50bd
00000070: acf6 a1bd 9112 34bd fc26 bc3d d44c 8bbc

feature_extractor.joint_encoder.2.weight f4 [10, 32]
-0.10345848 0.11076262 0.15916865 0.17147589 -0.046250768 -0.086002365 0.1699625 -0.11235847
0.0709845 0.0093699675 0.21047221 0.0804085 -0.011101427 0.16673799 0.1295667 0.06384276
-0.03322481 -0.11015476 -0.22087866 -0.21007308 0.18823928 0.013209731 0.20732966 -0.0394981
0.17692237 0.12425157 0.0735292 -0.07284261 -0.14590941 0.031161169 -0.12331657 -0.02142173
0.10091713 -0.109556615 -0.060619418 0.17706066 0.12954085 0.035059325 0.19057089 -0.0670775
-0.2131407 -0.052669752 -0.008207047 -0.032400243 0.15646116 -0.06379424 0.09232823 -0.047895912
-0.05066037 0.22962593 -0.03982376 -0.10236056 -0.028818743 0.04238281 -0.10573698 -0.08486552
0.19613764 0.04279367 0.081813276 -0.17836218 0.12940863 0.121209115 -0.21743093 0.16515407
-0.044070385 0.07759148 -0.06389643 -0.10799524 -0.018225214 0.096353024 0.13913226 0.17089981
-0.22973439 -0.1494438 -0.00843144 -0.010767122 -0.15284602 -0.03968773 0.07808736 0.10831033
-0.18667953 0.014083267 -0.047700565 -0.14028202 0.20938146 -0.015138525 -0.11509133 -0.09454236
-0.24089305 -0.12443331 -0.12410374 0.21731591 0.2153879 -0.0752803 0.1829731 0.03619498
-0.022911444 0.042352412 0.114467986 0.069431834 0.0704325 0.07787893 -0.15636343 -0.041219126
0.062348627 -0.12054557 -0.03995248 -0.042572975 -0.014357545 0.15401877 0.0057149935 0.11623424
0.1990226 -0.1810114 0.25198615 -0.11577325 -0.110348195 -0.21552198 -0.046645943 0.096130215
-0.2412362 -0.08907525 -0.09702879 0.20879182 -0.14971675 -0.0813378 0.056433663 0.11456288
-0.11260873 -0.04879803 -0.031076463 -0.040131286 -0.11552707 -0.16294882 0.22586103 0.026644913
0.008868862 -0.07806445 0.2033839 -0.011174445 0.1354117 0.09285696 0.017670298 0.08848908
-0.1576265 0.12490269 0.0026614002 -0.13012403 0.050891694 -0.062222604 0.17195044 0.07583362
0.09750842 -0.101509444 -0.14735346 -0.13285258 0.1295332 0.11041277 -0.23453927 0.22786027
0.013713731 -0.15745293 -0.22329757 -0.05535593 0.04086654 -0.083269164 0.14055195 0.18931688
0.09671408 0.12067811 0.12009888 0.08641058 -0.12273804 -0.1330976 -0.1175244 0.13606553
-0.18918915 0.17203757 -0.16394594 -0.034992356 0.18958603 -0.13728552 0.056169603 0.16465935
0.08092599 -0.06072988 -0.043569375 -0.05509758 -0.049868047 0.19745272 -0.24230453 -0.10322412
0.0216722 -0.06711917 -0.2106021 0.10526302 0.07437408 -3.3479904e-05 0.1716913 -0.069191895
0.12094992 0.1529711 -0.07665708 0.04772238 0.07773927 0.18537875 -0.0402574 -0.08084238
-0.0019374627 0.08366542 -0.25241026 0.037730284 0.08505507 0.16958241 -0.07377604 -0.027149541
0.12858081 -0.02634031 0.1700474 -0.12204496 -0.073487036 0.10386151 -0.17744248 -0.020778162
0.17128825 0.018552154 0.06454207 -0.018362457 0.08049395 0.0076208417 -0.06876438 0.062120896
-0.1762008 0.14853667 0.023630837 0.049842026 -0.0064642713 0.012058984 -0.04494985 -0.012901132
0.08037476 0.15630753 -0.17890084 0.22984505 0.21312146 -0.013027739 -0.09375157 0.19542453
-0.062797666 0.20074493 -0.14179748 -0.0036992512 -0.046860628 0.12818296 -0.15055066 -0.088558875
00000000: 0ae2 d3bd 83d7 e23d 1bfd 223e 6097 2f3e
00000010: 7271 3dbd 0222 b0bd a60a 2e3e 331c e6bd
00000020: 5260 913d 7e84 193c 0786 573e 36ad a43d
00000030: c2e2 35bc 5dbd 2a3e 22ad 043e febf 823d
00000040: bd16 08bd d298 e1bd 042e 62be 661d 57be
00000050: ccc1 403e a16d 583c 3a4e 543e c2c8 21bd
00000060: 232b 353e 9b77 fe3d 7a96 963d 822e 95bd
00000070: 4769 15be b545 ff3c 668d fcbd a07c afbc
00000080: a4ad ce3d 385f e0bd 114c 78bd 644f 353e
00000090: 5ba6 043e 5e9a 0f3d 0425 433e ee5f 89bd
000000a0: 8e41 5abe 3dbc 57bd da76 06bc 1eb6 04bd
000000b0: 5b37 203e 8ea6 82bd 9516 bd3d 812e 44bd
000000c0: 4081 4fbd 0f23 6b3e 3d1e 23bd 6aa2 d1bd
000000d0: 4915 ecbc 9999 2d3d a18c d8bd f9cd adbd
000000e0: 4ed8 483e 6a48 2f3d b88d a73d 93a4 36be
000000f0: b283 043e 7c3c f83d 37a6 5ebe 261e 293e
00000100: 2683 34bd 48e8 9e3d 22dc 82bd 9c2c ddbd
00000110: 0b4d 95bc bc54 c53d b078 0e3e 5c00 2f3e
00000120: 7e3f 6bbe cc07 19be 0624 0abc 9568 30bc
00000130: ab83 1cbe 9a8f 22bd 44ec 9f3d ced1 dd3d
00000140: eb28 3fbe 81bd 663c ab61 43bd 17a6 0fbe
00000150: 1868 563e 9307 78bc 01b5 ebbd 6d9f c1bd
00000160: abac 76be e4d6 febd 1a2a febd 1088 5e3e
00000170: a58e 5c3e 8f2c 9abd 4d5d 3b3e 3041 143d
00000180: c8b0 bbbc b979 2d3d 316e ea3d 4732 8e3d
00000190: ea3e 903d fd7e 9f3d bc1d 20be 63d5 28bd
000001a0: 4661 7f3d 99e0 f6bd 36a5 23bd 0061 2ebd
000001b0: e93b 6bbc 19b7 1d3e d744 bb3b 380c ee3d
000001c0: 95cc 4b3e 0d5b 39be 5404 813e 871a edbd
000001d0: 3cfe e1bd cbb1 5cbe d10f 3fbd ebdf c43d
000001e0: 9f06 77be 166d b6bd 08b7 c6bd 86cd 553e
000001f0: 594f 19be 6f94 a6bd fc26 673d f19f ea3d
00000200: 689f e6bd 71e0 47bd 1194 febc b460 24bd
00000210: 7599 ecbd 0edc 26be 1d48 673e 6f46 da3c
00000220: b44e 113c 41e0 9fbd de43 503e 0515 37bc
00000230: 5da9 0a3e ca2b be3d 4dc1 903c c339 b53d
00000240: d768 21be fbcc ff3d e36a 2e3b 3c3f 05be
00000250: cf73 503d 21dd 7ebd c713 303e a84e 9b3d
00000260: 7fb2 c73d 2fe4 cfbd d3e3 16be 820a 08be
00000270: 5aa4 043e 1720 e23d 102b 70be 3454 693e
00000280: 8faf 603c 573b 21be 1ea8 64be e6bc 62bd
00000290: ac63 273d 0689 aabd daec 0f3e 49dc 413e
000002a0: 0812 c63d 1626 f73d 67f6 f53d 08f8 b03d
000002b0: 155e fbbd bd4a 08be a2b0 f0bd c354 0b3e
000002c0: cdba 41be 9e2a 303e 72e1 27be 2554 0fbd
000002d0: d722 423e 9394 0cbe 1912 663d 769c 283e
000002e0: 87bc a53d e5bf 78bd cd75 32bd 00ae 61bd
000002f0: 7042 4cbd 0c31 4a3e ae1e 78be 2b67 d3bd
00000300: e689 b13c c775 89bd 14a8 57be 2394 d73d
00000310: 7051 983d c66c 0cb8 d8cf 2f3e 7bb4 8dbd
00000320: 97b4 f73d 75a4 1c3e 63fe 9cbd 8b78 433d
00000330: c435 9f3d edd3 3d3e f2e4 24bd b190 a5bd
00000340: 76f2 fdba c758 ab3d eb3b 81be 128b 1a3d
00000350: 5a31 ae3d 03a7 2d3e e417 97bd b768 debc
00000360: b0aa 033e a2c7 d7bc e820 2e3e b5f2 f9bd
00000370: 5f80 96bd 58b5 d43d 7bb3 35be f736 aabc
00000380: 3066 2f3e b0fa 973c a22e 843d dd6c 96bc
00000390: 03da a43d 41b8 f93b 57d4 8cbd 7b72 7e3d
000003a0: fc6d 34be ff19 183e 7595 c13c 2727 4c3d
000003b0: 3dd2 d3bb 0b93 453c 551d 38bd 455f 53bc
000003c0: 869b a43d 150f 203e c831 37be 805c 6b3e
000003d0: 833c 5a3e 4c72 55bc d300 c0bd 5e1d 483e
000003e0: 109c 80bd 1490 4d3e 5c33 11be 236f 72bb
000003f0: eef0 3fbd 6542 033e f429 1abe 5b5e b5bd

feature_extractor.joint_encoder.2.bias f4 [10]
-0.107278846 -0.11136853 -0.20044205 -0.0068449867 0.09763841 0.056053292 0.00438536 0.0848883
0.055780027 0.100246966
00000000: 03b5 dbbd 2f15 e4bd ae40 4dbe e94b e0bb
00000010: a6f6 c73d 2398 653d 11b3 8f3b ebd9 ad3d
00000020: 9979 643d 484e cd3d
