generation/invbo_decoder/results_optimal/gp.pt (torch, 224829 bytes, 17 tensors)

covar_module.base_kernel.raw_lengthscale f4 [1, 10]
0	0xbefff892	-0.49994332
1	0xbf1edc47	-0.62054867
2	0xbf19eb52	-0.60124695
3	0xbf17ae9f	-0.59250826
4	0xbf100e22	-0.56271565
5	0xbf15cd4c	-0.58516383
6	0xbf144143	-0.5791208
7	0xbf18420c	-0.5947578
8	0xbf0f6580	-0.5601425
9	0xbf0f7d85	-0.560509

feature_extractor.encoder.0.weight f4 [64, 768]
0	0x3c7c82db	0.015412058
1	0xbcb3b3db	-0.021936348
2	0x3cf0b643	0.029383784
3	0xbc1ca337	-0.009560398
4	0xbc75980a	-0.014989862
5	0x3a1a4d8a	0.0005886188
6	0xbc95aed8	-0.018271849
7	0x3c891595	0.016733924
8	0x3c389844	0.011266772
9	0x3912375a	0.00013944265
10	0xbcdf6f29	-0.027274685
11	0x3b289e96	0.002572929
12	0xbbea4b92	-0.007150122
13	0x3cb310e1	0.021858634
14	0x3d103c60	0.035213828
15	0xbd07f136	-0.03318902
16	0x3c832107	0.01600696
17	0x3b887422	0.0041642347
18	0x3b57ffa5	0.0032958772
19	0x3ccdca51	0.025120886
20	0xbcf0a7ed	-0.029376948
21	0xbbaa8ba8	-0.0052046366
22	0xbceedc03	-0.029157644
23	0x3cc4fb1f	0.024045525
24	0xbc8631b4	-0.016381122
25	0xba3b9764	-0.0007156043
26	0x3caa904c	0.02082076
27	0x3c503414	0.012707729
28	0xbc8779a6	-0.016537499
29	0xbc79d4e8	-0.015248515
30	0x3c67ad0f	0.0141403815
31	0xbca5159c	-0.020151906
32	0xbd0f1de4	-0.034940615
33	0xbc3f0128	-0.0116579905
34	0xbc6cc9e7	-0.014452434
35	0xbd0b7a0d	-0.034051944
36	0xbbd99473	-0.006640011
37	0x3c819f73	0.015823102
38	0xbc949481	-0.018137218
39	0xbc664be8	-0.014056183
40	0x3c4b887a	0.012422675
41	0xbaf5a462	-0.0018741006
42	0xbae6b83d	-0.0017602515
43	0xbcc5f758	-0.024165794
44	0x3c95514a	0.018227238
45	0xbca2e29f	-0.019883452
46	0xbc106d59	-0.008815133
47	0xbcd50bf7	-0.026006682
48	0xbcf92ad8	-0.030415937
49	0xbc95b2f3	-0.018273806
50	0x3c3965bf	0.011315762
51	0xbc1aa2cf	-0.009438231
52	0x3d0200d4	0.03173907
53	0xbc8501e7	-0.016236259
54	0x3c712cf9	0.014720195
55	0xbce6c16a	-0.028168399
56	0x3cf77da6	0.030211281
57	0x3b8e83f4	0.004349226
58	0xbc87efe7	-0.016593887
59	0x3cfe9273	0.031075692
60	0xbcf16ca8	-0.029470757
61	0xbb436620	-0.002981551
62	0x3d0ec7eb	0.034858625
63	0x3cce0bd4	0.025152124
64	0x3972b7fb	0.00023147457
65	0xbcdc0930	-0.02685985
66	0x3be44920	0.006966725
67	0xbca39265	-0.019967267
68	0xbceea267	-0.029130174
69	0x3c820758	0.015872642
70	0x3c998b44	0.018743165
71	0x3c85c30b	0.016328355
72	0x3d02eaca	0.031962194
73	0xbcd59682	-0.026072744
74	0x3d048ae3	0.032359015
75	0x3cde2bd6	0.027120512
76	0xbcb511a4	-0.022103138
77	0x394ad53b	0.00019343656
78	0x3d10d337	0.03535768
79	0x3bc01c1d	0.0058627264
80	0xbad829fe	-0.0016492007
81	0xbc979815	-0.018505136
82	0x3c86415b	0.016388586
83	0xbc08c467	-0.008347607
84	0x3cf39e36	0.029738527
85	0x3c8432be	0.016137477
86	0x3ce15e30	0.027510732
87	0xbc6ba089	-0.014381536
88	0xbcc597d0	-0.024120241
89	0xbbae0ace	-0.0053113466
90	0xbca9eb2c	-0.020742022
91	0xbbd84ea3	-0.006601171
92	0x3d0ed4de	0.034870975
93	0x38913e81	6.925781e-05
94	0x3bd73f30	0.006568812
95	0xbcd22ce0	-0.025656164
96	0xbc0c2381	-0.008553387
97	0x3b7efd76	0.0038908399
98	0xbc344c01	-0.011004449
99	0x3c7bbb29	0.015364447
100	0xbb5788a9	-0.0032887852
101	0xbc7a94b2	-0.015294241
102	0xbc5803b0	-0.013184473
103	0x3c8b8b8c	0.017034315
104	0xbcd8323f	-0.026391147
105	0x3cf0b785	0.029384384
106	0x3c8b320e	0.016991641
107	0x3cd76f97	0.026298327
108	0xbccbe325	-0.024888584
109	0xbd01915c	-0.031632766
110	0xbccf71ad	-0.02532276
111	0xbb8d46e1	-0.004311428
112	0xbcf4ad98	-0.029867932
113	0x3c9a65eb	0.018847426
114	0xbb06aab9	-0.0020548536
115	0x3b1d8622	0.0024036248
116	0x3d07101f	0.03297436
117	0xbc25cb72	-0.010119306
118	0xbbaf3867	-0.0053473
119	0x3c6a8f77	0.014316431
120	0x3d0b4bdd	0.034007896
121	0xbcf9586f	-0.030437676
122	0xbb9ddf38	-0.0048178695
123	0x3cf6f952	0.030148182
124	0xbad14a4a	-0.0015967574
125	0x3c0688e9	0.008211353
126	0x3ca64fde	0.020301756
127	0xbc3c9f33	-0.011512565
128	0x3cda2120	0.026627123
129	0xbca610cd	-0.020271683
130	0xbcc764e8	-0.024340108
131	0x3b9f6d41	0.004865319
132	0x3d02b210	0.031908095
133	0x3d1098bc	0.03530191
134	0xbc2a9c75	-0.010413279
135	0x3cb0b03a	0.021568406
136	0x3d0318dc	0.03200613
137	0xbcc2c8f8	-0.02377747
138	0xbba1e253	-0.00494031
139	0x3d0f0864	0.03492011
140	0xbcdbd79e	-0.026836213
141	0x3c2fd4f9	0.010731929
142	0x3c873943	0.016506797
143	0x3cc49a27	0.023999287
144	0xbcf94cd2	-0.030432139
145	0x3cf94db8	0.030432567
146	0x3c7fd71b	0.01561525
147	0xbbfd5371	-0.0077308943
148	0xbb89e211	-0.0042078574
149	0x3c47d0e0	0.012195796
150	0xbc8d4d6a	-0.017248828
151	0xbab098f5	-0.0013473319
152	0xbceeb248	-0.029137745
153	0xbc91988d	-0.017772937
154	0xbc6bab25	-0.014384066
155	0xbcfd24c9	-0.03090133
156	0x3ceda496	0.029009145
157	0xbbbc7ceb	-0.005752196
158	0xbd08c0a1	-0.03338683
159	0x3cd4d106	0.025978576
160	0xbc26fbec	-0.010191899
161	0xba81eae0	-0.0009911917
162	0x3c63a6a4	0.013894711
163	0xbc0bc8dd	-0.008531776
164	0x3d0da33b	0.034579497
165	0x3caf8d0a	0.021429557
166	0x3cd7001f	0.026245175
167	0x3c8031e1	0.015648784
168	0x3c54a41c	0.01297858
169	0x3ce4100e	0.027839687
170	0x3c653ffb	0.013992305
171	0xbd031098	-0.031998247
172	0xbcd7377c	-0.026271574
173	0xbcc827aa	-0.024432976
174	0x3cab32f6	0.020898324
175	0x3ceff66e	0.029292312
176	0x3cd945e6	0.026522588
177	0xbc9aa6a3	-0.018878287
178	0xbc99b9a6	-0.018765282
179	0x3d00e30e	0.031466536
180	0x3cf56795	0.029956618
181	0x3ca8a495	0.020586291
182	0x3c698da5	0.014254962
183	0x3c5a469c	0.013322499
184	0xbc3bee02	-0.01147032
185	0xbbe5b98e	-0.0070106452
186	0x3c0736f4	0.008252848
187	0x3c775847	0.015096731
188	0xbcfcbf3c	-0.030852906
189	0x3cca8b9b	0.024724772
190	0xbccc4371	-0.024934502
191	0xbbdb5643	-0.006693633
192	0xbd0456f3	-0.032309484
193	0xbce691ff	-0.028145788
194	0x3c9a35e1	0.01882452
195	0xbb2f1e2c	-0.0026720865
196	0xbc8f5859	-0.017498182
197	0x3c6cee8c	0.014461171
198	0xbb5ac9fd	-0.0033384555
199	0xbc8acac4	-0.01694239
200	0xbc5aaf19	-0.013347411
201	0xbc80e924	-0.01573617
202	0x3ca74920	0.02042061
203	0x3c4fd142	0.012684168
204	0xbd11bd86	-0.035581134
205	0x3ab49694	0.0013777786
206	0x3a16aa5e	0.00057474326
207	0xbce98f1a	-0.028510619
208	0xba9e7225	-0.0012088461
209	0xbcd951af	-0.026528208
210	0xbc692e67	-0.014232255
211	0xbc0cbd26	-0.008590018
212	0xbd096e94	-0.03355272
213	0x3bd4c061	0.00649266
214	0x3b0d1127	0.0021525116
215	0xbcb70d28	-0.02234514
216	0xbc281edb	-0.010261263
217	0xbd0f591a	-0.034997083
218	0xbcf75613	-0.03019241
219	0xbcacecae	-0.021108951
220	0xbc930de3	-0.017950958
221	0x3b6c7a78	0.003608374
222	0x3caada18	0.020855948
223	0xbbd37565	-0.0064532035
224	0xbcd8e883	-0.026478058
225	0xbc10fe61	-0.008849711
226	0xbcf221ca	-0.029557128
227	0xbca7e4fd	-0.020494932
228	0xbaecc6f3	-0.0018064663
229	0xbcfd0853	-0.030887758
230	0x3cc41973	0.023937916
231	0xbc175c3f	-0.009238302
232	0xbcb41c2a	-0.021986086
233	0xbcbc9f28	-0.02302511
234	0xbca44593	-0.020052707
235	0x3c95d70b	0.018291017
236	0x3c497824	0.01229671
237	0xbc6b4e57	-0.014361939
238	0x3c972d8e	0.01845434
239	0xbc82a7a1	-0.015949072
240	0x3d1188ca	0.035530843
241	0x3ca0dc25	0.019636223
242	0xbc8f047b	-0.017458191
243	0x3c6893c4	0.014195386
244	0x3cf64247	0.0300609
245	0xbaff818e	-0.0019493566
246	0xbc9467be	-0.018115874
247	0x3cad1e7f	0.021132706
248	0x3cc81c62	0.024427596
249	0x3c6d7f4f	0.014495685
250	0x3afc9c9a	0.0019272745
251	0x3c0be2a5	0.008537923
252	0xbb928dca	-0.004472469
253	0x3d0083f7	0.03137585
254	0x3c95d52f	0.01829013
255	0x3cf6896b	0.030094823

feature_extractor.encoder.0.bias f4 [64]
0	0x3b24ca51	0.0025145004
1	0x3dbdd67b	0.092694245
2	0xbd1e0188	-0.03857568
3	0xbb9eff87	-0.0048522386
4	0x3d4ce47a	0.05002258
5	0xbd0c7674	-0.034292653
6	0x3d85a63c	0.06525847
7	0xbd9f43d5	-0.0777661
8	0xbd5f1d0f	-0.05447107
9	0x3cef7423	0.029230183
10	0xbda31eb1	-0.07964838
11	0xbd98c184	-0.07458785
12	0x3c16cb81	0.009203793
13	0x3db4afd9	0.08822603
14	0xbd86f750	-0.0659014
15	0x3d080359	0.033206318
16	0xbce6dd57	-0.028181715
17	0x3db605c7	0.08887821
18	0x3b140ce0	0.0022590682
19	0xbc81959e	-0.015818413
20	0x3d4474b8	0.047962874
21	0x3d987861	0.074448355
22	0x3d4651cd	0.048417855
23	0x3d7d21ea	0.06179992
24	0x3da97691	0.08274568
25	0xbdb4292e	-0.08796917
26	0x3daece53	0.08535447
27	0x3c9ad46a	0.018900115
28	0xbca1d712	-0.019755874
29	0x3d89bf14	0.067258984
30	0x3d4bc803	0.049751293
31	0x3daadc64	0.083428174
32	0xbd07962b	-0.033102196
33	0x3cc36307	0.02385093
34	0x3cd38a7c	0.02582287
35	0xbba1d1ba	-0.0049383314
36	0xbd9c6f8c	-0.076384634
37	0xbca6f5b4	-0.020380832
38	0x3c92b022	0.017906252
39	0x3d36a476	0.044590436
40	0xbbd3f4de	-0.0064683994
41	0x3d2225ed	0.03958695
42	0x3d0fda4d	0.035120297
43	0x3bb33a64	0.005469607
44	0x3d1673a5	0.03673138
45	0xbbb647a9	-0.005562742
46	0xbd76c82f	-0.060249504
47	0x3d8399ca	0.06425817
48	0x3db166b6	0.08662169
49	0x3da0f583	0.07859328
50	0xbd041289	-0.03224424
51	0x3d844ded	0.06460176
52	0x3d603ca2	0.054745324
53	0xbc4019d5	-0.011724909
54	0x3d8e891d	0.06959746
55	0xbb1e954e	-0.002419788
56	0x3d81549d	0.06314967
57	0xbd95d156	-0.07315318
58	0x3b302d61	0.0026882517
59	0x3d613313	0.05498035
60	0x3d4ec563	0.05048121
61	0x3d6e31a4	0.05815281
62	0x3d813a2f	0.06309926
63	0xbd1508eb	-0.036385458

feature_extractor.encoder.2.weight f4 [64]
0	0x3f7e3d46	0.99312246
1	0x3f696e1b	0.9118363
2	0x3f6ef92b	0.9334895
3	0x3f7e3d46	0.99312246
4	0x3f6bd802	0.92126477
5	0x3f7e3d46	0.99312246
6	0x3f72c652	0.9483386
7	0x3f940f36	1.1567142
8	0x3f86bfab	1.0527242
9	0x3f9af22c	1.2105155
10	0x3f6ef933	0.93349
11	0x3f6e9019	0.93188626
12	0x3f7e3d46	0.99312246
13	0x3f84de3b	1.0380319
14	0x3f6ef931	0.93348986
15	0x3f76cee5	0.96409446
16	0x3f86c0ad	1.052755
17	0x3f8ddec0	1.1083603
18	0x3f7e3d46	0.99312246
19	0x3f67e1a5	0.9057868
20	0x3f795a03	0.9740297
21	0x3f96de21	1.1786538
22	0x3f7d5d91	0.98970896
23	0x3f6b0c4a	0.91815627
24	0x3f6a7bde	0.91595256
25	0x3f6ef92d	0.9334896
26	0x3f7923a9	0.9732004
27	0x3f616f90	0.88060856
28	0x3f7e3d46	0.99312246
29	0x3f8a4570	1.0802441
30	0x3f4f76a3	0.810404
31	0x3f510bc5	0.81658584
32	0x3f6aa183	0.916527
33	0x3f8c2c3b	1.0950998
34	0x3f804019	1.0019561
35	0x3f7e3d46	0.99312246
36	0x3f838ead	1.0277916
37	0x3f7e3d46	0.99312246
38	0x3f8ae0ae	1.0849817
39	0x3f925483	1.1432041
40	0x3f6bc531	0.92097765
41	0x3f6f12d4	0.93388104
42	0x3f74a4f8	0.9556422
43	0x3f765659	0.96225506
44	0x3f85057a	1.0392296
45	0x3f7e3d46	0.99312246
46	0x3f6ef926	0.9334892
47	0x3f502806	0.8131107
48	0x3f800a5a	1.0003159
49	0x3f868e89	1.0512248
50	0x3f7e3d46	0.99312246
51	0x3f651acb	0.8949401
52	0x3f8f57b9	1.1198646
53	0x3f7a9a8a	0.9789206
54	0x3f7d58eb	0.98963803
55	0x3f882a24	1.063786
56	0x3f6bef22	0.9216176
57	0x3f88523b	1.0650095
58	0x3f7e3d46	0.99312246
59	0x3f7199c6	0.94375265
60	0x3f8efd96	1.1171138
61	0x3f7351bb	0.95046586
62	0x3f818e3b	1.012153
63	0x3f6ef933	0.93349

feature_extractor.encoder.2.bias f4 [64]
0	0xbca98dd1	-0.020697506
1	0xbb300b02	-0.002686203
2	0xbcdfe1fd	-0.02732944
3	0x3d91501e	0.07095359
4	0x3d636626	0.05551734
5	0xbadecdc1	-0.0016998575
6	0xbe3c902a	-0.18414369
7	0x3caf06c9	0.02136554
8	0x3ccbcd01	0.024878027
9	0xbe014f31	-0.12627865
10	0x3d4162fb	0.047213536
11	0xbdb8fb77	-0.09032338
12	0xbd1b9450	-0.03798324
13	0x3dd8acf2	0.10579862
14	0xbd4adb3d	-0.04952549
15	0xbd9be211	-0.07611478
16	0xbd022c34	-0.031780437
17	0xbdb1c43b	-0.08680006
18	0x3c94e8a9	0.018177347
19	0xbcb1b0e9	-0.021690803
20	0xbc73416c	-0.014847141
21	0xbb631596	-0.0034650317
22	0x3c717e1f	0.014739542
23	0xbd2bcc29	-0.04194275
24	0xbd66f7e2	-0.056388743
25	0xbce0d698	-0.027446076
26	0xbdf0da44	-0.11760381
27	0xbd88baf7	-0.06676286
28	0x3ccef92e	0.025265303
29	0x3d4148d4	0.047188595
30	0x3d8fcf4d	0.07021961
31	0xbdb937c5	-0.0904384
32	0x3ccb2bca	0.024801154
33	0xbe1d1162	-0.15338662
34	0x3da28657	0.079357795
35	0x3cd9e042	0.026596192
36	0x3df30e00	0.11867905
37	0x3c4f5561	0.012654633
38	0x3e0680f7	0.13135134
39	0x3d66777b	0.05626629
40	0xbdb76e90	-0.08956635
41	0x3d39d10b	0.045365375
42	0x3d5e54f0	0.05428022
43	0xbdb6732a	-0.089086846
44	0x3ca0177c	0.019542448
45	0xbc1f261c	-0.009713676
46	0xbd2c30e9	-0.04203883
47	0xbd98d2a5	-0.07462052
48	0x3e08ba01	0.13352205
49	0xbc13390d	-0.00898577
50	0x3c8923de	0.016740736
51	0x3bd9da78	0.006648358
52	0x3de05ac9	0.10954816
53	0x3cf6b4e4	0.030115552
54	0xbdea3605	-0.11436085
55	0xbc9bddba	-0.019026626
56	0xbe379f0e	-0.17931768
57	0xbdddfdff	-0.108394615
58	0x3d0cd448	0.034382135
59	0x3c94b8a6	0.018154453
60	0xbd953602	-0.07285692
61	0x3ca726c6	0.02040423
62	0x3d45ea42	0.04831911
63	0x3ce925a7	0.028460337

feature_extractor.encoder.2.running_mean f4 [64]
0	0x00000000	0.0
1	0x41ae39a5	21.778147
2	0x35ba8cef	1.3899097e-06
3	0x00000000	0.0
4	0x4041a07b	3.02542
5	0x00000000	0.0
6	0x41900127	18.000563
7	0x39696790	0.00022259192
8	0x3780f10e	1.5371039e-05
9	0x410c4207	8.76612
10	0x3693aa9c	4.400803e-06
11	0x36afbf49	5.237675e-06
12	0x00000000	0.0
13	0x41737351	15.215653
14	0x330bcfe8	3.255255e-08
15	0x40f0bbf2	7.5229425
16	0x37859181	1.5922591e-05
17	0x410c68cb	8.775584
18	0x00000000	0.0
19	0x37fc4b69	3.0075857e-05
20	0x413591f2	11.348131
21	0x408f7ff7	4.4843707
22	0x403f2a70	2.9869652
23	0x40bc78d3	5.889749
24	0x4186c463	16.845892
25	0x370c0c24	8.347477e-06
26	0x40b7a981	5.7394414
27	0x4097e061	4.74614
28	0x00000000	0.0
29	0x417687fd	15.4082
30	0x4193b334	18.462502
31	0x4160e309	14.0554285
32	0x3859b685	5.1906816e-05
33	0x40b2793b	5.5772986
34	0x408c10ea	4.3770647
35	0x00000000	0.0
36	0x38c7792a	9.511628e-05
37	0x00000000	0.0
38	0x400cb618	2.1986141
39	0x40e73c31	7.2260976
40	0x41517c9f	13.092925
41	0x4077e095	3.8730824
42	0x41965f78	18.796616
43	0x40c9c1d7	6.304912
44	0x415b5317	13.707786
45	0x00000000	0.0
46	0x374c179b	1.2164844e-05
47	0x40971af9	4.7220426
48	0x40905068	4.509815
49	0x41254132	10.328417
50	0x00000000	0.0
51	0x415226e5	13.134496
52	0x4173d18f	15.238662
53	0x3fe5c423	1.7950481
54	0x415507b2	13.314379
55	0x380864f1	3.2518936e-05
56	0x414e5453	12.895587
57	0x3602e42f	1.950433e-06
58	0x00000000	0.0
59	0x408c8383	4.3910537
60	0x40a1cf12	5.056527
61	0x40c5606e	6.168021
62	0x40d63598	6.694042
63	0x3633f8d4	2.6817916e-06

feature_extractor.encoder.2.running_var f4 [64]
0	0x3a368102	0.00069619727
1	0x3e9c9f2a	0.30590183
2	0x3a36884f	0.00069630606
3	0x3a368102	0.00069619727
4	0x3f9390e5	1.1528593
5	0x3a368102	0.00069619727
6	0x3f723cce	0.9462403
7	0x3a5dbf27	0.0008458965
8	0x3a36b5d0	0.0006969841
9	0x3f571189	0.8401113
10	0x3a36a559	0.0006967388
11	0x3a36acae	0.00069684803
12	0x3a368102	0.00069619727
13	0x3fbc888c	1.4729171
14	0x3a36811d	0.00069619884
15	0x3fa3d163	1.2798275
16	0x3a36c3e2	0.0006971938
17	0x4012fe2b	2.2967632
18	0x3a368102	0.00069619727
19	0x3a385a47	0.00070324953
20	0x3fee8d4a	1.8636868
21	0x3fa305be	1.2736127
22	0x3fc6f70d	1.5544144
23	0x3fb76d90	1.4330311
24	0x3f8b811d	1.0898777
25	0x3a36a526	0.0006967358
26	0x400158b6	2.0210395
27	0x40102679	2.2523482
28	0x3a368102	0.00069619727
29	0x3f2d6e16	0.677461
30	0x3f21164d	0.62924653
31	0x3f6680be	0.90040195
32	0x3a37b272	0.00070074864
33	0x3fc1878d	1.5119492
34	0x3fdc8acd	1.7229859
35	0x3a368102	0.00069619727
36	0x3a3ba555	0.000715812
37	0x3a368102	0.00069619727
38	0x3fc4e4f2	1.5382369
39	0x40215a20	2.5211258
40	0x3f57b824	0.8426535
41	0x3fd274db	1.6441911
42	0x3f4bc6cd	0.7960022
43	0x401a84bc	2.4143515
44	0x3fd14b75	1.6351153
45	0x3a368102	0.00069619727
46	0x3a36c0ea	0.00069714955
47	0x40412c52	3.01833
48	0x3fe89013	1.8168968
49	0x3fbe5d00	1.4872131
50	0x3a368102	0.00069619727
51	0x3fa883ca	1.3165219
52	0x3fa8410d	1.3144852
53	0x3ffaabc9	1.9583675
54	0x3f7b0370	0.9805212
55	0x3a374cab	0.00069923204
56	0x3fc0d840	1.5065994
57	0x3a3698c3	0.00069655123
58	0x3a368102	0.00069619727
59	0x3fe1f734	1.7653565
60	0x3ff2cd6e	1.8968942
61	0x4015c191	2.3399394
62	0x401d96e4	2.4623346
63	0x3a369021	0.0006964226

feature_extractor.encoder.3.weight f4 [32, 64]
0	0x3d53c188	0.051698238
1	0x3d5ca9d1	0.053872887
2	0xbd04f813	-0.032463145
3	0x3c2bbe8f	0.010482444
4	0x3d8d857a	0.06910224
5	0xbd8fcee8	-0.07021886
6	0xbd58e566	-0.052953146
7	0x3e3631a3	0.17792372
8	0x3dc26957	0.09492748
9	0xbdbfa14b	-0.09356936
10	0xbe000b96	-0.1250442
11	0xbe0090f0	-0.1255529
12	0x3daf4b97	0.085593395
13	0x3e88903a	0.26672536
14	0xbdb6260c	-0.088939756
15	0xbe55e5b4	-0.20888406
16	0x3db74643	0.08948948
17	0xbe1f0111	-0.1552775
18	0x3cbdb0c5	0.02315558
19	0xbdabbc74	-0.08385554
20	0xbe33851c	-0.17531246
21	0x3db72965	0.08943442
22	0x3e151ea3	0.14562468
23	0x3d94126b	0.072300754
24	0xbb0cad20	-0.0021465495
25	0xbc579404	-0.013157848
26	0xbdcf0a40	-0.10109377
27	0x3d83e44e	0.0644003
28	0x3dcae505	0.09906963
29	0xbce4fe2c	-0.02795323
30	0x3de90427	0.11377745
31	0xbd5aefaf	-0.053451236
32	0x3e414961	0.18875648
33	0xbb010463	-0.0019686453
34	0x3dcc8a2d	0.099872924
35	0xbc28b664	-0.010297392
36	0x3dc697bb	0.09696909
37	0x3da7979c	0.08183214
38	0x3cb9a04b	0.022659441
39	0xbd8529f2	-0.06502141
40	0x3d77eaa7	0.060526516
41	0xbc1429ce	-0.00904317
42	0x3db640f9	0.08899111
43	0xbe17d6f1	-0.14828087
44	0x3d8d6d41	0.06905604
45	0xbd512000	-0.05105591
46	0xbcf54006	-0.029937755
47	0x3cb4cb98	0.022069737
48	0xbdbe7ead	-0.09301505
49	0x3bf5baf9	0.0074990955
50	0x3d678b64	0.056529418
51	0x3d37819f	0.04480135
52	0x3e114a2c	0.1418845
53	0xbe5eaf9b	-0.21746676
54	0xbe0a68f1	-0.13516594
55	0xbc764ace	-0.015032483
56	0xbd09c682	-0.033636577
57	0xbb8b15c3	-0.0042445376
58	0x3cab10ab	0.020881971
59	0x3d7b4e45	0.06135394
60	0xbe09facb	-0.13474576
61	0x3d69a60e	0.057043128
62	0x3d6a6dc4	0.057233587
63	0x3b9d669b	0.0048034913
64	0xbdc5ca87	-0.0965777
65	0x3dc0e0be	0.09417866
66	0xbd3e9e22	-0.046537526
67	0xbd1c12eb	-0.03810398
68	0xbde0763d	-0.10960052
69	0xbdbd14e8	-0.09232503
70	0xbd7c33bb	-0.06157277
71	0x3e2911bd	0.16510673
72	0xbddcf0f8	-0.10788149
73	0xbe07f12a	-0.1327559
74	0xbaac3a84	-0.0013139998
75	0xbd4f1d96	-0.050565325
76	0xbe0199ce	-0.12656328
77	0x3e0e864c	0.13918418
78	0xbe1f9472	-0.15583971
79	0xb9d84891	-0.00041252797
80	0xbd44c1e6	-0.04803648
81	0xbde6dd37	-0.11272662
82	0x3df0ab07	0.11751371
83	0xbe08bb76	-0.1335276
84	0xbe0cf42e	-0.13765022
85	0xbe1444dc	-0.14479393
86	0xbd7e07e5	-0.062019248
87	0xbda264b0	-0.07929361
88	0xbd3fd909	-0.04683784
89	0xbe1a20c6	-0.15051565
90	0xbc84b749	-0.016200678
91	0x3e00f238	0.12592399
92	0xbd83bbe7	-0.06432324
93	0xbd82871a	-0.06373425
94	0x3d79d031	0.060989562
95	0xbe02680e	-0.12735006
96	0xbe1ceade	-0.1532397
97	0xbde835e6	-0.11338405
98	0xbddd4dad	-0.10805831
99	0x3cebcd13	0.02878431
100	0x3e3ebfff	0.18627928
101	0xbb17637d	-0.002310007
102	0x3e3ddc97	0.1854118
103	0x3e139969	0.1441399
104	0x3d8d4acb	0.06899031
105	0x3d2785af	0.040898975
106	0x3dc04f35	0.093901075
107	0x3d4d0dd4	0.050062016
108	0xbdfa1008	-0.12210089
109	0xbddf0280	-0.10889149
110	0x3c17600f	0.009239211
111	0xbda2053d	-0.079111554
112	0x3e17b997	0.1481689
113	0xbd8ad531	-0.06778944
114	0xbc88c7fd	-0.016696924
115	0x3d86bcc5	0.06578974
116	0x3d200465	0.03906669
117	0x3d45fe0b	0.048337977
118	0x3c541837	0.012945226
119	0x3e31847d	0.17335697
120	0xbdf2c78b	-0.11854466
121	0xbe2508ba	-0.1611661
122	0x3dc9c72f	0.098524444
123	0x3c15695b	0.009119357
124	0xbd3f18dd	-0.04665457
125	0xbd9a4c3b	-0.07534071
126	0x3d448532	0.047978587
127	0xbd55b177	-0.052171197
128	0x3d12367a	0.035696484
129	0xbd301e43	-0.04299761
130	0x3e2bedbd	0.16789909
131	0x3ca99cf8	0.020704731
132	0xbd518664	-0.051153556
133	0x3d3c1e68	0.045927435
134	0xbd83fa5e	-0.06444238
135	0x3e2b6642	0.16738227
136	0xbda51066	-0.080597684
137	0x3dbd9ef9	0.09258837
138	0xbe319544	-0.17342097
139	0x3b4e3946	0.0031467243
140	0xbcba96b6	-0.022776943
141	0x3c7a4123	0.015274319
142	0x3d8a6dba	0.0675921
143	0xbc0523d6	-0.00812622
144	0xbe27eb79	-0.1639842
145	0x3d0a6868	0.033790976
146	0x3db438a6	0.08799867
147	0x3e21326e	0.15741894
148	0x3d5ebc2d	0.054378677
149	0x3da2401a	0.07922383
150	0x3e0fb57e	0.14034078
151	0xbddb1216	-0.10696809
152	0x3d891a5f	0.06694483
153	0xbbdfa052	-0.0068245316
154	0xbd8d0a75	-0.0688676
155	0xbd496a43	-0.049173605
156	0xbd357af8	-0.044306725
157	0xbdea1dbb	-0.11431452
158	0x3da8b1e6	0.082370564
159	0xbdd83f83	-0.10558989
160	0xbe1a9c5e	-0.15098712
161	0xbbfe9ad4	-0.007769922
162	0xbd9a1cd2	-0.07525028
163	0x3d49bb2c	0.049250767
164	0x3defd292	0.11710085
165	0x3bc11262	0.005892084
166	0x3d3e647d	0.04648255
167	0xbdda1c52	-0.10649933
168	0x3d5fc2a9	0.054629
169	0x3e187ba6	0.14890918
170	0xbe28b5a3	-0.16475539
171	0xbd147f1f	-0.036254045
172	0x3b28ca84	0.0025755474
173	0x3dcf81d2	0.10132183
174	0xbda1c756	-0.078993484
175	0xbb4c725a	-0.0031196089
176	0xbd96f37c	-0.0737066
177	0xbd4a87af	-0.049445804
178	0xbc3d44c1	-0.011552037
179	0x3dcf1f8c	0.10113439
180	0xbdd5b0fe	-0.10434149
181	0xbc427786	-0.011869317
182	0x3e09721b	0.13422434
183	0x3cbd70a0	0.023124993
184	0x3a333f45	0.0006837736
185	0xbb6fd034	-0.0036592605
186	0xbda72cfc	-0.08162877
187	0xbd79c48e	-0.060978465
188	0x3dc6a930	0.09700239
189	0xbdb48f46	-0.0881639
190	0x3d8c200d	0.06842051
191	0x3d20c32f	0.03924864
192	0xbd4ac671	-0.049505655
193	0x3df5d8a2	0.1200421
194	0x3cabc81a	0.02096944
195	0x3c85f980	0.016354322
196	0x3e26bfae	0.16284057
197	0x3c1c4822	0.009538682
198	0x3d63acf7	0.055584874
199	0x3e5196a3	0.2046762
200	0x3c2faf9e	0.010723023
201	0x3e10a493	0.1412528
202	0x3cf15b67	0.02946253
203	0xbd02ef1c	-0.031966314
204	0xbe45ba3e	-0.19309327
205	0x3df55986	0.11979966
206	0xbdb7a068	-0.08966142
207	0x3e464514	0.19362289
208	0xbdcdfb0e	-0.100576505
209	0x3e06a324	0.1314817
210	0x3d6d325a	0.057909347
211	0x3c8c6509	0.017138021
212	0x3d9fcf35	0.078031935
213	0x3e0f4ac3	0.13993363
214	0x3d59f479	0.053211663
215	0x3cbd9cc4	0.02314604
216	0x3d83698a	0.06416614
217	0xbd746a74	-0.059671834
218	0x3dc84d44	0.09780362
219	0x3cc46e5f	0.02397841
220	0x3ddddc92	0.10833086
221	0x3dc1b6bc	0.09458682
222	0x3d8ce2e6	0.06879215
223	0xbc90f5e6	-0.017695379
224	0x3d4d7494	0.050160006
225	0xbd615a40	-0.05501771
226	0xbe0fc060	-0.14038229
227	0x3db9864b	0.090588175
228	0x3e318938	0.17337501
229	0x3c157e5f	0.0091243675
230	0x3e42f017	0.190369
231	0x3d55d021	0.05220044
232	0xbdede194	-0.11615291
233	0xbe15465b	-0.1457762
234	0xbcff9f16	-0.031203788
235	0xbd0e1d7d	-0.03469609
236	0x3d98cb87	0.07460695
237	0xbcb4e423	-0.02208144
238	0xbd858918	-0.06520289
239	0x3d4b8a2b	0.049692314
240	0xbde3e8f3	-0.11128416
241	0xbd749998	-0.05971679
242	0x3dcbbf17	0.09948557
243	0xbda9180c	-0.0825654
244	0xbd4f5d40	-0.05062604
245	0x3cd11735	0.025523761
246	0x3c61a4a7	0.013772166
247	0x3d4cce4f	0.05000144
248	0x3d45d990	0.048303187
249	0x3d7f5549	0.062337194
250	0x3db6effe	0.089324936
251	0xbbb89e86	-0.005634132
252	0x3e496bb8	0.19669998
253	0x3d802689	0.0625735
254	0xbe939f16	-0.2883231
255	0xbd5cf914	-0.053948477

feature_extractor.encoder.3.bias f4 [32]
0	0x3d9129f5	0.07088081
1	0x3db03aca	0.08604963
2	0x3dbb8e83	0.09158041
3	0x3e19b447	0.15010177
4	0x3b552f76	0.003252951
5	0x3d8f1f18	0.069883525
6	0xbd80c45c	-0.062874526
7	0x3e257fcd	0.16162033
8	0x3dd3b5a9	0.10337383
9	0xbda441d0	-0.08020365
10	0x3d8a3b75	0.06749622
11	0xbe110e53	-0.1416562
12	0x3de7bd22	0.11315371
13	0x3cc24509	0.02371456
14	0x3d7fa849	0.06241635
15	0xbdf0e301	-0.117620476
16	0x3d634f64	0.055495635
17	0xbe20b16b	-0.1569268
18	0x3e866d82	0.26255423
19	0xbdef830f	-0.11694919
20	0x3d92628e	0.07147704
21	0xbda705b5	-0.081553854
22	0x3e54dada	0.2078661
23	0xbd002663	-0.03128661
24	0x3e26638c	0.16248912
25	0x3b9f35b2	0.004858696
26	0xbd42e4d1	-0.047581498
27	0xbe1ebc97	-0.15501629
28	0xbddaf223	-0.10690715
29	0x3e1adc5e	0.15123126
30	0x3d9c595d	0.07634232
31	0x3da8bf3e	0.082396016

feature_extractor.encoder.5.weight f4 [32]
0	0x3f53bc49	0.82709175
1	0x3f4621f0	0.77395535
2	0x3f4c4985	0.7979968
3	0x3f3956de	0.72398174
4	0x3f4a2d4e	0.7897538
5	0x3f49b068	0.787848
6	0x3f434844	0.76282144
7	0x3f30a23d	0.68997556
8	0x3f35fde1	0.71090513
9	0x3f4aef13	0.7927105
10	0x3f259082	0.64673626
11	0x3f5eafa1	0.8698674
12	0x3f4a7e8a	0.79099333
13	0x3f47fc30	0.7811918
14	0x3f4924f5	0.78572017
15	0x3f4afaa5	0.79288703
16	0x3f3eaf5a	0.74486315
17	0x3f5cd2c0	0.8625908
18	0x3f3637cd	0.71178895
19	0x3f52db5c	0.82365966
20	0x3f3db69b	0.7410676
21	0x3f52aabe	0.8229178
22	0x3f39efc4	0.7263148
23	0x3f3042f6	0.68852174
24	0x3f50cf16	0.8156599
25	0x3f5b8553	0.8575031
26	0x3f4fba85	0.8114398
27	0x3f3162a7	0.69291157
28	0x3f3712ee	0.7151326
29	0x3f38ee77	0.7223887
30	0x3f46917e	0.77565753
31	0x3f53aa56	0.82681787

feature_extractor.encoder.5.bias f4 [32]
0	0x3bf5b758	0.007498663
1	0xbb280cd8	-0.002564242
2	0x3abd7f85	0.001445756
3	0xbabfda0c	-0.0014637127
4	0x3aa9057c	0.0012895311
5	0x3bbdf0e0	0.005796537
6	0xbbb7a1f6	-0.005604024
7	0x3ac83541	0.001527466
8	0xbb1908b7	-0.0023351142
9	0x3b777f32	0.0037765023
10	0x39fb65ab	0.000479502
11	0xbba5faf0	-0.0050653145
12	0x3b57caa7	0.0032927187
13	0xbb008569	-0.0019610769
14	0xbb63a8f8	-0.0034738164
15	0x3a69a266	0.0008912444
16	0x3b0803a2	0.0020754118
17	0xbb353dd6	-0.0027655265
18	0x39c10876	0.00036818133
19	0xbbec6fe2	-0.007215486
20	0xbb07e009	-0.00207329
21	0x3aa17ef8	0.0012321165
22	0xbb170e7a	-0.00230494
23	0xb9745e44	-0.0002330477
24	0x3ae5c1ad	0.0017529033
25	0x39e45b9b	0.000435558
26	0x3c195ccd	0.009360504
27	0x3af606ea	0.0018770371
28	0x3b0e4c80	0.0021713078
29	0x3a450c56	0.0007516792
30	0xbb0b12bc	-0.0021220883
31	0x3ac41b6c	0.0014961786

feature_extractor.encoder.5.running_mean f4 [32]
0	0x3f3cdc96	0.7377409
1	0x3f04fd74	0.5194924
2	0x3ec68035	0.3876969
3	0x3f0d82ad	0.5527752
4	0x3ed267c7	0.410948
5	0x3f6517e1	0.8948956
6	0x3ed87236	0.42274636
7	0x3efcfa70	0.4940982
8	0x3f0a1fa6	0.5395454
9	0x3eedd0a5	0.46448246
10	0x3ed0f8dc	0.40814865
11	0x3eaad23d	0.33363524
12	0x3f15ff28	0.5859246
13	0x3ed42faa	0.41442615
14	0x3f2f0e78	0.6838145
15	0x3e9cd0f2	0.30628163
16	0x3f178654	0.59189343
17	0x3ec07b8f	0.37594268
18	0x3f713a6d	0.94229776
19	0x3edac944	0.42731678
20	0x3f400bc6	0.75017965
21	0x3f0d0d6b	0.550986
22	0x3f63f628	0.8904748
23	0x3f2e3345	0.6804698
24	0x3f3741cd	0.7158478
25	0x3f0f3ab7	0.55948967
26	0x3f242b27	0.64128345
27	0x3f250f64	0.6447661
28	0x3ea95355	0.3307139
29	0x3f6fd574	0.9368508
30	0x3f431c66	0.7621521
31	0x3f2fb0af	0.6862897

feature_extractor.encoder.5.running_var f4 [32]
0	0x3f9d8d01	1.2308656
1	0x3edd9cd1	0.43283704
2	0x3ed74fed	0.42053166
3	0x3ef74f48	0.48302674
4	0x3f0580cf	0.5214967
5	0x3fffb724	1.9977765
6	0x3f347a40	0.7049904
7	0x3ef3f890	0.47650576
8	0x3f321021	0.6955586
9	0x3fcbb633	1.5914978
10	0x3e94f057	0.29089615
11	0x3f77cad9	0.96793896
12	0x3fd7d823	1.6862835
13	0x3f6b1dbf	0.91842264
14	0x3faf5493	1.3697685
15	0x3f5caafd	0.8619841
16	0x3f6247c0	0.8839073
17	0x3f98bc29	1.1932422
18	0x4011dd25	2.2791226
19	0x3f9c0ec5	1.2192007
20	0x3fb1aa65	1.3880125
21	0x3f7a7813	0.9783947
22	0x3fc78657	1.5587872
23	0x3f9bf9ad	1.218557
24	0x3f9a1e24	1.2040448
25	0x3fbcc473	1.4747452
26	0x3fe17f76	1.7617023
27	0x3f95cfe3	1.1704067
28	0x3ed612a5	0.418111
29	0x3fe7dee5	1.8114897
30	0x3fa0f26f	1.2573985
31	0x3f99e2fd	1.2022396

feature_extractor.encoder.6.weight f4 [10, 32]
0	0x3dd56c1f	0.10421013
1	0xbd91af0d	-0.071134664
2	0xbd549d86	-0.05190804
3	0xbd41bc03	-0.047298443
4	0x3dac81ab	0.0842317
5	0x3cbd95af	0.023142664
6	0xbd72ce0f	-0.059278544
7	0xbd1821fc	-0.037141785
8	0x3d02061b	0.031744104
9	0x3c977815	0.018489877
10	0xbbaf1653	-0.0053432374
11	0xbcb829e9	-0.022480922
12	0xbd944863	-0.07240369
13	0x3db423c0	0.08795881
14	0xbcc08278	-0.023499712
15	0xbd93be22	-0.07213999
16	0x3cec1ba5	0.028821776
17	0xbe2541ab	-0.16138332
18	0xbd2ef7e7	-0.042716887
19	0x3d92dfb2	0.07171573
20	0xbd06a36a	-0.032870688
21	0xbd646880	-0.05576372
22	0x3da3d5fb	0.07999798
23	0xbd84724b	-0.06467112
24	0x3e050452	0.1298993
25	0x3d8ed803	0.06974795
26	0x3c8791c8	0.016549006
27	0xbbf3a3b5	-0.007435287
28	0x3cd6f89d	0.026241595
29	0xbd454efa	-0.04817102
30	0xbd9f13ac	-0.07767424
31	0xbdc1e137	-0.094667844
32	0xbd0ab24f	-0.033861455
33	0x3bc4e88e	0.006009168
34	0xbcf173d2	-0.029474173
35	0xbc376858	-0.011194311
36	0x3d5c43b0	0.05377549
37	0x3cae4482	0.021272901
38	0xbdec5013	-0.115387104
39	0x3c15f1b9	0.009151869
40	0xbd12f4c5	-0.03587796
41	0x3d7ddddd	0.061979163
42	0x3c8474d5	0.016168991
43	0xbd70e158	-0.058808655
44	0x3d415f34	0.047209933
45	0xbd5232ac	-0.051317856
46	0x3b076182	0.0020657484
47	0x3dbc6058	0.091980636
48	0xbd0c6024	-0.034271374
49	0xbad8c1c0	-0.0016537234
50	0x3a97ac46	0.0011571727
51	0xbda09c33	-0.07842293
52	0xb85899c9	-5.1641637e-05
53	0xbdcf2992	-0.10115351
54	0xbc9fce78	-0.019507632
55	0x3ce4de78	0.027938113
56	0x3d9aa018	0.07550067
57	0xbcbe4bd9	-0.023229526
58	0xbbc6e27e	-0.0060694804
59	0x3cf0c552	0.029390965
60	0x3d9760d9	0.07391519
61	0x3dd251b4	0.1026949
62	0xbad267f5	-0.001605271
63	0x3d037c0e	0.03210073
64	0x3a52ae14	0.0008036804
65	0xbcff29f0	-0.031147927
66	0x3d67910b	0.056534808
67	0xbcd9ff9f	-0.026611147
68	0xbd44005b	-0.0478519
69	0x3d854581	0.065073974
70	0x3c82caee	0.015965905
71	0xbcf8a154	-0.030350365
72	0x3cd9bf4b	0.026580473
73	0xbd180040	-0.037109613
74	0xbc35be31	-0.011092708
75	0x3e05af76	0.13055214
76	0xbda99494	-0.08280292
77	0xbd141d24	-0.036160603
78	0x3d200177	0.039063897
79	0x3bd4ddbd	0.00649616
80	0x3bbcb5b8	0.0057589673
81	0xbd81540b	-0.06314858
82	0xbc87b432	-0.016565416
83	0x3d40fcf6	0.047116242
84	0x3b01e357	0.0019819343
85	0xbc606415	-0.013695736
86	0x3d1a9593	0.0377403
87	0xbda54c56	-0.080712005
88	0x3dab816b	0.08374294
89	0x3c51590e	0.01277758
90	0xbdd85780	-0.10563564
91	0x3d5ab566	0.05339565
92	0x3b9c32e5	0.0047668093
93	0xbd3ac3b0	-0.04559678
94	0xbdc66a69	-0.09688265
95	0x3da83933	0.08214035
96	0x3d2a2ed1	0.041548554
97	0x3b8bc4f7	0.0042654234
98	0x3c830ef6	0.015998345
99	0xbcd18b5f	-0.025579153
100	0xbd0a66cd	-0.033789445
101	0xbd21b0f7	-0.039475407
102	0x3d4bb898	0.04973659
103	0xbbe5fa14	-0.007018337
104	0xbc7ef40e	-0.015561117
105	0xbd52b1d6	-0.05143913
106	0xbc5b6659	-0.013391101
107	0xbb835e49	-0.0040090424
108	0xbcc6a887	-0.024250282
109	0x3d456f43	0.04820181
110	0x3c1b6896	0.009485384
111	0x3d4d9028	0.050186306
112	0x3d192bb1	0.037395183
113	0xbd77c425	-0.060489792
114	0xbd3e9f5d	-0.0465387
115	0x3d3768fd	0.04477786
116	0x3d3754d7	0.044758644
117	0xbd31a6a4	-0.04337181
118	0xbd201f02	-0.03909207
119	0xbd213d3f	-0.03936505
120	0xbcc3239d	-0.023820693
121	0x3dab5f00	0.08367729
122	0xbd027c6f	-0.03185695
123	0x3d9d278d	0.07673559
124	0xbc978306	-0.018495094
125	0x3c252794	0.010080237
126	0xbc8ca842	-0.017170075
127	0x39ee3c0e	0.00045439642
128	0x3a39f192	0.0007093187
129	0x3c5736cd	0.013135624
130	0x3d0675e7	0.032827284
131	0x3d28c736	0.041205607
132	0xbd53cc5d	-0.051708568
133	0x3d039211	0.03212172
134	0x3d4221af	0.047395404
135	0xbaa2a8f4	-0.0012409971
136	0xba44c312	-0.00075058744
137	0xbd8e4a2c	-0.06947741
138	0xbc9a35f7	-0.01882456
139	0x3d8362f2	0.06415357
140	0xbd26c22c	-0.04071252
141	0x3c84295a	0.016133
142	0xbc3de677	-0.011590592
143	0xbc4605ed	-0.012086374
144	0xbd4adbf4	-0.04952617
145	0xbdd413cb	-0.10355338
146	0x3c6a9099	0.014316701
147	0x3dc0c4b7	0.094125204
148	0x3c25078f	0.010072603
149	0x3d9eedf6	0.07760231
150	0x3da1ba12	0.07896818
151	0xbb1588fb	-0.0022817242
152	0xbcfe9ad2	-0.031079683
153	0x3cae58ff	0.021282671
154	0xbde793e7	-0.11307507
155	0xbd3e36b1	-0.046438877
156	0xbca79375	-0.020456055
157	0xbd1e602f	-0.038665947
158	0xbd5f945b	-0.054584842
159	0x3d7a14ed	0.061055113
160	0xbc9ea004	-0.01936341
161	0x3cedfa2b	0.029049953
162	0xbd58e510	-0.052952826
163	0xbba10203	-0.00491357
164	0xbc331879	-0.010931128
165	0xbda2084c	-0.07911739
166	0x3d0c8f90	0.0343166
167	0x3ba0b9fd	0.004904984
168	0xbd8fb7e1	-0.07017494
169	0x3d85bfec	0.06530747
170	0x3c98f774	0.018672682
171	0xbb99f8e0	-0.0046988577
172	0x3d641b09	0.055689845
173	0x3dac9760	0.0842731
174	0x3d329066	0.04359474
175	0x3cdfbc97	0.027311606
176	0x3d27c82b	0.04096238
177	0xbdf21e9f	-0.11822247
178	0xbda0a76f	-0.078444354
179	0xbdbd3136	-0.09237902
180	0x3d7baf31	0.061446372
181	0xbda75e3d	-0.081722714
182	0xbd45c1b0	-0.048280418
183	0x3d205ba4	0.039149895
184	0xbd62fe2b	-0.055418175
185	0x3d7d652c	0.061864063
186	0x3d2cf346	0.04222419
187	0x3d5d3ebd	0.05401491
188	0xbbba3a62	-0.0056832293
189	0x3d78a0a9	0.060700092
190	0x3d6534e2	0.055958636
191	0xbd0d1bff	-0.034450527
192	0xbcfc68d1	-0.0308117
193	0x3bb7d816	0.0056104762
194	0x3d20d792	0.039268084
195	0xbbe54413	-0.0069966405
196	0x3c2dc192	0.010605233
197	0x3df07e2a	0.11742814
198	0xbcf00810	-0.02930072
199	0x3bc8d48f	0.0061288546
200	0x3cafb590	0.02144888
201	0x3cda8e4c	0.02667918
202	0xbcfa340a	-0.030542392
203	0x3d805776	0.06266682
204	0xbbd55296	-0.006510089
205	0xbb8e33f2	-0.0043396885
206	0x3d2ff8a5	0.042961735
207	0x3ae8d162	0.0017762596
208	0xbd23f2c8	-0.040026456
209	0xbdcb6a37	-0.09932368
210	0xba8a68a5	-0.0010559751
211	0xbd67d199	-0.056596372
212	0x3c9df30b	0.019280931
213	0x3c132c01	0.008982659
214	0x3c80eafe	0.015737053
215	0xbd0555a1	-0.032552365
216	0xbabc7654	-0.0014378526
217	0xbdca2bc6	-0.0987163
218	0x3ac67825	0.0015142007
219	0x3d3c93ea	0.0460395
220	0x3c55fadc	0.013060298
221	0xbc8103b2	-0.015748832
222	0xbd4b1a02	-0.04958535
223	0x3d605397	0.054767217
224	0x3ab4d55a	0.0013796494
225	0xbc0301a5	-0.007995998
226	0xbb7dd562	-0.0038731922
227	0x3a732593	0.00092753134
228	0x3cfa96ed	0.030589545
229	0x3cd51d69	0.026015
230	0xbcfd3b70	-0.030912131
231	0xba9fed5f	-0.0012201479
232	0x3ca6478f	0.020297794
233	0xbc56aae2	-0.013102265
234	0xbbe06e5d	-0.006849094
235	0xbd756f4e	-0.0599206
236	0x3d248161	0.040162448
237	0xbcffd7ca	-0.031230826
238	0x3cf242b0	0.029572815
239	0x3c74bd94	0.014937777
240	0xbca65d0c	-0.02030804
241	0x3d8dd032	0.06924476
242	0x3c00f935	0.007871916
243	0xbd7234dd	-0.059132446
244	0xbc2c5d6a	-0.0105203185
245	0x3c60d242	0.013722004
246	0xbbbb8f34	-0.0057238583
247	0x3cbddf61	0.023177804
248	0x3b313e84	0.002704532
249	0xbd3badfb	-0.045820218
250	0x3c81d03d	0.015846366
251	0xbceafead	-0.028685892
252	0x3bed5196	0.007242392
253	0x3c8dab39	0.01729356
254	0xbc98eb5b	-0.018666914
255	0xbb10861d	-0.0022052594

feature_extractor.encoder.6.bias f4 [10]
0	0xbd7e816f	-0.062135156
1	0x3e0093d9	0.125564
2	0x3d9d4ce0	0.07680678
3	0xbdee27b5	-0.11628667
4	0x3c0c2bc7	0.008555359
5	0xbdde931f	-0.10867905
6	0xbdcb0e42	-0.09914829
7	0x3d5a82dd	0.053347457
8	0x3ddcb5ba	0.10776849
9	0xbda96c25	-0.0827258

X_min f4 [768]
0	0xbd91aa67	-0.0711258
1	0xbda856ed	-0.08219705
2	0xbd91c01e	-0.071167216
3	0xbd3f1cd5	-0.046658356
4	0xbd8a5e60	-0.06756282
5	0xbd5db2a1	-0.054125432
6	0xbdc13cfb	-0.09435459
7	0xbc1346ed	-0.008989078
8	0xbd36dcfc	-0.04464434
9	0xbd87a567	-0.06623345
10	0xbd2b1406	-0.041767143
11	0xbdd91514	-0.105997235
12	0xbc238df1	-0.009982572
13	0xbcff764b	-0.031184336
14	0x3cfca76f	0.030841557
15	0xbcd771c6	-0.026299369
16	0xbd88ae4b	-0.06673869
17	0xbd88975d	-0.06669495
18	0xbd2f46ea	-0.04279224
19	0xbcd5c885	-0.026096592
20	0xbd071ee4	-0.032988444
21	0xbd5b8311	-0.05359179
22	0xbdddb2c5	-0.10825113
23	0xbd2f8714	-0.04285343
24	0xbd9d0efd	-0.076688744
25	0xbce7df03	-0.028304582
26	0xbc708528	-0.014680184
27	0xbd9d2f4a	-0.07675035
28	0xbd9f79c9	-0.077869006
29	0xbd382a84	-0.04496242
30	0x3c5035af	0.012708112
31	0xbd9c945a	-0.07645483
32	0xbd9e4ba5	-0.07729272
33	0xbc7693af	-0.015049859
34	0xbda52612	-0.08063902
35	0xbdb18fb2	-0.08669986
36	0xbd9e8e78	-0.077420175
37	0xbda13fe5	-0.07873515
38	0xbd9f785e	-0.0778663
39	0xbce9cb43	-0.028539306
40	0xbd9cb9cd	-0.07652626
41	0xbdfa4625	-0.1222041
42	0xbd9accba	-0.0755858
43	0xbc197f09	-0.009368666
44	0xbdceab69	-0.10091288
45	0xbdb6702a	-0.08908112
46	0xbd4f88a1	-0.05066741
47	0xbd376ba9	-0.044780407
48	0xbd827af6	-0.06371109
49	0xbda94fba	-0.0826716
50	0xbdce6083	-0.10077002
51	0xbd13e533	-0.036107253
52	0xbdd5e91b	-0.10444852
53	0xbdb457c1	-0.088058
54	0xbdb54ac1	-0.08852149
55	0xbd83de3b	-0.064388715
56	0xbd8bf228	-0.06833297
57	0xbcb574fb	-0.022150507
58	0xbbfcb651	-0.0077121635
59	0xbdae82d1	-0.08521045
60	0xbdac5cff	-0.08416175
61	0xbd2c6b1a	-0.042094328
62	0xbd899cfc	-0.067193955
63	0xbd969c41	-0.07354022
64	0xbdb55ba7	-0.08855372
65	0xbce34887	-0.027744545
66	0xbd9ba4d8	-0.07599801
67	0xbdca1022	-0.09866358
68	0xbd110951	-0.035409275
69	0xbd7454cb	-0.059651177
70	0xbcadbf62	-0.021209422
71	0xbda9832a	-0.08276971
72	0xbd9434dc	-0.072366446
73	0xbda2a7ed	-0.079421856
74	0xbd98bcc2	-0.07457878
75	0xbd930f34	-0.07180634
76	0xbd1c2124	-0.038117543
77	0xbd486229	-0.048921738
78	0x3c2eab03	0.01066089
79	0xbd96f4ab	-0.073708855
80	0xbd11350f	-0.03545099
81	0xbccb6129	-0.024826603
82	0xbd349253	-0.04408486
83	0xbcc133a1	-0.023584189
84	0xbd6bfb4a	-0.057612695
85	0xbda69457	-0.08133762
86	0xbdbb2002	-0.091369644
87	0xbd2f3297	-0.042772856
88	0xbdbee278	-0.09320539
89	0xbd00ecfa	-0.031476
90	0xbde121a4	-0.109927446
91	0xbd85e89f	-0.065385096
92	0xbd45b164	-0.048264876
93	0xbd0a8a3e	-0.033823244
94	0xbdb4af89	-0.08822543
95	0xbb98cb67	-0.0046629193
96	0xbdaea27a	-0.08527084
97	0xbd8dfe1b	-0.069332324
98	0xbd825b98	-0.06365126
99	0xbd5b5a3d	-0.053552855
100	0xbd8ab7ed	-0.06773362
101	0xbd9f90c2	-0.07791282
102	0xbdb7ed3b	-0.08980795
103	0xbd053a31	-0.0325262
104	0xbcc42b4e	-0.02394643
105	0xbd23e922	-0.040017255
106	0xbd825840	-0.063644886
107	0xbdca5c98	-0.09880942
108	0xbd995f1e	-0.07488845
109	0xbd3e343d	-0.046436537
110	0xbda33c17	-0.079704456
111	0xbd781348	-0.060565263
112	0xbdbd6c8f	-0.092492215
113	0xbcf9dcea	-0.030500848
114	0xbd3d06c3	-0.046149027
115	0xbdca9645	-0.09891943
116	0xbdce0087	-0.10058694
117	0xbde759c7	-0.112964205
118	0xbd930aca	-0.07179792
119	0xbd40b385	-0.047046203
120	0xbd93fe4c	-0.07226238
121	0xbdcf1c90	-0.1011287
122	0xbe05ed43	-0.1307879
123	0xbd535709	-0.051596675
124	0xbcef7d63	-0.029234594
125	0xbd13eb83	-0.036113273
126	0xbd9f9260	-0.07791591
127	0xbd929599	-0.0715744
128	0xbd817026	-0.06320219
129	0xbcd019c2	-0.025402907
130	0xbdb73d13	-0.08947196
131	0xbc8db8fe	-0.017300125
132	0xbc6c5cef	-0.014426454
133	0xbd9ad581	-0.07560254
134	0xbd3d0555	-0.046147663
135	0xbd40a7c7	-0.047035005
136	0xbdb90afe	-0.090353
137	0xbd52ff86	-0.051513217
138	0xbdb01406	-0.08597569
139	0xbd17f72d	-0.03710096
140	0xbcaa6a0a	-0.020802516
141	0xbd6b9745	-0.05751731
142	0xbb632dd1	-0.003466476
143	0xbd60a595	-0.05484541
144	0xbdb591d6	-0.088657066
145	0xbd34f22a	-0.04417626
146	0xbd7b5be3	-0.061366927
147	0xbdf0a7e2	-0.11750771
148	0xbc3422ed	-0.010994655
149	0xbd237438	-0.039905757
150	0xbd8b5181	-0.06802655
151	0xbcdc9597	-0.026926799
152	0xbd24804b	-0.040161412
153	0x3c539a28	0.012915172
154	0xbd4de2e9	-0.050265227
155	0xbd8bfd72	-0.0683545
156	0xbdb8dfef	-0.09027087
157	0xbd27d604	-0.040975586
158	0xbe0393b1	-0.12849309
159	0xbcf6c44b	-0.030122897
160	0xbdc608e7	-0.09669667
161	0xbcc796cf	-0.024363903
162	0x3babb198	0.0052396767
163	0xbd72c120	-0.05926621
164	0xbc84b722	-0.016200606
165	0xbd9ec7cd	-0.07752953
166	0xbd43ca35	-0.04780026
167	0xbdbfd5b8	-0.093669355
168	0xbd6871c9	-0.05674914
169	0xbda63d8a	-0.081172064
170	0xbdbbca1e	-0.0916941
171	0xbd524f14	-0.051344946
172	0xbd1157ed	-0.035484243
173	0xbd3908fc	-0.045174584
174	0xbd7ea580	-0.06216955
175	0xbd1c77a5	-0.03820004
176	0xbd286547	-0.04111221
177	0xbd994552	-0.07483925
178	0xbd9c5626	-0.07633619
179	0xbdc409cf	-0.09572183
180	0xbd905def	-0.070491664
181	0xbda1b251	-0.07895339
182	0xbc0f7a2a	-0.0087571535
183	0xbd6868e5	-0.05674066
184	0xbc9c1414	-0.019052543
185	0xbd17e3b8	-0.037082404
186	0xbdd81ac8	-0.10551983
187	0xbced6616	-0.028979342
188	0xbdb7ed68	-0.089808285
189	0xbda82c90	-0.082116246
190	0xbce46af4	-0.02788303
191	0xbc14dec3	-0.009086314
192	0xbd49f0bc	-0.049301848
193	0xbcf05022	-0.029335085
194	0xbd6a40a9	-0.05719057
195	0xbcbf769d	-0.023371989
196	0xbd7c1ddd	-0.061551917
197	0xbdb7d2fa	-0.089757875
198	0xbd6dc965	-0.058053393
199	0xbd0c7302	-0.034289367
200	0xbda4dca3	-0.080498956
201	0xbd832ad7	-0.064046554
202	0xbdb4dec0	-0.08831549
203	0xbd6d2677	-0.05789801
204	0xbd3caeec	-0.046065256
205	0xbcae861d	-0.021304185
206	0xbd6420f6	-0.055695496
207	0xbcf52f9d	-0.02992993
208	0xbd7503aa	-0.059817947
209	0xbcef3248	-0.02919878
210	0xbac98a81	-0.001537636
211	0xbd8beb47	-0.06831985
212	0xbc7a1c22	-0.015265496
213	0xbd17e178	-0.037080258
214	0xbd80dc41	-0.0629201
215	0xbd992094	-0.07476917
216	0xbceab184	-0.0286491
217	0xbcb068b3	-0.0215343
218	0xbd93cb3a	-0.07216497
219	0xbd1af4bf	-0.037831064
220	0xbd597de5	-0.053098578
221	0x3cdad076	0.02671073
222	0xbd62636a	-0.05527059
223	0xbd7fbf2f	-0.062438186
224	0xbd8bb831	-0.06822241
225	0xbda80c56	-0.08205478
226	0xbe07be05	-0.1325608
227	0xbdb493bd	-0.08817241
228	0xbd6e0c0a	-0.05811695
229	0xbc77ee78	-0.015132539
230	0xbd8c6968	-0.06856042
231	0xbc8afe74	-0.016967036
232	0xb9998bde	-0.00029286643
233	0xbda828e9	-0.08210928
234	0xbd4b4ba4	-0.049632683
235	0xbd9859e2	-0.07439019
236	0xbdbb64ba	-0.091500714
237	0xbd8630ec	-0.065523
238	0xbdc03b6c	-0.09386334
239	0xbd65eb5a	-0.056132652
240	0xbc9bc633	-0.019015407
241	0xbcf60a71	-0.030034276
242	0xbd367e4a	-0.044554032
243	0xbca2c687	-0.019870056
244	0xbc82bcaf	-0.015959112
245	0xbdc69581	-0.09696484
246	0xbceddcd6	-0.029035967
247	0xbd27c80e	-0.04096227
248	0xbd30ae13	-0.04313476
249	0xbcf0d6cb	-0.029399296
250	0xbd9d8274	-0.076908976
251	0xbd840d0a	-0.064477995
252	0xbda5b14c	-0.08090457
253	0xbcefa55a	-0.02925365
254	0xbc3943b2	-0.011307644
255	0xbd577b7c	-0.052608

X_max f4 [768]
0	0x3d7fe373	0.06247277
1	0x3d892d99	0.0669815
2	0x3db1a1fb	0.086734734
3	0x3dbb8388	0.09155947
4	0x3d4cbc6b	0.049984377
5	0x3d0f12a4	0.034929886
6	0x3c0c3beb	0.008559207
7	0x3dbe39ac	0.09288344
8	0x3d4363f4	0.047702745
9	0x3d03880b	0.032112163
10	0x3d59617d	0.053071488
11	0x3c3e5a2a	0.0116181765
12	0x3dd742f5	0.10510818
13	0x3d971241	0.073765285
14	0x3dfed83a	0.12443586
15	0x3d98cee5	0.07461337
16	0x3d1f034b	0.0388215
17	0x3d3d193d	0.046166647
18	0x3d8ac7fa	0.06776424
19	0x3dce9d8e	0.10088645
20	0x3daeeba8	0.085410416
21	0x3d51f2fd	0.051257122
22	0x3b89ae2c	0.004201671
23	0x3da466d1	0.08027423
24	0x3c8b7dc5	0.017027745
25	0x3dd38b74	0.10329333
26	0x3d7f65b9	0.06235287
27	0x3d8a2a4f	0.06746351
28	0x3d87aa9f	0.0662434
29	0x3d9076fd	0.07053945
30	0x3df1f5ec	0.11814484
31	0x3d5292a0	0.051409364
32	0x3cc5e748	0.024158135
33	0x3de4207d	0.11139009
34	0x3c32bb25	0.010908877
35	0x3d3eb5c2	0.046560057
36	0x3ccc74ae	0.024957981
37	0x3d06b939	0.032891486
38	0x3d62f545	0.05540969
39	0x3d83702f	0.06417882
40	0x3d6298b8	0.055321425
41	0xbc7e1ef9	-0.015510314
42	0x3cfba5db	0.030718734
43	0x3dc70596	0.09717862
44	0x3d06791b	0.03283034
45	0x3cfca9dc	0.030842714
46	0x3dac324c	0.08408031
47	0x3dd09ca5	0.101861276
48	0x3cc68485	0.024233112
49	0x3c69cef2	0.014270531
50	0x3bb967ca	0.0056581246
51	0x3d731134	0.059342578
52	0x3c125173	0.008930552
53	0x3d46b089	0.0485082
54	0x3cd77627	0.026301457
55	0x3d70a684	0.05875255
56	0x3d3d23dd	0.04617678
57	0x3db724c7	0.089425616
58	0x3da252ba	0.07925935
59	0x3d2a7be2	0.04162205
60	0x3c4a68cb	0.012354086
61	0x3daf5f9c	0.08563158
62	0x3d0e9d7b	0.034818154
63	0x3d450f55	0.048110325
64	0xb814c66e	-3.547075e-05
65	0x3da296e2	0.07938935
66	0x3d4fff6d	0.050780702
67	0x3c9433d8	0.018091127
68	0x3db25bc1	0.08708907
69	0x3d2baa98	0.041910738
70	0x3dc53a92	0.09630312
71	0x3d15519b	0.03645478
72	0x3cde7b05	0.02715827
73	0x3d1c412b	0.038148087
74	0x3c980d95	0.018561164
75	0x3d07cc9d	0.03315412
76	0x3d752092	0.059845515
77	0x3d7d241d	0.06180202
78	0x3e0ad675	0.13558371
79	0x3d3d1797	0.046165075
80	0x3d95ad5a	0.07308455
81	0x3d7f09f1	0.06226534
82	0x3d603432	0.054737277
83	0x3da27ea1	0.07934309
84	0x3d21e4bf	0.03952479
85	0x3c66ad89	0.01407946
86	0x3c6183f6	0.013764372
87	0x3d8078d6	0.062730476
88	0x3d56ff40	0.05248952
89	0x3db0ef47	0.086393885
90	0x3c984626	0.018588137
91	0x3d126bdc	0.035747394
92	0x3d3b5e39	0.045744155
93	0x3d9df990	0.07713616
94	0x3caa62c5	0.02079905
95	0x3db4263b	0.087963544
96	0x3cc7756c	0.024347983
97	0x3d6f99cd	0.058496285
98	0x3d8b67e7	0.06806927
99	0x3d944a77	0.072407655
100	0x3d2e8ce4	0.042614833
101	0x3d590edb	0.052992683
102	0x3d92af70	0.07162368
103	0x3d8dbef0	0.06921184
104	0x3db8df33	0.09026947
105	0x3d6fa0a9	0.058502827
106	0x3d4fe5d1	0.05075628
107	0x3cede1ba	0.029038299
108	0x3d505e76	0.050871335
109	0x3d989d26	0.07451849
110	0x3d1ccbd2	0.038280316
111	0x3d9b618a	0.075869635
112	0x3cc7b31a	0.024377394
113	0x3da806ec	0.08204445
114	0x3d8d70a5	0.06906251
115	0x3c866c5c	0.016409092
116	0x3c205e75	0.009788145
117	0x3c972c32	0.018453691
118	0x3d27f3f1	0.041004125
119	0x3d12fc41	0.0358851
120	0x3d220649	0.039556775
121	0x3cf88953	0.030338919
122	0xbc07c1c8	-0.008285947
123	0x3d856860	0.065140486
124	0x3dbe2957	0.09285229
125	0x3db45730	0.08805692
126	0x3d3452ae	0.044024162
127	0x3d839f29	0.06426842
128	0x3d090b39	0.03345797
129	0x3dcd3393	0.100196026
130	0x3d0fee3e	0.035139315
131	0x3da13116	0.078706905
132	0x3da459aa	0.080249146
133	0x3d00bdd2	0.031431027
134	0x3d2a54f9	0.041584942
135	0x3d3bd342	0.045855768
136	0x3cbec335	0.023286441
137	0x3d95063d	0.072765805
138	0xb9bb1eac	-0.00035690272
139	0x3d81e90f	0.063432805
140	0x3d8b9cce	0.068170175
141	0x3d5db0db	0.05412374
142	0x3dd0f4d5	0.10202948
143	0x3cfc787e	0.030819174
144	0x3c63d047	0.013904638
145	0x3d859fea	0.06524642
146	0x3d5c7089	0.05381826
147	0x3c07c4da	0.008286679
148	0x3dc0adde	0.094081625
149	0x3d6cfaf5	0.05785652
150	0x3d14c11d	0.03631698
151	0x3db419d7	0.08793991
152	0x3d8f1d38	0.06987995
153	0x3dd91ebf	0.106015675
154	0x3d56bdcf	0.05242711
155	0x3d8b3621	0.06797434
156	0x3ce8e1bf	0.028427957
157	0x3d4c06b4	0.04981108
158	0x3aea54c9	0.0017878051
159	0x3dae880a	0.08522041
160	0x3baa170e	0.0051907366
161	0x3d92070c	0.0713025
162	0x3dc18e2a	0.09450944
163	0x3d7e889e	0.062142007
164	0x3df3d5ae	0.119059905
165	0x3d849b1d	0.06474898
166	0x3d48043a	0.048832156
167	0x3d223382	0.039599903
168	0x3da117d3	0.07865872
169	0x3d2e3483	0.042530548
170	0x3d2f2abc	0.042765364
171	0x3d355e14	0.044279173
172	0x3ddfc8e5	0.109269895
173	0x3d9774e3	0.07395341
174	0x3cd06fa8	0.025443867
175	0x3d4417e1	0.047874335
176	0x3de3ea7b	0.11128708
177	0x3ced8506	0.028994095
178	0x3d3e555a	0.046468116
179	0x3c9514e6	0.018198442
180	0x3d3e5871	0.046471063
181	0x3d28c8d0	0.041207135
182	0x3da86d80	0.082240105
183	0x3d24979d	0.040183652
184	0x3dac8e6a	0.08425601
185	0x3d8be9de	0.06831716
186	0x3bc6139e	0.006044819
187	0x3db1da91	0.08684266
188	0x3d8af6f6	0.06785385
189	0x3cc31044	0.023811467
190	0x3d7e7f92	0.06213338
191	0x3da28ace	0.07936631
192	0x3d771afc	0.06032847
193	0x3d8710e4	0.065950185
194	0x3d87f17d	0.06637857
195	0x3db5e090	0.088807225
196	0x3cf61343	0.030038482
197	0xb9c362e8	-0.0003726699
198	0x3d4aac1f	0.049480554
199	0x3d6d299f	0.05790102
200	0x3ba2a368	0.004963327
201	0x3d6e7227	0.058214333
202	0x3cb8b805	0.022548685
203	0x3d30e805	0.04319002
204	0x3d802df8	0.06258768
205	0x3dab0d18	0.08352107
206	0x3d6a75c1	0.057241205
207	0x3d8c6e3b	0.06856962
208	0x3cbee6c2	0.023303393
209	0x3d665c00	0.05624008
210	0x3db12821	0.08650232
211	0x3d130a1e	0.03589832
212	0x3ddc2ba2	0.1075051
213	0x3d67dcd0	0.056607068
214	0x3d34f2d4	0.04417689
215	0x3d25d35d	0.040484775
216	0x3da92942	0.082598224
217	0x3dbf74c4	0.09348443
218	0x3cc8d5d3	0.024516022
219	0x3d81a376	0.06330006
220	0x3d65e2f8	0.056124657
221	0x3dfa6315	0.1222593
222	0x3d266f80	0.04063368
223	0x3d0a5383	0.03377105
224	0x3c5c2856	0.013437351
225	0x3c138781	0.009004475
226	0x3b3cc819	0.002880579
227	0x3d25a2ee	0.040438585
228	0x3d9519f4	0.07280341
229	0x3db0dfa7	0.08636408
230	0x3d912c78	0.0708856
231	0x3da12ada	0.078695014
232	0x3db1f45d	0.08689187
233	0x3ba811bf	0.0051290686
234	0x3da3ecad	0.08004127
235	0x3c9c37b8	0.019069538
236	0x3c887965	0.016659448
237	0x3d1cd841	0.038292173
238	0x3cab0207	0.02087499
239	0x3d4fd242	0.050737627
240	0x3de64a3b	0.11244627
241	0x3d9964e1	0.07489944
242	0x3d858571	0.065195926
243	0x3d8f61ff	0.07001113
244	0x3dc6465a	0.09681387
245	0x3d3dd00c	0.046340987
246	0x3d84b2d4	0.06479421
247	0x3d983442	0.074318424
248	0x3ce76652	0.028247032
249	0x3dabe5cf	0.08393442
250	0x3d6ae0d4	0.05734332
251	0x3d6283cb	0.05530147
252	0x3d36d12c	0.044633076
253	0x3db87563	0.09006765
254	0x3dcc32a0	0.099705935
255	0x3c904776	0.0176122
